ddpg_her/models/pickAndPlace_trained_agent.pt (torch, 92479 bytes, 15 tensors)

weight f4 [64, 28]
000000 ed 8d 9a bd 73 96 f4 3c 86 23 6a be 82 70 5a be
       -0.075466014 0.029856896 -0.22865114 -0.21331981
000010 9e eb 15 be 67 b2 bb bc 75 73 94 bd c6 8b b8 3d
       -0.14640662 -0.022912217 -0.07248584 0.09011035
000020 0c 7f 03 bd 44 5c 75 3c 69 aa ae bd 17 e4 b7 bc
       -0.032103583 0.014975611 -0.08528597 -0.022447629
000030 63 84 0a be da d2 dd bd c5 00 f7 bd 16 2d 33 bd
       -0.13527064 -0.10831232 -0.12060694 -0.04374417
000040 8b 04 32 3d 72 1b ae 3d cc 9d f1 bd 22 57 5e bd
       0.043461364 0.085013285 -0.117976755 -0.054282315
000050 d7 60 d9 3d 4d 32 57 3e b3 60 dd 39 26 e0 ea 3d
       0.10614174 0.21015282 0.0004222445 0.11468534
000060 0b 24 5e bd ab 9e 5d bd d0 f1 c4 3d 8e c8 7f be
       -0.054233592 -0.054106396 0.096164346 -0.2497885
000070 17 08 a8 3c 10 b4 15 3e 34 15 d3 3c aa 0a 24 3e
       0.02051167 0.1461947 0.025766946 0.16019693
000080 55 13 42 bc 44 2c 82 bd 20 a8 5c bf b4 7b a9 be
       -0.011845429 -0.06356099 -0.8619404 -0.3310219
000090 b4 9c 36 bf 78 24 4e 3e 00 f4 a8 3e cf 90 8f be
       -0.7133286 0.20131099 0.32998657 -0.28040168
0000a0 a4 96 45 be cb 53 20 3e ab 93 3b bf e6 99 b3 be
       -0.19295746 0.15656964 -0.732722 -0.35078353
0000b0 ee d6 5c bf 40 06 ea 3e ec 5f d3 bd db c7 94 bd
       -0.86265457 0.45707893 -0.1032103 -0.07264682
0000c0 46 55 29 3f 88 26 22 3e 0c c3 62 3f 6c 60 61 3e
       0.6614574 0.15835011 0.8857887 0.22009438
0000d0 f1 bf d3 3e ac cb 02 3d 3d 8b 82 3e 09 87 6c bd
       0.41357377 0.031932518 0.25496855 -0.057745967
0000e0 94 44 62 3e 07 fa f4 3d ae 3a eb ba 09 a8 01 bd
       0.22096473 0.119617514 -0.0017946565 -0.03165439
0000f0 9a ac 86 3e 7f 20 1d 3e 10 4c 09 bf 43 24 60 3d
       0.2630356 0.15344428 -0.5363169 0.054722082
000100 d7 61 4a be 13 dc 08 3e 7c a5 92 3e 82 58 94 be
       -0.19763885 0.13365202 0.2864188 -0.28973776
000110 f0 78 47 3e af d7 21 3e 71 16 0b bf 6e 85 92 bd
       0.19479728 0.15804933 -0.5433112 -0.07154356
000120 f1 1b 00 bf f6 73 1a 3f de 1d 1e bd 6b e5 28 3c
       -0.50042635 0.6033319 -0.038602702 0.010308604
000130 64 e2 e0 3e ca c7 1d be 0b 78 1d 3f ae f4 b5 3d
       0.43922722 -0.15408245 0.61511296 0.088845596
000140 c2 d0 5e 3e 51 ed 75 3e 99 26 b1 3e 10 9a c5 bd
       0.21759322 0.2401631 0.3459976 -0.09648526
000150 e5 c4 87 3c 6b 61 70 bd 80 d4 47 bd 17 d7 d1 bd
       0.016573379 -0.058686655 -0.04878664 -0.10246103
000160 49 27 68 3d 89 09 03 be e6 77 81 3d 15 5d b0 3d
       0.05667809 -0.12796606 0.06321697 0.08611504
000170 2b d5 2c 3e dc 39 3b 3d 48 f3 52 be c7 fa fa bd
       0.16878192 0.045709476 -0.20600617 -0.12254863
000180 91 1d c1 3d a0 03 22 3d 1b bf 15 be e0 bb 04 be
       0.094294675 0.03955424 -0.14623682 -0.12962294
000190 d8 96 52 3e cb 5f 02 3e de b0 a8 bd 6b d2 42 bd
       0.20565355 0.12731855 -0.0823686 -0.04756395
0001a0 ee 8e 39 be 1b 98 8e 3c 8e 44 2e be 58 07 83 be
       -0.1812093 0.017406514 -0.17018339 -0.2559154
0001b0 b7 bc ce bd 97 88 4b 3c 7b 43 bf bd d2 e0 c4 3d
       -0.10094588 0.012422702 -0.09339043 0.096131936
0001c0 98 f5 6a 3d 53 6a 93 3e 4d e4 64 3e a3 97 63 be
       0.057363123 0.28792056 0.22352715 -0.22225814
0001d0 db ad b3 3b 35 21 81 3c 99 c7 ef be ca 3a 94 3c
       0.0054833717 0.015762905 -0.46831968 0.018094439
0001e0 a8 de 78 be 4a a7 c2 3e e5 97 33 3d 3b 57 9c 3e
       -0.24303687 0.38018256 0.04384603 0.30535302
0001f0 3f 98 78 be 52 01 6c 3e 04 44 bc 3d 28 88 61 3e
       -0.24276827 0.23047379 0.091926605 0.22024596
000200 d3 2b 50 3e be e2 25 3e 0f c2 ab be 8c 8b a8 3d
       0.20329218 0.16199777 -0.33546492 0.082297415
000210 f6 43 9a be 02 65 ab be 60 aa 29 be 5d 57 44 3f
       -0.30129975 -0.334755 -0.16568899 0.76695806
000220 12 98 55 3f 14 2f 8b bd 1c 8f eb 3d db c0 fc 3d
       0.83435166 -0.06796089 0.11501905 0.12341472
000230 cd f0 08 3e d2 1c af 3d 14 b2 1a 3e c0 47 08 bd
       0.13373108 0.08550419 0.15106994 -0.03327155
000240 ae 8f 99 be 01 20 ef bd 9e c4 b1 bc 1e 51 bf be
       -0.2999243 -0.11676026 -0.0217002 -0.37366575
000250 12 53 24 be 3e e7 20 be fc 8c 20 3e 9c 00 92 be
       -0.16047314 -0.15713212 0.15678781 -0.2851609
000260 1b 02 0f 3c 75 39 80 be d0 ba 3b bf 3a 48 d8 be
       0.008728529 -0.25043836 -0.7333193 -0.42242604
000270 6c 2a 42 bf 56 11 00 be 14 08 7c 3e c7 3d 41 be
       -0.7584598 -0.12506613 0.24612457 -0.18871222
000280 88 f4 4c 3f c5 f5 51 3e e1 01 3b 3f b9 10 52 bf
       0.80060625 0.2050391 0.7304974 -0.82056767
000290 4d fa d9 be e7 3b 88 bc 1e d6 6d be 36 cf f1 3d
       -0.42573777 -0.016630126 -0.2322621 0.118071005
0002a0 28 7a 57 be f8 82 57 bd 60 50 01 3e d9 fc f0 bd
       -0.21042693 -0.052615136 0.12628317 -0.11766977
0002b0 62 a1 05 3e 9d db e9 3c 6b 2d 55 be 1a 5b aa 3d
       0.13049844 0.028547103 -0.20818107 0.083181575
0002c0 43 85 3e bd 38 0f f4 bd d9 3b ef 3d 29 d4 ec bd
       -0.046513807 -0.11916965 0.11681337 -0.11563904
0002d0 b5 a3 7a 3d 0f f2 43 bb dc 2d cf 3d 2a e4 c2 3c
       0.06119128 -0.0029898917 0.10116169 0.023790438
0002e0 c0 13 c8 3d 16 ed 9b 3d a8 1d af bd 7e 9e 6f bb
       0.09769392 0.0761358 -0.08550578 -0.0036562975
0002f0 6f e2 2a be 40 80 04 3e 1d b1 1f 3e 66 99 d4 3d
       -0.1668794 0.12939548 0.15594907 0.10380821
000300 c3 32 21 be 1c 63 03 bd 8f 55 31 be 51 55 13 be
       -0.1574202 -0.03207694 -0.17317794 -0.14388014
000310 3a dd ec bd e2 f3 5b 3d 6f 3b 01 be 27 9b 4e bd
       -0.11565633 0.05369938 -0.12620328 -0.050440934
000320 d5 17 aa bd c1 f9 b6 3d fd 74 c9 be 6d 62 d8 be
       -0.08305327 0.089343555 -0.39347067 -0.42262593
000330 a2 d8 4f be b8 97 3d 3e 48 34 76 3e c1 47 7a 3c
       -0.20297483 0.18514907 0.24043381 0.0152758965
000340 2e 2d 72 3e af 40 80 be 37 66 31 bf ae af 23 be
       0.23650047 -0.2504935 -0.6929659 -0.15984985
000350 1e 41 2e bf 32 c7 3c be 05 21 da 3e 27 63 1d be
       -0.6806811 -0.18435362 0.42603317 -0.15369855
000360 4b ee 0c 3f 1c d8 05 3d 55 74 61 3f b5 91 2f bf
       0.55051106 0.0326768 0.88068134 -0.68581706
000370 99 fd 8e be 36 e4 14 3e ff 55 c7 bc 9d e8 b8 3c
       -0.27927855 0.1454018 -0.024332998 0.022571856
000380 a2 01 1d be 86 9c d4 3d 54 db 01 be 15 3e 84 bd
       -0.15332654 0.10381417 -0.12681323 -0.06457154
000390 99 cb 93 bd c8 94 32 bd bf d0 9e bc 66 b8 05 3e
       -0.072165675 -0.04359892 -0.019386647 0.13058624
0003a0 c7 22 87 3a b6 c5 2e 3e 89 4d f5 3d ef 0d 83 bd
       0.0010310047 0.17067608 0.11977679 -0.06399142
0003b0 f6 bf 05 3e fc df b1 bd 6c 64 e2 bd 17 bf 52 3d
       0.13061509 -0.086853 -0.1105431 0.05145177
0003c0 fa 16 45 ba df d3 1b 3e 1a 2d e0 bd 65 09 6b 3d
       -0.00075183774 0.15217541 -0.109461024 0.057382006
0003d0 86 3b 20 3e 6e 19 38 be a1 66 4c 3e f4 d0 dd bc
       0.15647706 -0.1797845 0.19961025 -0.027077176
0003e0 3c d0 ea 3d ff a5 35 bd 0f c9 e3 bd ab 77 97 3c
       0.11465499 -0.04434776 -0.11122333 0.01848968
0003f0 04 06 20 3e b1 46 62 bd e0 c7 e5 bd 0b 24 8f bd
       0.15627295 -0.055243198 -0.11219764 -0.069892965

bias f4 [64]
000000 5a fc 9b 3d cf cf fb 3d cf a0 1d 3e fc 21 85 bd
       0.076164916 0.12295496 0.15393375 -0.06500623
000010 c4 6a dc 3d f5 d6 82 3d ef 34 cd 3c b7 5c 1a bd
       0.107625514 0.06388656 0.025049655 -0.037686076
000020 e7 ea 52 3c d7 cd 5b 3a d9 70 0c be db 05 ea bc
       0.012873388 0.00083848595 -0.13714923 -0.028567245
000030 72 3b 2c be 25 fa bf 3d 54 1f dd bd 01 49 aa bd
       -0.16819552 0.09373883 -0.10796991 -0.08314706
000040 d6 95 8a 3c 13 95 03 3e cb 53 4a bd 2d a0 c5 3d
       0.01691715 0.12849836 -0.049396317 0.09649692
000050 1b 0e 56 3d 5f 7c b9 3d 83 55 88 3c c6 50 a8 3d
       0.052259546 0.09056925 0.016642338 0.08218531
000060 31 ec 24 3e 22 3d 02 3d 38 75 f1 3c ce 45 94 bc
       0.16105725 0.031796582 0.02947484 -0.018099692
000070 26 fc ba bd 55 6f c8 bc fc 68 1a bc cc cb e8 bd
       -0.09130125 -0.02446715 -0.009424444 -0.11366996
000080 3d d5 5e be 22 4e 49 bd b4 cb 05 3d 3f 84 08 3e
       -0.21761031 -0.04914678 0.03266497 0.13331698
000090 92 c0 2e be bb ed 76 3e f7 f8 50 be fe 18 57 be
       -0.17065647 0.24114124 -0.20407473 -0.21005628
0000a0 02 61 f2 bd d8 7b cc bc 3b eb 71 bd 26 2c 13 be
       -0.11834909 -0.024961397 -0.059062224 -0.1437231
0000b0 0e cc ac 3d ce b4 00 3e 15 ef 53 bd 21 5b 2b 3e
       0.08437358 0.12568972 -0.05174168 0.16733982
0000c0 04 2f 50 bc f7 1b 99 bd ba 3b 8b 3d de 69 70 bc
       -0.012706522 -0.07476037 0.06798501 -0.014673678
0000d0 d1 fe 06 be ad 24 24 be 59 e4 98 3d e9 14 59 3d
       -0.13183142 -0.16029616 0.07465429 0.052998457
0000e0 3d 11 88 3e a7 cc 9d bd 67 cc 01 3d 59 ad be 3b
       0.26575652 -0.0770505 0.031689074 0.0058190045
0000f0 58 0f bf 3d b8 9a 03 bd 07 d5 21 3e 55 27 e5 3c
       0.093290985 -0.032129973 0.1580392 0.027972857

weight f4 [64, 64]
000000 06 98 4a 3e c7 00 15 3e 4f 56 ff bc 0a 8b d6 3d
       0.19784555 0.14551078 -0.031169085 0.10475738
000010 c6 3f 99 be 21 1e f5 3d a4 a2 21 3e 7e 56 d7 3d
       -0.29931468 0.11968637 0.15784699 0.10514544
000020 1a f9 62 bd ca a4 87 bd d0 92 01 3c 53 1d 85 3c
       -0.055413343 -0.06623228 0.007908538 0.016249334
000030 e2 02 10 3e 5e d4 2b 3d 05 f7 77 bc 77 77 7e bb
       0.140636 0.041950576 -0.015134578 -0.003882853
000040 7e 8f 2e be 28 5b b0 3d e8 15 b1 3c f6 54 95 bd
       -0.17046925 0.08611137 0.021616891 -0.07291596
000050 8f 23 39 3d d5 a1 67 bd 61 50 c4 bc ee 55 bb bd
       0.045199927 -0.05655082 -0.023964109 -0.09147249
000060 df ce 00 3e c9 ec b0 3d c2 ff ff bc 8e 5a b0 be
       0.12578915 0.08638913 -0.031249885 -0.34444088
000070 47 7e 84 3d 24 b2 5f bd f7 6f f4 3c 89 1a 18 bd
       0.06469398 -0.054613248 0.029838545 -0.03713468
000080 63 4b 51 bd be c8 82 bd bd ec 72 3d e8 b6 0c 3e
       -0.051097285 -0.06385945 0.059307802 0.13741648
000090 60 cc ef 3d 33 a5 69 3d 91 91 01 bd 0f c3 83 bc
       0.11708903 0.057042312 -0.031632964 -0.016084222
0000a0 fc 20 43 bd e8 cc d9 bc 7b 33 92 bd 02 d4 80 3d
       -0.04763888 -0.026586965 -0.07138725 0.06290437
0000b0 b7 2e 09 3e d7 e8 c9 ba 0a 33 e9 3c c2 e5 ca 3c
       0.13396727 -0.0015404475 0.02846672 0.02476776
0000c0 55 2f f2 bd 28 c3 82 bd df 58 9a bb ae 2a 6d bd
       -0.11825434 -0.06384879 -0.0047103013 -0.05790203
0000d0 40 df f1 bd 40 9a aa 3d d0 0e 4f bc 6d 75 9a be
       -0.1181016 0.08330202 -0.012637809 -0.30167714
0000e0 5c c9 ae 3c 38 bf 89 bd f6 f0 3d 3d 86 9b 09 3d
       0.02133625 -0.06725925 0.046372376 0.033595584
0000f0 40 9d bd 3b ea 67 1d 3d ad 37 61 3d e5 c3 fc 3d
       0.005786568 0.03842918 0.054984737 0.123420514
000100 e0 17 1d bd 5a 0e 90 bd 9b 1b 32 bc 80 34 c8 3d
       -0.038352847 -0.07033987 -0.0108708395 0.097756386
000110 df fc 2f 3c 28 df b1 3d 00 a0 73 ba 88 17 1d 3d
       0.0107414415 0.08685142 -0.0009293556 0.03835252
000120 60 6d 8e 3b 40 61 5e 3b 56 9d f3 bd d0 cd df bd
       0.0043465346 0.0033932477 -0.11895244 -0.109279275
000130 20 40 2a 3c f4 67 7d 3d bc 40 a8 3d e0 b8 b1 3b
       0.010391265 0.061866716 0.08215472 0.00542365
000140 41 0f 4e 3d 2c 23 56 3d c2 aa de bd c8 01 e1 bd
       0.050307516 0.052279636 -0.10872413 -0.10986668
000150 14 7d c6 bd c0 d7 0c 3b 7e df a1 bd 0f 35 25 bd
       -0.096918255 0.0021490902 -0.07903956 -0.040333804
000160 70 34 99 bc 48 c3 47 3d 70 6c ed 3c cb 33 ea 3d
       -0.018701762 0.04877022 0.028982371 0.1143566
000170 de e8 e6 3d 22 51 a3 bd 00 76 ce b9 08 19 a9 3c
       0.11274885 -0.07974459 -0.000393793 0.020641819
000180 d4 7c df 3d f8 ad 1e bd 94 37 49 bd 30 2a a2 bd
       0.10912481 -0.03874013 -0.04912527 -0.07918203
000190 ee a2 bc 3d 67 ee 17 bd c4 c1 3f bd 8e 26 ad 3d
       0.09210764 -0.037092593 -0.04681565 0.08454619
0001a0 d8 8f eb 3d 60 9c ac bb ba 74 b4 bd c2 95 d0 3d
       0.115020454 -0.005267665 -0.08811326 0.10184814
0001b0 40 1b 2f bd 3c f1 6b bd 60 f9 b3 bd 6c 44 76 bd
       -0.042750597 -0.057603106 -0.08787799 -0.060123846
0001c0 5d 4c cc bd 50 c4 93 bd b1 df ea bd d8 63 ce bc
       -0.09975503 -0.07215178 -0.11468447 -0.025194094
0001d0 cc dc 4d 3d b5 91 c2 bd 00 0c 37 b9 58 ce 3c bd
       0.050259396 -0.09500448 -0.0001745671 -0.046095222
0001e0 98 58 6c 3d 22 ba dd 3d 98 be 87 bc e7 54 81 bd
       0.057701677 0.10826518 -0.016570374 -0.06315022
0001f0 84 b3 c4 bd d4 67 96 bd 84 d3 13 3d 30 f3 ea 3c
       -0.096045524 -0.073440224 0.03609039 0.028680414
000200 d0 b5 4b 3d 30 d2 3a bd 10 47 23 3d 86 13 e4 bd
       0.049733937 -0.045610607 0.039862692 -0.11136536
000210 63 32 78 3b ed 2a cc 3d e0 5c fd bd 46 9b b1 bd
       0.003787183 0.09969125 -0.1237123 -0.08672194
000220 f3 9e 57 3d e0 19 a0 bc 88 75 88 bd 3f be 59 3d
       0.05264182 -0.019543588 -0.06663042 0.05315995
000230 92 74 83 bc e2 49 81 bc 01 6b be bd 27 60 8d 3d
       -0.016046796 -0.0157823 -0.09297753 0.06903105
000240 5d 88 4d 3d cb 7f 84 bb ab 0e 78 bb 38 60 84 3d
       0.050178874 -0.0040435544 -0.003785054 0.06463665
000250 94 7d 9f 3d b7 5c 93 bd 7c d5 0b bd 83 e0 0e 3d
       0.07787624 -0.07195418 -0.03413914 0.03488208
000260 da 34 ac bd af 4d b2 3d 24 f7 d9 bd 15 8a e1 3c
       -0.08408518 0.08706223 -0.106428415 0.027531663
000270 54 e3 b7 bd b4 02 26 3d 14 ce b2 3d b0 e2 76 3c
       -0.08978906 0.04052992 0.087307125 0.015068695
000280 50 44 4d bc 3c cb a2 3d a1 60 cb bd e4 b6 ac bd
       -0.012528494 0.0794892 -0.0993054 -0.08433321
000290 1a 30 da bd 36 80 c8 bd 00 9e 54 3b 0c 2a 68 bd
       -0.10653706 -0.09790079 0.0032442808 -0.056680724
0002a0 c0 21 e4 3c 20 38 8a 3b 01 7d b0 3d e4 01 5e bd
       0.027848125 0.0042181164 0.086175926 -0.05420102
0002b0 ec 10 0c bd 1e 51 a9 3d 24 76 01 bd c4 f2 c5 3d
       -0.034195825 0.08267425 -0.03160681 0.096654445
0002c0 82 94 a3 bd 00 70 b3 ba 1f 03 3f bd 38 df 6e 3d
       -0.0798731 -0.0013689995 -0.046633836 0.058318347
0002d0 88 2e 44 3d 8e 1c b6 bd 66 b0 a8 3d a2 99 22 3c
       0.04789594 -0.08892165 0.0823677 0.009924324
0002e0 ef bc 7b bd 00 3f 25 bb 71 1c 88 3d 20 48 bd 3d
       -0.061459478 -0.0025214553 0.0664605 0.092422724
0002f0 68 22 79 3d 20 5d 3a ba c6 67 76 3d d2 8b 93 bd
       0.060823828 -0.00071092136 0.06015756 -0.07204403
000300 34 cc cb bd 42 81 82 bd e6 36 c1 bd e0 24 5c 3d
       -0.09951058 -0.0637231 -0.09434299 0.053746104
000310 c5 5b a0 bc 1f c1 8d bd b3 d8 34 bd fa 48 87 bc
       -0.01957501 -0.069216006 -0.044151973 -0.01651429
000320 06 95 a0 3d c8 85 e4 3d c2 14 c5 bd ad 41 fd 3c
       0.07840924 0.11158329 -0.096231 0.030915106
000330 1e 55 0f 3d fd 77 e7 3c 80 9a 8b bc 7c d1 26 3c
       0.034993283 0.028255457 -0.017041445 0.010181781
000340 b5 5e 58 bc e5 0d db 3d af 5a 14 be a4 4a 42 bd
       -0.013206174 0.106960095 -0.14487718 -0.047434464
000350 c0 3c ac bd 63 e4 a2 bd cf a9 e8 39 c8 49 75 3d
       -0.08410025 -0.079537176 0.00044377006 0.059884816
000360 18 9f ee bd ce 1f 33 3d 5a d8 9e 3d 50 5e 7c bd
       -0.116514385 0.043731503 0.077561095 -0.06161338
000370 17 97 fe bb 07 30 bb bd 3f 96 9f 3b 26 92 be bd
       -0.007769476 -0.0914002 0.0048702057 -0.09305219
000380 7c 99 9b bd e2 5e ab bd 82 4a 1e be aa 4a cc 3d
       -0.07597634 -0.08367707 -0.1545811 0.099751785
000390 80 50 81 bc 12 ba 94 bc fe e0 bb bd ca 6e b2 3d
       -0.015785456 -0.018155131 -0.09173773 0.087125376
0003a0 10 87 92 bd a8 15 4f bd 02 75 e8 bd f2 43 d7 bd
       -0.071546674 -0.050557762 -0.113504425 -0.105110064
0003b0 d2 dd 9b 3d 9e ae c5 bd 2c 96 55 bd e5 b0 9c bd
       0.07610668 -0.09652446 -0.05214517 -0.076509275
0003c0 74 91 b1 3b b4 f1 08 3d ae e0 e3 bd 34 e8 e5 3d
       0.0054189507 0.03343363 -0.111268386 0.1122593
0003d0 88 02 ff bd f2 66 48 bc 10 19 2b bc e8 2c 2b bd
       -0.12451655 -0.012231575 -0.010442987 -0.041790873
0003e0 76 1a 9c 3d 24 25 d8 3d 4b cc 64 bb 80 d6 34 bd
       0.076222345 0.10553959 -0.0034911807 -0.044149876
0003f0 b6 52 be 3d 83 3c 2f 3d a1 9c 2d bc 7e 18 62 bd
       0.092931196 0.042782318 -0.010596425 -0.05519914

bias f4 [64]
000000 8c f5 b5 3d 3b e8 90 bd 94 1e 90 bd 1e 5c 57 3c
       0.08884725 -0.070755444 -0.07037082 0.013144521
000010 05 86 12 3e 4f 20 83 3c 45 22 56 3d 9c 8e 11 bd
       0.14308937 0.016006617 0.052278776 -0.035536394
000020 d0 06 29 3c 50 29 30 bd ea 9c 46 bd 40 48 b4 ba
       0.010316566 -0.04300815 -0.04848949 -0.0013754442
000030 e6 2d 46 bd 50 58 9c bd aa c8 ab 3d 92 89 9c 3e
       -0.048383616 -0.07634032 0.08387883 0.30573708
000040 a1 4c 17 3e d7 20 a2 3d 26 5f f5 3d f3 d7 58 bd
       0.14775325 0.0791642 0.11981039 -0.05294032
000050 77 3c bf 3d 93 b1 49 bd 8f 83 31 3e e0 64 a7 bd
       0.09337705 -0.049241614 0.17335342 -0.08173537
000060 4b 5b f2 bc 56 7d 75 bc 04 0e cf bc 0d e8 bb bc
       -0.029584548 -0.014983496 -0.025275238 -0.022937799
000070 8e 0c d1 bd dc aa 7d 3d 35 79 b3 bb ec 1f cd 3d
       -0.10207473 0.061930522 -0.0054770955 0.10015854
000080 37 42 c7 bc ba 45 38 3e b9 a6 d0 bd 4c dd 0c bd
       -0.024323566 0.17995349 -0.1018805 -0.034390733
000090 e4 74 a6 3d 9a dd 6d bd e2 ad 0e be d2 b7 98 bd
       0.08127764 -0.058072664 -0.13933519 -0.07456936
0000a0 e1 eb 0c 3d c9 8a 7b 3c 15 f1 32 3e 03 74 a4 bd
       0.03440464 0.015352913 0.17474778 -0.0802994
0000b0 8b f5 b2 bd 83 d3 16 be 86 71 fc 3d 38 57 dd bc
       -0.0873824 -0.14729123 0.123263404 -0.027019128
0000c0 9f cc 78 3e b0 a8 66 bd cf df ec bd 3c 03 a9 3d
       0.24296807 -0.056313217 -0.115661256 0.0825257
0000d0 93 fd 49 3d 77 dc af bc ed 28 37 3d 55 a7 8e 3e
       0.049314093 -0.02146743 0.044716764 0.2786204
0000e0 98 75 d8 bd 8e 7c c3 bc a0 89 fb 3d aa 31 63 3e
       -0.10569304 -0.023863103 0.12282109 0.22186914
0000f0 7b c9 20 be 1d 65 81 3d ab 4f 30 be ac a8 fb bd
       -0.15701859 0.06318114 -0.17217891 -0.12288031

weight f4 [64, 64]
000000 d2 ad bb bd 30 d9 f4 bd 18 5d f9 bc 4f fa e2 3d
       -0.09164013 -0.11955488 -0.030439898 0.11082899
000010 cd a5 87 bd 73 f7 98 be 8f 97 1b bd 22 f3 bd bd
       -0.06623421 -0.2987629 -0.037986334 -0.092748895
000020 ca ad ad 3d 48 0d 94 3c ab fb ac 3d 22 02 f7 3c
       0.08480413 0.01807274 0.08446439 0.030152384
000030 21 84 10 bd bc 85 2c 3d 77 2b b4 3d e5 2a 65 be
       -0.035282258 0.042119727 0.08797353 -0.22379644
000040 47 92 bf bd 30 cd 90 3d b7 e3 de 3c a2 e6 a2 3e
       -0.09354072 0.070703864 0.027208192 0.31816584
000050 30 ab ee 3c 7c 2a 1a 3e 77 93 35 3c 20 ce a6 3d
       0.029134363 0.15055269 0.011082522 0.08144784
000060 65 f8 65 3d 2e 43 b6 bd e8 35 14 3d 01 d3 e6 bd
       0.05614509 -0.08899532 0.03618422 -0.112707146
000070 61 52 d6 bb ae 32 9f 3d 4f 6f 42 bc 0b 6d 07 bd
       -0.006540582 0.07773338 -0.011867358 -0.033062976
000080 a8 09 b9 3d d5 57 16 be 2e 32 b9 bd c0 f9 2a 3b
       0.09035045 -0.14681943 -0.09042774 0.0026088804
000090 5d 76 be 3d b8 eb b7 3c b1 39 c0 3d a0 32 14 3c
       0.0929992 0.022451267 0.09386004 0.009045273
0000a0 26 39 8c bb 7f d8 76 3d 69 d3 6c bd 06 1f 3e 3d
       -0.0042792736 0.06026506 -0.057818804 0.046416305
0000b0 c0 f6 98 bd 0b da c9 bd 48 31 e7 3c 58 1d 33 3d
       -0.07468939 -0.098560415 0.028221741 0.043729156
0000c0 bc 4d de 3c c0 6f d5 bd bf f8 a9 bd 55 a3 c6 bd
       0.027136676 -0.10421705 -0.08299398 -0.09699122
0000d0 d8 aa 88 bd bf 39 a7 3d 92 9e 06 bc d2 88 c6 3c
       -0.06673211 0.08165311 -0.008216517 0.024235163
0000e0 1b 2d 84 3d 1a 78 e8 bd 1c dd ee bd 98 dc 28 3c
       0.06453916 -0.113510326 -0.11663267 0.0103065
0000f0 f4 2c 0a bd b0 d4 ee 3c fb 87 18 bd 48 8a d3 3d
       -0.033734277 0.029154152 -0.037239056 0.103291094
000100 58 34 58 3e 80 9c fd 3d 78 df 7c 3d b2 67 c5 bd
       0.21113718 0.12383366 0.061736554 -0.09638919
000110 5d fd 75 bc a4 92 0f be c9 52 f1 3d b0 c3 0f 3d
       -0.01501402 -0.14020783 0.11783368 0.03509873
000120 17 c7 53 3d cb 34 55 3c 1b 20 be bc 2c 7f b3 3d
       0.05170354 0.013013075 -0.023208668 0.087644905
000130 32 a5 cb 3c 90 4a b1 3c cc de 4b 3c d6 63 8c be
       0.024859045 0.021642 0.012443256 -0.2741992
000140 48 de 38 3e c7 9a b7 3d 7f 46 1e 3d 37 93 fb 3c
       0.18053544 0.08965068 0.03864145 0.030709846
000150 4e 1e dd bb 1d 08 9c 3d 2d 13 05 3d e7 95 ca 3d
       -0.0067479974 0.07618735 0.03248899 0.09891873
000160 14 55 1c 3e 4b 25 4c 3e 54 56 c9 3d 38 12 be 3b
       0.1526683 0.19936101 0.09830919 0.0058005117
000170 e5 ee fe bc 44 74 a8 3a b1 d3 3e 3d 03 51 35 3c
       -0.031119773 0.0012852033 0.046588603 0.011066678
000180 cc b6 cd 3d a8 25 48 3e 69 e1 e3 bd c8 2c c0 3d
       0.10044631 0.19545615 -0.11126978 0.09383541
000190 66 7a d3 bd 75 d3 38 3d c7 11 8c bd ec 5a 1f bd
       -0.1032608 0.045123536 -0.06839328 -0.03890507
0001a0 2f a3 69 bc 72 10 9a bd 0d 34 1e bd 27 c7 90 bc
       -0.014260097 -0.07522668 -0.03862386 -0.017673088
0001b0 22 7a 8b 3d 1b ae 74 bc 4f 62 ca bd 98 d1 fc bc
       0.06810404 -0.014934088 -0.09882032 -0.03086166
0001c0 0d d1 83 bd 1a 2c 8c 3d 2a af d2 3c 0f 48 af bd
       -0.06436358 0.06844349 0.02571829 -0.08558666
0001d0 cf 40 19 3e 63 7c a2 bd f9 f4 01 3d 3f 9f d0 bc
       0.14966129 -0.07933881 0.031727765 -0.02546656
0001e0 50 f1 0c be 88 46 c8 bd c4 ee 8c 3d 22 28 4b 3e
       -0.13763928 -0.09779078 0.068814784 0.19839528
0001f0 50 4c 63 3d a4 77 94 bd f2 d8 a2 3d f2 c6 e4 bd
       0.0554927 -0.07249382 0.07951535 -0.11170758
000200 7c f8 08 3d c9 f0 8f 3d 3a ed 8b 3d 62 14 8d 3d
       0.0334401 0.07028348 0.06832357 0.06888653
000210 80 34 e1 3d c7 10 ad 3c ec 8c f1 bd af 25 b9 3d
       0.10996342 0.021126164 -0.11794457 0.09040391
000220 a7 aa eb bd e0 c0 a8 bd 86 4b a7 3d a8 f6 7f 3c
       -0.11507159 -0.08239913 0.08168702 0.015622772
000230 1a fa 14 3e fc 65 c9 bd 9a 6b 46 3e 52 cc 1a 3b
       0.14548531 -0.09833905 0.19376984 0.002362032
000240 a6 56 32 3e 64 e4 15 3d d7 cc 21 3d 46 d2 d0 3d
       0.17415866 0.036594763 0.03950199 0.101963565
000250 36 3d 95 3d 51 bc 4e bd 45 9d 5b 3f 8d d5 a1 bd
       0.07287066 -0.05047256 0.8578685 -0.0790206
000260 0a 81 3d 3e be 32 57 be 7c 7f 29 3d 16 64 f9 3d
       0.18506256 -0.2101545 0.041381344 0.12177293
000270 a8 2c 80 3d 82 6d 0e bd 44 0a 82 3d f8 e7 e8 3c
       0.062585175 -0.034772404 0.06349614 0.028430924
000280 f0 59 ff bc ca c2 c2 bd 68 4b 93 bd 50 37 01 3d
       -0.031170815 -0.09509809 -0.07192117 0.03154689
000290 ea 02 9c bd f4 15 f1 3d ba 6f 99 bd cc b6 59 3d
       -0.07617743 0.11771765 -0.07492013 0.053152844
0002a0 47 c9 3c 3e 04 bc ae bd 2c 7e 0e 3e ca d5 91 bd
       0.18436156 -0.08531955 0.13915318 -0.07120855
0002b0 d8 3f 0f bd 40 b5 5e bd 65 b0 2f 3f 4e e6 c5 bd
       -0.034972996 -0.054372072 0.6862853 -0.09663068
0002c0 0b a1 a1 3e 9e 62 90 3d ca 5c 34 3e 15 57 1d 3f
       0.3156818 0.0705006 0.17613521 0.61461
0002d0 b8 20 23 3f 90 0a d0 bd 05 fa ab 3d 96 f2 64 3f
       0.637218 -0.10158265 0.08397297 0.89432657
0002e0 d8 b3 0f 3f 48 18 f5 bc b0 3f 17 3f 47 f4 4d 3e
       0.56133795 -0.029918805 0.59081554 0.20112716
0002f0 ae ce e6 3c bc 63 1b 3d 3e 86 39 3d b0 8e cb bd
       0.028174724 0.03793691 0.04529404 -0.09939325
000300 48 bb e6 3c 00 00 b1 39 b4 7e a9 bd 80 e2 91 3d
       0.028165475 0.0003376007 -0.0827612 0.071232796
000310 31 8e 16 be 70 06 d5 bd 78 c2 ee bc fa f3 ef bd
       -0.14702679 -0.104016185 -0.029145464 -0.11716457
000320 f6 76 e6 bd bc d2 19 bd 20 08 c1 bc 24 ca bb 3d
       -0.11253159 -0.037554488 -0.023563445 0.09169415
000330 b4 ec 6e 3d 96 05 ee 3d 07 ce 05 3c 88 2c 6a bc
       0.058331206 0.11622159 0.0081667965 -0.014292844
000340 be 05 5f bd 50 fe 57 bd ae 56 e5 bd de d3 e9 bd
       -0.054448836 -0.052732766 -0.111981735 -0.114173636
000350 b0 da 59 3d dc 0a a2 bd 04 09 52 bd 18 46 6f 3d
       0.053187072 -0.079122275 -0.05127813 0.058416456
000360 62 40 9e bd d8 4c 3d 3d 80 a8 e2 bb 38 4d d3 3c
       -0.07727124 0.046215862 -0.0069170594 0.025793657
000370 00 3a 69 bd 4a aa ba 3d b8 63 d1 bd 80 e1 16 be
       -0.05694008 0.09114511 -0.10224098 -0.14734459
000380 5a bc c7 3d 02 f4 ac bd 16 bf f5 3d 10 6a 63 3d
       0.09752722 -0.08444978 0.119993374 0.05552107
000390 18 9b 45 3d a0 9d 7d bc e0 9b c0 3c a0 4c 03 3d
       0.048243612 -0.015479475 0.023511827 0.032055497
0003a0 37 76 aa bd 8c 6e bc 3d e1 06 3c 3d 40 d4 f0 3b
       -0.08323329 0.09200773 0.045904998 0.007349521
0003b0 40 cd 12 3d 00 92 78 bc 20 f0 38 bd c8 54 c5 bd
       0.035840273 -0.015171528 -0.045150876 -0.09635311
0003c0 70 b0 44 bd c0 28 f5 bd 3c 03 21 bd e0 ef 85 3d
       -0.048019826 -0.11970663 -0.039309725 0.06539893
0003d0 10 62 f8 3d d6 41 ea bd 9c cf d4 bd 30 4b d3 3d
       0.12128079 -0.114383385 -0.10391161 0.10317075
0003e0 62 05 83 bd 00 54 31 39 14 a2 a0 3d e5 f0 a3 3d
       -0.06397511 0.00016911328 0.07843414 0.08004931
0003f0 20 e6 41 3d d8 a5 fd 3c c0 86 45 bb 80 71 4e 3b
       0.047338605 0.03096287 -0.0030140132 0.0031500757

bias f4 [64]
000000 66 ce 5c be 4c 5f c2 3d b9 3f 2e 3e fa 6a 16 be
       -0.2156311 0.09490833 0.17016496 -0.14689246
000010 76 7c 69 3c 86 66 60 bd 9f e4 51 bd c0 4c 7e bd
       0.014250865 -0.054785274 -0.05124342 -0.062084913
000020 d3 37 cb 3d 7c 97 a5 bd 6e 9a 38 3e f8 f2 16 be
       0.09922757 -0.08085534 0.1802766 -0.14741123
000030 7f fc 76 bc b4 3f 6f 3d a6 ec 66 bc 24 86 21 bc
       -0.015074848 0.05841036 -0.014094507 -0.009858642
000040 4c 74 8f bd 0e b3 46 be f4 14 47 3e d6 22 00 bd
       -0.07004604 -0.19404241 0.19441587 -0.031283222
000050 c7 7c 54 be b2 ad b9 3d c4 88 11 3e f8 f9 92 bd
       -0.20750724 0.09066333 0.14212328 -0.07176584
000060 59 6c 3c 3c d1 c8 14 be 46 b6 d8 3d 66 ee 6d be
       0.0115004415 -0.1452973 0.10581641 -0.23235473
000070 ab 0b 07 be 1f 85 b0 3b 17 c8 50 3e c8 1c 2d 3e
       -0.13188045 0.005386963 0.20388828 0.1690551
000080 9d cf bd 3b 12 9a 2e 3d b8 cd 73 3d 2b 8a ff 3c
       0.0057925717 0.0426274 0.05952236 0.031193813
000090 47 1a 9d bd 3e db b8 bd ef 1d 0a bd db ac bc 3d
       -0.07671028 -0.09026192 -0.033719953 0.09212657
0000a0 96 9f 7c bd b8 d3 f4 bd 7d 9c 18 be 09 82 5b bd
       -0.06167563 -0.11954445 -0.14903446 -0.053590808
0000b0 4b 82 2c be f0 87 9a bd ec 88 87 3c 7f b6 b0 3c
       -0.16846578 -0.07545459 0.016544782 0.021571396
0000c0 02 7e c4 3d 44 16 ad 3e 68 20 62 3e 2c 58 8d 3d
       0.095943466 0.3380605 0.22082675 0.06901583
0000d0 d6 1d cc 3c a4 b9 a4 3d 78 50 25 bd 15 e7 13 3e
       0.02491657 0.08043221 -0.040359944 0.1444362
0000e0 2f 11 0f bd 4f 06 8a 3e 99 4d d5 bd 06 ca b9 bd
       -0.034928497 0.26957938 -0.10415191 -0.09071736
0000f0 3d 49 79 3d 45 a9 ef bd 52 a5 ad 3e 2b e5 af 3c
       0.06086086 -0.117022075 0.33915192 0.02147158

weight f4 [4, 64]
000000 32 a4 1c be f9 93 29 be 3b 6c 7b 3e 36 cf 8b bd
       -0.1529701 -0.16560353 0.24553005 -0.06826632
000010 24 9b 63 be 77 08 a1 3e 4c 3e 86 3c 10 8c 38 bc
       -0.2222715 0.3145177 0.016387127 -0.011263862
000020 ca 8e 09 3d 9f 78 09 3c 56 44 87 be 21 19 c8 3e
       0.03358344 0.008390575 -0.26419324 0.39081672
000030 1d 5c cf bd ca c7 ae bb 73 71 a5 3e e5 08 ff 3d
       -0.10124991 -0.0053338753 0.32313117 0.12452868
000040 a4 fa a7 3d 46 8d 71 bd 2e 56 32 3f 26 10 fc bd
       0.08202103 -0.05897262 0.6966275 -0.123077676
000050 77 f9 5a be 79 32 83 3d 79 58 6e bd 91 90 57 be
       -0.21384226 0.06406111 -0.058189843 -0.21051241
000060 a8 82 16 bf 33 a3 d6 3d a1 cf 3e be ce f9 69 3c
       -0.58793116 0.104803465 -0.18633892 0.0142807495
000070 b0 ab 16 be 97 8c d4 be e5 c1 47 3e 0c 27 41 be
       -0.14713931 -0.41513512 0.19507559 -0.18862551
000080 d1 c6 84 bc f7 5c 61 be db e5 e1 bd 02 54 1c bc
       -0.016208084 -0.2200812 -0.110301696 -0.009541513
000090 56 88 91 be 33 be d2 bd e3 8a 6d 3e a0 c8 cd 3c
       -0.2842433 -0.10290184 0.23197512 0.02512008
0000a0 10 30 96 be 02 17 01 be 7c 89 d5 bc 10 94 cf bd
       -0.29333544 -0.12606433 -0.026066534 -0.101356626
0000b0 6f d0 a2 3d 3b 60 2f 3d 9b 7d db bd 8b e3 94 3e
       0.07949912 0.042816382 -0.10717317 0.29079852
0000c0 57 91 22 be 05 a1 1c be 80 ed 0c 3c 39 3b 04 3f
       -0.15875755 -0.15295799 0.008601546 0.51652867
0000d0 ef 3d 38 be 8b e5 ad bd 60 e6 54 3e 48 cf 76 3e
       -0.17992376 -0.084910475 0.20791006 0.24102509
0000e0 e5 a0 97 be 16 c8 a5 3e 68 b7 d6 3d f8 60 31 be
       -0.2961494 0.32379216 0.10484201 -0.17322147
0000f0 bb 34 b6 bd 80 3d 04 bd de 04 54 3f 17 4d 92 3d
       -0.08896776 -0.032285213 0.82819927 0.0714361
000100 07 13 32 3e 9d 07 9d bd 58 5b 5d be b1 39 9b bd
       0.17390071 -0.07667468 -0.21616876 -0.07579363
000110 d8 db ce bc 4d 42 76 bf 0c a2 48 bd da f6 a2 bd
       -0.025251314 -0.96194917 -0.048982665 -0.079572394
000120 3b 98 75 bd 79 c7 b3 3d 30 f5 a2 bd 68 b4 5d 3c
       -0.05995963 0.08778281 -0.07956922 0.013531782
000130 0f ec 37 3c a5 e3 39 3c 55 5d 5d be 92 df 92 be
       0.011225714 0.011345779 -0.21617635 -0.28686196
000140 ab 06 80 bd 2c 96 b5 3d 61 91 b3 3e 3f 03 3c bd
       -0.06251272 0.08866534 0.35071853 -0.045901533
000150 06 9f bc 3d 62 2f aa bc 62 10 7a bd 67 0f a1 3c
       0.09210019 -0.020774547 -0.06105078 0.019660665
000160 56 fc b3 3d e0 fb 2e be 37 1a fa 3c 04 c9 58 bd
       0.08788364 -0.1708827 0.030530078 -0.05292608
000170 5d 11 ca 3e 80 9b e0 3d 4d ab 62 be 8d 08 9a be
       0.39466372 0.10967159 -0.22135659 -0.3008465
000180 be 37 03 bd f4 21 31 bd 17 d6 c0 bc 0f f0 23 bc
       -0.03203558 -0.04324527 -0.023539586 -0.010005965
000190 0d 4e 65 3e d7 c2 07 3d 71 02 b1 3b 28 9a 4a bd
       0.22393055 0.033144798 0.0054019024 -0.04946342
0001a0 d7 70 a0 3c 7f 08 62 be a7 a9 a7 bd 52 b4 ea 3c
       0.019585056 -0.22073554 -0.081866555 0.028650437
0001b0 d4 c6 90 bd 2b ea cd 3d 90 75 6e 3a 42 c3 05 3d
       -0.070691735 0.100544296 0.00090964977 0.032656915
0001c0 69 36 9a bd 85 16 da be c7 9c 08 be c6 73 55 be
       -0.07529909 -0.42595306 -0.13341056 -0.20844945
0001d0 0a 0a fe bd 16 f0 2c 3d e6 9c e6 3e bb 77 1a be
       -0.124042585 0.04222115 0.4504158 -0.15084736
0001e0 a6 8e 27 3b 65 85 0c be a3 9d 46 bd 09 f3 25 bd
       0.0025567203 -0.13722761 -0.048490178 -0.04051498
0001f0 55 62 06 3e d4 26 af bd 71 e1 49 be bc eb 82 3d
       0.13123448 -0.08552328 -0.19714905 0.06392619
000200 b9 1e 55 bd 82 99 25 3d 77 74 dc 3d e9 e9 10 3c
       -0.052031253 0.0404296 0.107644014 0.008844831
000210 20 a9 4d 3d 7d f4 07 3e 9c f2 e7 bd cc 7c 4b 3d
       0.05021012 0.13276859 -0.11325571 0.049679562
000220 0c 49 fb 3e 78 bf ec bd b0 ab 19 3e 7a 38 11 3e
       0.49079168 -0.11559957 0.150069 0.141817
000230 0e be ca bd 53 04 5c bd 38 34 49 3e ad d8 ed 3d
       -0.09899531 -0.05371506 0.19648826 0.11613593
000240 97 c2 ec bb 59 77 92 bb 6c ac 8e bd 02 8e bd bd
       -0.0072253454 -0.0044697938 -0.069664806 -0.092556015
000250 27 fd 21 bd 4c a8 7f bd 42 b2 0d be fc c7 8e 3e
       -0.039548066 -0.06241636 -0.13837531 0.2788695
000260 83 77 62 3e 85 ed a0 3d f0 41 ee bd f4 a3 06 be
       0.22115903 0.07857803 -0.1163367 -0.1314848
000270 2b af b4 3c 17 04 4c 3d 26 65 ad bd 10 5e 88 3e
       0.022056183 0.049808588 -0.08466558 0.26634264
000280 7e 5a a4 3c 01 50 9c 3c a8 53 72 3f 13 a3 89 3d
       0.020062681 0.019081118 0.946589 0.06720557
000290 3f e7 af 3d a7 8a 09 bd 61 87 d5 3e 9f 0a d0 bd
       0.085890286 -0.033579495 0.41704848 -0.10158276
0002a0 f3 0d 23 3d fe c6 25 be c6 78 42 3d 5e 94 01 be
       0.039808225 -0.16189191 0.04747846 -0.12654254
0002b0 8b 19 e3 bd 4f 56 e7 bd 15 23 a4 bd bb 6b 41 be
       -0.11088856 -0.11295759 -0.08014504 -0.18888752
0002c0 2a 68 32 be ee f5 8c 3d c8 12 09 be 2b 8e 61 3e
       -0.17422548 0.06882845 -0.1338607 0.22026889
0002d0 be 77 d2 bd a7 f9 37 bc 52 be 4f bd 7b 28 9a bd
       -0.10276745 -0.011228955 -0.050718613 -0.07527252
0002e0 82 b8 c0 3d 54 c3 ed bd d5 e9 c5 bd 3c bd dc 3d
       0.09410192 -0.116095215 -0.096637405 0.10778281
0002f0 42 52 80 3d 3d da 44 3d 0e 7e 72 be 7e a2 66 bd
       0.062656894 0.04805969 -0.23680899 -0.05630731
000300 1e 41 98 3d a8 8f 4a be bb e6 83 3e 8d 25 a3 3c
       0.07434295 -0.19781363 0.2576197 0.019915367
000310 d1 6f 01 be 59 70 5e 38 ff 94 e8 3b 54 b2 50 bd
       -0.12640311 5.3033556e-05 0.00709784 -0.050951317
000320 b1 be dd 3e be 56 3e 3d 8d bf 00 3f eb e8 37 3e
       0.43309548 0.046469443 0.50292283 0.17959945
000330 af 48 3c be e5 5e 12 bb be aa 32 3e 5c b6 a8 3d
       -0.18387102 -0.0022334394 0.17447945 0.08237907
000340 c5 80 5b 3d bc 88 94 3e ee 0b 88 3d 27 2d 19 be
       0.0535896 0.2901057 0.066429004 -0.1495863
000350 64 fd ed bd 19 da a7 bb 2e 9b 36 3c d0 0b e6 3e
       -0.11620596 -0.005122435 0.011145396 0.44930887
000360 da b8 1c 3f 1e 2c 21 bd 34 e3 17 3e 2d 0a 06 3e
       0.6121956 -0.039348714 0.14832765 0.13089819
000370 3c 9a 0d 3e 6f ae a4 3e 8b 13 53 be 73 e4 88 3c
       0.13828367 0.32164332 -0.20612924 0.016710496
000380 20 9f ee bd 71 e0 ca bd bb 68 12 3f 10 90 c8 3d
       -0.116514444 -0.0990609 0.57191056 0.09793103
000390 41 b8 bb 3e 42 81 eb bd d6 b9 06 3b b9 5b 80 bc
       0.36664012 -0.11499263 0.0020557544 -0.015668737
0003a0 a9 48 f2 3d 9e 1c 93 bd 77 75 87 bd 94 fc 9e bc
       0.11830265 -0.07183193 -0.066142015 -0.019407548
0003b0 9f f4 a5 3d 89 35 34 3c 60 03 44 3c 96 4a 3a 3d
       0.081032984 0.010999092 0.011963695 0.045481287
0003c0 ea 74 c0 bd 5a 97 12 bc 59 46 de bd 2a 7a e9 bb
       -0.093972996 -0.008947218 -0.108532615 -0.007125159
0003d0 63 bf 94 bd ef 83 53 bd bb b2 4a 3e 75 fb 86 3e
       -0.072630666 -0.051639494 0.19794743 0.2636372
0003e0 38 c9 01 3f a6 e7 0d be fc 6d 39 bd 87 fe 88 bb
       0.5069766 -0.13857898 -0.045270905 -0.0041807326
0003f0 93 dc c4 be b0 ae e7 bc 5d 0e d1 3d 44 e7 d9 bd
       -0.38449535 -0.02828154 0.10207818 -0.106398135

bias f4 [4]
000000 ef 3a cc 3d 60 2e e6 bd 5c ca 2f be ce b6 6c 3d
       0.09972178 -0.11239314 -0.17167038 0.057791524

weight f4 [64, 32]
000000 5e c2 d5 3c d3 09 ad be 8f 4d 24 be 13 69 95 3c
       0.026093658 -0.33796558 -0.16045211 0.01823858
000010 1d 78 c0 be 12 fb 02 3d 94 05 66 be fe 1d 73 be
       -0.3759164 0.03197772 -0.22463065 -0.2374191
000020 e2 7d 4b 3d 53 87 8a bd 61 58 1c be 81 15 78 be
       0.049680598 -0.06764092 -0.15268089 -0.24226953
000030 e0 dc 71 3d 8e 60 29 bd fc d9 22 be 9b 94 b4 3c
       0.059048533 -0.041351847 -0.15903467 0.022043517
000040 de f7 99 3e 07 73 cc 3e 07 15 62 be c2 d6 18 3f
       0.3007192 0.3993151 -0.22078334 0.59702694
000050 9c 8c eb bc 21 ec 3c 3e 20 d9 c1 3d df 57 b4 3e
       -0.028753571 0.18449451 0.094652414 0.3522329
000060 df 7e b4 bc 12 58 02 3e 50 da e8 3c ef fb 4a 3e
       -0.022033153 0.12728909 0.028424412 0.19822668
000070 63 eb 37 bc 88 33 8c bc cb a6 1b be 3d 5e 6d 3d
       -0.011225554 -0.017114416 -0.15200345 0.0579512
000080 46 a2 87 be ec 7d 10 3f 71 4c da bc 4b e8 52 3d
       -0.26490992 0.5644214 -0.026647778 0.051491063
000090 49 3d 07 3f 04 31 41 be 63 8f 56 be d8 11 00 3f
       0.5282789 -0.18866354 -0.20953135 0.5002723
0000a0 00 e5 43 bb 01 5b 95 3c be c0 42 be 3e 6d 1e 3e
       -0.0029891133 0.01823187 -0.19018838 0.1547136
0000b0 cc 9d aa 3e e4 f3 58 be 15 9c 93 bd df b4 9b 3c
       0.33323514 -0.21186787 -0.07207505 0.019007144
0000c0 02 b9 82 3e 95 e7 7a be ec 0f 33 bf 26 4f 6d bf
       0.25531775 -0.24502404 -0.6994617 -0.92698896
0000d0 f2 78 c7 3c 07 77 20 3e 8f b0 93 3d 75 11 f2 bc
       0.024349663 0.15670405 0.0721141 -0.02954934
0000e0 1a a8 87 bc 02 a5 cc bd 89 1a 94 bf 71 e5 8d 3e
       -0.01655965 -0.0999241 -1.1570598 0.27714112
0000f0 6a 97 a3 3c fa 7b c8 bc aa 11 19 bd 09 76 5b 3c
       0.01996966 -0.02447318 -0.03737036 0.013394841
000100 ce bf c0 3d 51 1e 5a 3f e1 13 ee bc 20 65 02 3e
       0.09411584 0.8520251 -0.029062213 0.12733889
000110 df 05 62 3f fe 75 7f be 0b 0b 0f 3e d6 aa 4d 3f
       0.8829021 -0.24947354 0.13969056 0.803388
000120 56 89 d8 3d ec fd 81 bd 21 38 e6 bd 77 bb 08 3f
       0.1057307 -0.0634726 -0.112411745 0.5341105
000130 3f 03 24 bf d1 68 10 be 2e b4 06 3e fc 6b a9 3b
       -0.64067453 -0.14102484 0.1315467 0.0051703434
000140 22 ae 40 3e 63 4c b9 bf db c6 dc 3e 31 79 21 bf
       0.18816426 -1.4476436 0.43120465 -0.6307555
000150 24 e0 90 3d a1 8e 46 3e b6 69 8b 3b be ef 16 bd
       0.070740014 0.19390346 0.004254545 -0.03684973
000160 03 eb 2d ba 96 a6 b9 be 9c 43 f4 bf b4 87 83 be
       -0.0006634446 -0.36259907 -1.9083133 -0.2568947
000170 d1 07 97 3b 13 23 ef 3c f0 8b c6 bc 87 c9 db 3c
       0.004609086 0.02919153 -0.02423665 0.026829494
000180 6d 41 09 bc 5a 61 9a 3e c0 10 4b be 2d 7c a1 bd
       -0.008377415 0.30152398 -0.19830608 -0.07885013
000190 8a 7e 02 3e 47 83 28 be 5c 15 aa 3b 65 31 a4 3e
       0.12743583 -0.16456328 0.0051905345 0.32068935
0001a0 91 b7 64 bd 73 53 87 3d 2b 17 1b be fa 7e f2 bc
       -0.055839125 0.066077136 -0.15145557 -0.029601563
0001b0 aa 24 3e 3d 67 d7 9f 3d c3 99 37 be 6a fd 5b bc
       0.046421684 0.078047566 -0.17929749 -0.013427118
0001c0 14 ba d6 3d 70 07 ba be 0b a1 c6 be 69 9f 9f 3e
       0.1048471 -0.363338 -0.3879474 0.31176308
0001d0 50 5a f2 bd 7e 28 1c 3d ed 18 1d bc 42 6c 34 bd
       -0.11833632 0.038124554 -0.009588462 -0.044048555
0001e0 fa 13 30 3d 9a b1 0d be 95 fa e9 be 4a 16 29 3f
       0.0429878 -0.13837281 -0.4569899 0.66049635
0001f0 b7 54 f6 bb e1 40 94 3d 10 cf b4 bc 52 5e 35 bc
       -0.007517423 0.07238937 -0.022071391 -0.011069851
000200 90 af 73 be ff aa 16 3f 56 5d b6 bd 34 4d b0 3c
       -0.2379744 0.5885467 -0.08904521 0.021521188
000210 01 c3 df 3e 32 2b 4f be 2d bf ff bd 72 37 14 3f
       0.43703464 -0.20231321 -0.12487636 0.578971
000220 42 95 b8 3d e8 b4 33 3c 7f 9a 9d bc 3e a8 2f be
       0.09012844 0.010968424 -0.019238709 -0.17154023
000230 a2 8d 60 3f 3a 25 f0 3c ba e8 91 bb 0c 7e dd bd
       0.87716115 0.029314626 -0.004452792 -0.10815057
000240 ff c6 c3 3d 2a 28 00 3e 4b 6b 55 3f 19 eb f5 3e
       0.0955944 0.12515321 0.8336684 0.48030928
000250 66 95 36 bd 3d 7a 59 3d 61 21 c7 bc 3c 44 94 3c
       -0.04457607 0.05309509 -0.024307908 0.018098943
000260 33 f2 85 bd 7d b1 b8 3d 69 6c 9c bf 00 c8 a8 3d
       -0.065403365 0.09018228 -1.2220584 0.08241272
000270 0f ab b5 bc ec 31 36 3c ee 3b db bc 52 45 0a bc
       -0.022176294 0.011120301 -0.026761975 -0.008439379
000280 65 67 e0 bd 3c ea eb bd 78 dd 1d bd 01 99 8e bd
       -0.10957221 -0.11519286 -0.038541287 -0.06962777
000290 6e 35 5d bd 1d 0f 8a be 8b 1f 8f be 15 ed f0 be
       -0.054006033 -0.26964656 -0.27953753 -0.4705588
0002a0 04 98 70 3e 61 de 32 bf 66 cd ac bf 37 f3 13 3d
       0.2349549 -0.69870573 -1.3500183 0.03612062
0002b0 10 59 4c 3f 90 84 43 3e d9 21 27 3f f4 99 ec 3e
       0.798234 0.19093537 0.6528602 0.46211207
0002c0 cf 72 3a 3f c7 c3 40 bd 61 17 cd bd 67 38 38 3f
       0.72831434 -0.047061708 -0.10014225 0.71961063
0002d0 a0 30 e2 be 29 fd ba be e8 06 f4 be 2a 6d 05 be
       -0.44177723 -0.3652127 -0.4766152 -0.13029924
0002e0 97 ac 9b 3e e2 72 dd 3a 99 c3 b7 bd bc 41 6d 3e
       0.30405113 0.00168952 -0.08972854 0.23169607
0002f0 68 3f 6b bd 73 6e 8a 3d f3 38 2b 3d e8 a8 8e be
       -0.057433516 0.06759348 0.041802358 -0.2786324
000300 ab e3 cf bb a4 e0 f8 be 2c a6 fb bd e4 fd 1b be
       -0.006344279 -0.48608887 -0.12287554 -0.1523357
000310 01 d7 15 bf e9 66 18 bd f3 dd 4f 3c ae c4 2e bf
       -0.58531195 -0.037207518 0.012687194 -0.6826886
000320 ab 87 27 3e 72 9d 1b 3d 02 47 66 bf 7e bb 0c bf
       0.16360347 0.03799195 -0.899521 -0.5497359
000330 7f 58 62 3f 7b 6e 49 be 2d 17 e2 3e 23 49 8b be
       0.88416284 -0.19671051 0.44158307 -0.27204236
000340 dc 50 da bd 0f bd 99 3f df 50 14 3e 2e 34 82 3f
       -0.10659954 1.2010821 0.14483975 1.0172174
000350 d1 e9 03 bf cc c3 e9 bc 63 79 14 3e 5e 3c af be
       -0.5152865 -0.028535746 0.1449943 -0.34225744
000360 78 64 ad 3c 7e 14 75 bd a6 7b e2 3e 50 08 35 3e
       0.021166071 -0.059833996 0.4423496 0.17678952
000370 c4 af 93 3c 1d 9a f1 3d dc 73 84 bd 0c ce f4 3c
       0.018028148 0.11796973 -0.06467411 0.029883407
000380 bb f4 2a be 7b bb 6f bd 6a a5 4d be c0 1e 5a be
       -0.1669492 -0.058528405 -0.20082632 -0.21300793
000390 82 f1 a6 3d b3 37 f6 3c a5 99 a9 3d 1f 7d 7f 3d
       0.08151533 0.030055856 0.082812585 0.062375184
0003a0 fc 86 20 bd c0 76 40 3d a5 10 e6 bd 3b 10 fd bd
       -0.03919123 0.04698825 -0.112336434 -0.12356611
0003b0 77 da d4 3a 51 ac ae bd d7 34 ea 3d d3 31 30 be
       0.0016239424 -0.085289605 0.1143586 -0.17206506
0003c0 28 87 4f 3e 4f 2f 95 bd bb fb 86 3b 22 cd 30 3e
       0.20266402 -0.07284414 0.004119364 0.17265752
0003d0 57 bc d3 bc 95 f2 36 bd a0 3e 8c 3d 79 f7 00 bd
       -0.025846643 -0.044664938 0.06847882 -0.03148601
0003e0 af de 1e 3d 2f 72 71 3d 2e 7a 30 bd c8 dc 89 3d
       0.038786586 0.058946785 -0.04308527 0.06731564
0003f0 cc f7 c2 bc 9a 07 d4 3d de 52 91 3d 6c 70 ab bd
       -0.0237998 0.103530124 0.07095884 -0.08371052

bias f4 [64]
000000 2e b6 81 be 14 f3 94 be c2 47 f5 bd 96 34 95 be
       -0.25334305 -0.29091704 -0.11976577 -0.29141682
000010 59 54 87 bd ed 98 61 bd 47 84 2b be 4b e6 62 be
       -0.06607885 -0.055077482 -0.16749679 -0.22158162
000020 81 3e 67 3d 7e ec 4b be 5c 0f 23 bd 23 b6 4d be
       0.056456093 -0.19914433 -0.03980957 -0.20089011
000030 89 46 18 be d1 31 7c bd b1 bf 26 be be b7 41 be
       -0.14870657 -0.061570946 -0.16284062 -0.18917748
000040 d3 88 16 3e 85 8f 53 bd 86 38 af bd 23 0b 04 be
       0.14700632 -0.051650543 -0.08555703 -0.12894873
000050 63 db e8 be 76 5b 70 3d 08 b1 41 be de 16 53 be
       -0.4547988 0.058680974 -0.18915188 -0.20614192
000060 03 89 88 bc 01 81 a0 be 0b 71 25 be 2e f5 61 be
       -0.016666895 -0.31348422 -0.16156404 -0.22066185
000070 9a 80 41 be 02 e9 78 be 3c ae 20 be 7e de b7 3d
       -0.18896714 -0.24307635 -0.15691465 0.08977984
000080 00 6c c3 3d 51 ba 3d be 76 68 f8 bd 27 37 fc 3c
       0.09542084 -0.18528105 -0.12129299 0.030788017
000090 e4 f4 45 be 05 25 1f be 26 51 5a be 75 f6 4b be
       -0.193317 -0.15541466 -0.21320018 -0.19918235
0000a0 97 ce 10 bd 18 85 f4 3d 47 92 9b bd 6d 24 9e bc
       -0.03535327 0.11939448 -0.075962596 -0.019304479
0000b0 b1 f0 ac 3f b9 fb 2a be 5a c8 0d 40 91 54 52 be
       1.3510953 -0.16697587 2.2153535 -0.20540072
0000c0 e8 fb f3 3e 96 d8 0f be e2 77 95 bd 87 9b be be
       0.47653127 -0.14047465 -0.072982565 -0.37228033
0000d0 f0 9d 03 be e9 bb 63 bd f2 2e 66 3f 01 c6 9f be
       -0.12853217 -0.055599127 0.8991538 -0.31205752
0000e0 79 b9 99 3f 20 9d c0 be e7 56 8d be a3 32 48 be
       1.2009727 -0.37619877 -0.27605364 -0.19550566
0000f0 40 2d b2 3d 71 73 41 be 45 b6 55 be e6 cd 8a be
       0.08700037 -0.18891694 -0.20870312 -0.27110213

weight f4 [64, 64]
000000 08 52 41 3e 37 d7 44 be 50 5a 5c bf 65 68 c3 3e
       0.18878949 -0.19222723 -0.86075306 0.38165584
000010 5c 88 8e 3c 15 38 de 3e 94 5b b9 be e8 4f c8 3d
       0.017399006 0.43402162 -0.3620268 0.09780866
000020 0a 80 38 bf 15 ca 90 3e 94 4d c3 3d 75 fc 5d bd
       -0.7207037 0.28279176 0.09536281 -0.05419584
000030 c8 44 4a 3d b5 cf 37 bc 03 46 2b 3e 50 ea 99 3c
       0.049382 -0.011218955 0.16725926 0.018788487
000040 77 6f ac 3e 09 47 88 be 62 84 c8 3e b1 e6 e3 be
       0.3367879 -0.26616696 0.391635 -0.4451194
000050 dc 1f 3b 3f c6 24 fc bc c9 d6 fc bd 38 bd 27 be
       0.7309549 -0.030779254 -0.123456545 -0.16380775
000060 a7 1f be bd d8 f4 f5 3d e3 9c a1 bd 4a 9c 10 be
       -0.09283381 0.12009591 -0.07891252 -0.1412212
000070 c1 1f 4b bd bd 6e 9e 3e d8 ae 5b 3d 77 25 72 bd
       -0.04959083 0.30943862 0.05363354 -0.05911776
000080 f0 61 0a bc 5b 96 b2 3d 2a 48 ac bd 8f 3e 9c 3c
       -0.008446202 0.08720084 -0.08412202 0.019072799
000090 ed 1b c4 3d f6 c4 96 39 e4 ef 10 be 75 e1 16 3f
       0.09575639 0.00028756977 -0.14154011 0.5893777
0000a0 b5 26 bb 3d 31 3d ce bd 3d 9a f8 3e 1d 76 c5 3d
       0.09138242 -0.10070265 0.48555174 0.09641669
0000b0 cc ec 10 3e cc 9d d4 bd 8e 52 bb bf 8c 3f af 3e
       0.14152831 -0.1038166 -1.4634569 0.3422817
0000c0 3f 51 b0 bf 7c c0 e5 be e2 e5 c7 bd ae 94 01 3f
       -1.3774794 -0.44873416 -0.097606435 0.5061749
0000d0 05 eb 38 3e 2b 31 c0 bd 1a 94 bf be d1 5d 2a 3e
       0.18058403 -0.09384378 -0.3741768 0.1663735
0000e0 bb bb 6b bf f9 f9 a6 3e 7f dd 85 3d c7 c0 c8 3d
       -0.9208333 0.3261259 0.06536388 0.09802394
0000f0 6b ff 89 3e 2c 39 91 3a f8 d9 7b bd 50 3a c1 3d
       0.2695268 0.0011079661 -0.061487168 0.0943495
000100 35 e0 b5 3d 8d 7f 1d be ba ff bb bc 9e 6f 10 3f
       0.08880655 -0.15380688 -0.022949088 0.56420314
000110 8e 16 ff be 05 30 c0 3e c6 d2 89 bc 13 6b f0 bd
       -0.49821895 0.37536636 -0.016824137 -0.11739173
000120 d3 e3 57 bc 3b 4d b7 bd f9 34 53 3d c3 ad 9f bd
       -0.013176876 -0.089502774 0.05156419 -0.07796814
000130 f1 ac a3 3d 97 41 a1 be cd b2 aa 3d 77 b7 ce bd
       0.0799197 -0.31495354 0.08334885 -0.10093587
000140 15 96 e2 3e 32 6c a2 be e8 69 b8 3d 5c 0e a7 3d
       0.44255129 -0.3172317 0.09004575 0.08157036
000150 0a 28 2b 3d 75 99 22 3e fa cb b8 3d ab 9c 3e 40
       0.04178623 0.15878852 0.090232804 2.9783123
000160 9d 53 36 be 46 da 1b be a8 18 7e bd 0a f4 0b 40
       -0.17805333 -0.15219983 -0.062035233 2.18677
000170 ef 7a fb bc d3 21 15 bc e4 d2 a1 3d ab 52 70 bd
       -0.030698268 -0.009102303 0.07901552 -0.05867259
000180 bf 18 46 bd 0e c7 fd 3d fd 82 8a bd f9 19 9e be
       -0.048363443 0.12391482 -0.06763265 -0.3087919
000190 5b 87 44 3e 0b 68 0a be 37 9c 2d be 52 e6 d2 3e
       0.19192259 -0.13516252 -0.16954122 0.41191345
0001a0 c0 55 bf 3d fc e8 86 bd 01 e2 77 3e 7a 4f fa 3c
       0.093425274 -0.06587407 0.24207307 0.030555476
0001b0 5a 3c 91 bf 8c 36 b6 bd fd 1a 28 bf 24 88 0f 3e
       -1.1346543 -0.08897123 -0.6566618 0.14016777
0001c0 26 32 81 3d 09 75 3a bf 7b d3 3d bc 4d 8e 24 3f
       0.06308393 -0.7283483 -0.011586065 0.64279634
0001d0 45 2a cf bd 91 46 2f 3d b4 78 7b 3c d5 d1 77 bd
       -0.10115484 0.042791907 0.015348602 -0.060502846
0001e0 3e f4 99 be 86 27 7c be 99 c7 2d 40 bf 03 17 bd
       -0.30069155 -0.24624452 2.7153075 -0.036868807
0001f0 ad 72 10 3e 6c 56 9c bd d0 f4 88 bd 9d 74 02 3e
       0.14106245 -0.07633671 -0.06687319 0.12739797
000200 35 43 d4 3e 93 2a 85 3e 01 45 27 bf 67 36 89 3f
       0.41457525 0.26009044 -0.65339667 1.0719727
000210 d3 37 de 3e 49 e9 cf 3e bd e1 d2 be 68 ec eb 3d
       0.43401965 0.4060767 -0.4118785 0.115197
000220 7c d9 00 bf 00 95 c0 3e 0e ef cd bd df 8e 92 bd
       -0.50331855 0.37613678 -0.10055362 -0.07156157
000230 44 99 a3 3e 8b be 2b be 58 0d c1 bc a6 2b f8 3c
       0.3195287 -0.16771905 -0.023565933 0.03029425
000240 42 c5 d6 bd 00 03 06 bf 80 9a ea 3e f1 31 ba bf
       -0.10486843 -0.5234833 0.45821 -1.4546491
000250 66 67 b2 3f e4 10 3d bc 69 68 8e 3d 46 d0 a5 3d
       1.3937805 -0.011539672 0.069535084 0.08096366
000260 cd 33 f5 3d 5e ad 6b 3f 67 fd ed 3d a2 ed 5d bf
       0.11972771 0.9206141 0.11620598 -0.86690724
000270 ab a8 a0 3f 90 b7 cf 3e 5e e8 eb 3d ea 21 cd 3c
       1.2551473 0.40569735 0.1151893 0.025040586
000280 a2 d5 95 bd 2e 60 15 3e 54 35 a3 3c eb 6e 64 bd
       -0.07316138 0.14587471 0.01992289 -0.055769842
000290 5b 43 ce 3e 19 98 d0 bd cd 9f 8b bd fc 4d 4f 3f
       0.40285763 -0.1018526 -0.06817589 0.8097837
0002a0 a0 d8 96 3c 11 68 15 be 31 2b 6d 3f 22 89 f8 3d
       0.018413842 -0.1459048 0.9264403 0.12135531
0002b0 cc 5f d1 bf 40 e7 51 bb 08 38 55 c0 bc 31 a3 3e
       -1.635736 -0.0032028705 -3.3315449 0.31873882
0002c0 a7 3d 18 c0 4b e6 f8 be 12 63 10 3d 4c ef b8 3f
       -2.378763 -0.486132 0.03525073 1.4448028
0002d0 74 a1 cf 3e a4 02 a6 be 66 5f e1 c0 01 db 54 3e
       0.40552866 -0.3242389 -7.0428953 0.20786668
0002e0 c1 5f da bf fb 63 97 3e 15 5c c9 3f c4 bb 8d 3d
       -1.7060472 0.29568467 1.5731226 0.06920579
0002f0 e2 f3 90 3e fa 90 f9 3d 8b 09 b9 be fb 87 25 3f
       0.28311068 0.12185855 -0.36140093 0.64660615
000300 e6 62 8b 3d 1e 22 ed bb 31 b3 0c be ad 82 d5 3c
       0.06805973 -0.007236733 -0.13740231 0.026063288
000310 8f 16 03 be 59 a3 1a bd ef c3 de 3c 90 7b f3 3d
       -0.12801574 -0.037753437 0.027193038 0.11888802
000320 f1 d2 20 be 06 19 c1 bd 54 0f 11 bd e0 1b f1 3b
       -0.15705468 -0.09428601 -0.03541501 0.0073580593
000330 8b d6 36 3d 54 1b 15 3d b8 70 ca bc 4a 49 8d bd
       0.044638198 0.036403015 -0.024711952 -0.068987444
000340 e3 48 e3 3c 14 70 f5 bd 31 35 1f be c3 01 ac bd
       0.027744716 -0.11984268 -0.15547635 -0.083987735
000350 86 93 fa bd c0 7a ae bd 38 0c 55 3d 70 2c e8 3c
       -0.12235169 -0.085195065 0.052013606 0.028341502
000360 1f 05 04 3d 16 e7 68 bb f8 52 da 3c f6 d6 bc 3d
       0.032231446 -0.0035538129 0.02665089 0.09220688
000370 93 0c 02 bc d4 86 f6 bd f6 24 ec 3d 28 e8 32 3d
       -0.007937568 -0.12037435 0.11530487 0.043678433
000380 48 6b e4 3d 9c bf d4 3d ec 07 30 bd b6 61 23 bd
       0.11153275 0.10388109 -0.042976305 -0.039888106
000390 6b ff 9e 3c 1c 5b e2 bd 25 58 a6 bd 02 45 10 be
       0.019408902 -0.11052534 -0.08122281 -0.14088824
0003a0 40 b7 e2 3c 00 59 5f 3c 72 4d 64 3d 9e 72 ec bd
       0.027675271 0.013632059 0.05573792 -0.11545299
0003b0 6b ee f9 3c d8 0e 85 3d 30 ca ae bd 23 ca 1f be
       0.030509194 0.06496972 -0.08534658 -0.15604453
0003c0 3c 1c c9 bd d7 ac cd bd a4 2a 87 bd 2d d5 a4 bd
       -0.098198384 -0.10042732 -0.0659993 -0.080484726
0003d0 c8 f6 72 bd 75 6d 8a bd 20 e1 bf bd 76 d8 15 be
       -0.05931738 -0.067591585 -0.09369111 -0.14633355
0003e0 6a c8 1f bc be 7b 66 bd e1 52 f8 bd c0 68 56 bb
       -0.009752372 -0.056270353 -0.12125183 -0.0032716244
0003f0 af ee 34 bd b6 3b da bd 68 dd ad 3d d5 53 05 be
       -0.04417294 -0.1065592 0.084894955 -0.1302026
