ddpg_her/models/push_trained_agent.pt (torch, 92479 bytes, 15 tensors)

weight f4 [64, 28]
00000000: 6371 963d 36e1 173e dbfd cabe 2c4f 273e
00000010: 83f8 2abe ce89 aa3d ed30 7c3f f41e 0bbf
00000020: 444d a83f cafb 6e3e fba8 a1bf bcf0 a53f
00000030: 8eb3 75bd aa74 66c0 9ed2 ed3d 522f 4bbf
00000040: d3e6 ae3f f216 4dbe 2640 59bf fdbc 6fbe
00000050: d3c1 dabd 343e 223f c8b5 96bf 00c8 a33e
00000060: 4e1d fa3e 1abb b73e c977 013f e29c 963e
00000070: 3132 803e 8e3e 9bbe 29ab d83d 4f1f ca3e
00000080: bc75 0abf e218 ba3d c0fa c2bf 723c 92bf
00000090: 296f 603e d633 623e 4713 d5be 3e8e b43f
000000a0: 4e01 38bf 47de 5abf 6a71 21bd 7a82 1ebf
000000b0: ef95 993e 8181 173f 84c7 89bf 9702 f1be
000000c0: 81fc 9c3d e780 53bd d4ac 52be ab24 1f3e
000000d0: 3fd8 d63c a205 df3e 261c 123f 3a8e 033f
000000e0: 0ca7 6a3d 13d7 20bf abeb b2be a35b e4bd
000000f0: 9ebf ccbe c6ac 26be 04a0 63bf fb34 85be
00000100: 1027 81be c6e7 363d e06c a3be 08b7 0940
00000110: f5c8 b9be 0b12 9a3e a992 21bf ebd7 82bf
00000120: 1cca 113f df9e 303f 2ca2 70be 023a 37bf
00000130: b554 353f f59c bf3e 89cc e3be 2d82 19bf
00000140: 91fb e4be 0bf6 733e e579 a83e bd03 45be
00000150: 2eaa 66bc 7fae f53d 9949 a8be 8365 403d
00000160: 76aa 3b3f f8b6 023d e156 083f 8fbe a13f
00000170: fe52 943f 3902 343e a80f 4cbf b9c3 263f
00000180: 20b6 143f c95b 41c0 588a ef3e d874 2d3f
00000190: a45f 0e3f e7e4 b8bd b162 29bf 0027 53bd
000001a0: 02bd 79bf a645 a6be 3296 b8bf aba4 eebe
000001b0: 84f4 9ebe 5f29 a03e 052b ca3e 73cc ad3e
000001c0: 8a3b 8d3d 19fc df3e de2e b33d f4d8 98bd
000001d0: 00ac 5b3f ed6b 943d ccfb adbe f29a fa3f
000001e0: 1038 25bd eaee 1e3e c04b 3cbf d138 323e
000001f0: 6098 2f3d e402 a1bf 86e5 1c3d 4f99 5c3f
00000200: abef 3cbe 3e8e 8cbf a489 09be 2d44 813e
00000210: 1a0a bbbe 0e76 9f3c df04 f8be db2f 5cbf
00000220: 780b 5b3f 73b2 0e3d eee6 543f 69d3 403e
00000230: b2aa da3d 33cd e8bc f2cf fa3d 6573 b6bd
00000240: 544e b3be 3a79 5cbd bf71 f9bd dbba 01bf
00000250: 89ab b8bd b1e9 34be 4edd 373e dab3 afbd
00000260: d94c d03d aa87 363f ee2a d4be 6f19 5abf
00000270: 8371 043d e3f0 8abe 3f06 00bf c667 e0bb
00000280: 2e8d 333f 498d d73d ee00 8d3e 96df 3bbf
00000290: 7f92 bbbe 4e49 dabd 8a79 47be 4b97 a73e
000002a0: b2cf 33be 2636 0e3f de69 ea3e eecb 82bd
000002b0: 2c03 873f 379c a7bc 1127 df3d 6665 5a3f
000002c0: f1e2 8bbf a3b4 92bb 7b95 f8bd 9c88 d4bf
000002d0: a20b 483e efd1 d03d 2f47 e43e 1246 a73e
000002e0: b504 5dbf fb7d 6cbf 533e 213e ef57 353f
000002f0: ad95 37bf ef09 353f 1eca 093f 28a2 f7bf
00000300: 31e0 973f 159f 8bbc 5d34 873e b71e 693c
00000310: 00f1 5b3d 4fb6 5e3e 17a1 91be 3b97 423e
00000320: 5467 25be b73c 373e 0c6a eabe 09eb 82bf
00000330: 6c7b 093f d7d8 2c3e 5b8e 42be a1b0 643e
00000340: a5c6 983f ca81 c0be 93dd 99be a7fe 7dbf
00000350: f547 b23e d2a4 fcbe 3a09 bdbe 9513 01be
00000360: 07a8 1b3e 908b 0d3f 0b9f b8be 13ca 4fbe
00000370: c707 953e 913a e13e 5f75 923d f0b2 2f3e
00000380: ef1b 33be 4951 853e 4d93 9ebe d31b 1ebe
00000390: 7d8f 193f 0b9a 13be c6a5 5ebf 55d7 c63f
000003a0: c4d1 fd3d 6798 2c3e 908d 0bbd 46e3 d2bf
000003b0: 61fd 873f 8e67 a6bd 7876 bebd 2c4d 853f
000003c0: 5c4a 70bf fec0 e8bf b606 d93e c245 e5bd
000003d0: 9c8d 3abd 9bf8 19bd e939 823e 602f 82bf
000003e0: cdc5 213f 38c8 6ebc a86f e53e 7844 31be
000003f0: e6b2 e53d 0857 cbbd 4c07 20be c47a e9bd
0.073458456 0.14832005 -0.396468 0.16338795 -0.16696362 0.083270654 0.98512155 -0.54344106
1.314858 0.23338237 -1.2629694 1.2964091 -0.05998569 -3.6008706 0.11612438 -0.7936908
1.3664192 -0.20028284 -0.8486351 -0.23411937 -0.106815 0.63376164 -1.1774225 0.31988525
0.48850483 0.35884935 0.505734 0.29416567 0.25038293 -0.30321163 0.10579521 0.39477012
-0.540859 0.09086777 -1.5232773 -1.1424696 0.21917404 0.22090086 -0.4161627 1.4105909
-0.7187699 -0.8549542 -0.0394148 -0.6191784 0.29997203 0.5918198 -1.0764012 -0.47072288
0.07665349 -0.051636603 -0.20573741 0.15541331 0.026226161 0.43558985 0.570742 0.51388896
0.057288215 -0.6282818 -0.34945425 -0.11150291 -0.39989942 -0.16276845 -0.8891604 -0.26016983
-0.25225115 0.04465463 -0.31919003 2.1517963 -0.3628613 0.3009189 -0.6311441 -1.0222143
0.5694902 0.6899242 -0.23499364 -0.7157289 0.7083238 0.37424436 -0.44491985 -0.5996426
-0.4472318 0.23824327 0.32905498 -0.19239707 -0.01407866 0.11996173 -0.3286865 0.04697181
0.7330698 0.031912774 0.53257567 1.2636279 1.1587827 0.17578973 -0.7971139 0.651424
0.580904 -3.0212271 0.46785235 0.67756414 0.55614686 -0.09028035 -0.66166216 -0.051550865
-0.9755403 -0.32475013 -1.4420836 -0.46610007 -0.31045926 0.31281564 0.39485946 0.33945045
0.06896122 0.43747023 0.087491736 -0.074632555 0.85809326 0.07247148 -0.33981168 1.9578536
-0.04033667 0.15520826 -0.73553085 0.17404486 0.042869925 -1.2579007 0.038304828 0.8617143
-0.18450801 -1.0980909 -0.13431412 0.25247326 -0.36531144 0.019465473 -0.48441216 -0.8601052
0.85564375 0.03483815 0.8316487 0.18830647 0.10677089 -0.02841816 0.12246694 -0.089087285
-0.35020697 -0.05382655 -0.121798985 -0.50675744 -0.09017093 -0.17667271 0.17955515 -0.08579226
0.101709075 0.71300757 -0.41439003 -0.8519506 0.032334816 -0.27136907 -0.5000953 -0.0068483083
0.701373 0.10524995 0.27539772 -0.7338804 -0.36635205 -0.10658513 -0.19479957 0.32732615
-0.17559698 0.55551374 0.45783895 -0.06386553 1.0547843 -0.020460231 0.10896123 0.8531097
-1.0928632 -0.0044771 -0.12137886 -1.660419 0.19535688 0.10196292 0.4458556 0.32670647
-0.8633531 -0.9237973 0.15746431 0.708373 -0.7171276 0.7071828 0.5382403 -1.9346361
1.1865293 -0.01704363 0.26407138 0.014228514 0.053696632 0.21749233 -0.28443214 0.19003002
-0.16152698 0.17894255 -0.45784032 -1.0227977 0.5370395 0.16879593 -0.18999617 0.22333004
1.1935622 -0.3759902 -0.3005186 -0.99216694 0.34820524 -0.49344498 -0.36921102 -0.12605126
0.15200816 0.5529108 -0.3605884 -0.20291929 0.29107496 0.43989995 0.07151293 0.17158103
-0.17491125 0.26038578 -0.30971757 -0.15440302 0.5998457 -0.14414231 -0.869717 1.5534464
0.12393525 0.16855012 -0.03407055 -1.6475608 1.06242 -0.0812522 -0.0929994 1.0414176
-0.93863463 -1.8183897 0.42387933 -0.11194946 -0.045545205 -0.037590604 0.25434807 -1.0170708
0.63192445 -0.014574103 0.4481175 -0.17311275 0.11215763 -0.09928709 -0.15627784 -0.11400369

bias f4 [64]
00000000: 5e75 d23e fba7 b03e 7437 093d 135b 2b3e
00000010: 536f d73d d6f2 373b a768 313d d6a5 193e
00000020: 73ba dbbb fd3c 31bd 4b9b 28be dca6 66be
00000030: b00e 70be 0b03 94bb 8e08 2abe 7d40 c5be
00000040: 43f1 5abe 70a9 1d3e 60cc febe 0599 a13d
00000050: 5cf1 803e 3038 54be 02ee ed3c 7b18 f03a
00000060: 6186 a93e c54a 7e3d d8ed 15bd e133 a43d
00000070: e330 afbd 8156 2dbe 2d16 a43d f318 ea3d
00000080: 6cb5 5fbe 6753 f2bd 63e8 9a3c 2631 d43d
00000090: 1aad 69be d1d3 13bd d6f7 49be 2002 4cbe
000000a0: f9ab 48bc d87b ccbc 16f4 dabd 4330 04bd
000000b0: 0822 963e 153c ee3d daa7 8fbe 6c35 50bd
000000c0: 7e22 d0be 70cd 09be 0d2e 1cbe 30b0 6ebc
000000d0: 9cc1 ee3b eab1 103d ff26 3d3d 233a bc3d
000000e0: b596 093e a7cc 9dbd 4561 f83e 838b 61be
000000f0: 4e75 0f3d 35cc 853e 08a9 f93d dce4 463e
0.4110517 0.3450316 0.03350015 0.16733961 0.1051928 0.0028068325 0.043312695 0.15004668
-0.006705576 -0.043271054 -0.1646549 -0.2252459 -0.23443103 -0.0045169643 -0.16604826 -0.38525763
-0.21381097 0.15396667 -0.497653 0.07890514 0.25184143 -0.20724559 0.029044155 0.0018317843
0.33110335 0.062083025 -0.03660378 0.080177076 -0.08554246 -0.1692753 0.08012042 0.1143054
-0.2184655 -0.11832314 0.018909639 0.10360937 -0.2281994 -0.036090676 -0.19723448 -0.19922686
-0.012248033 -0.024961397 -0.10691087 -0.03227259 0.2932284 0.116325535 -0.28057748 -0.050832197
-0.40651315 -0.13457274 -0.15251942 -0.014568374 0.0072862636 0.035325922 0.046179768 0.09190776
0.13436396 -0.0770505 0.4851171 -0.22025876 0.03502398 0.2613236 0.12190443 0.1942324

weight f4 [64, 64]
00000000: 111a 393e 29d5 63bf 77e4 1fbf 5a01 8bbd
00000010: f1d4 9cbe b909 30be 12d4 203f 5ff7 2abe
00000020: 503d a3be 31c0 c2bd 0b8a d93d d6b5 98be
00000030: 05a9 4c3f 973b 7ebe 75fa 5abe 1f7e 643f
00000040: 4358 b0bf bf88 db3f 0b9b b53e 8216 14be
00000050: 4ade 93be 1a45 4b3e 3880 033e bd77 9bbf
00000060: 2ec2 94be c35c a2be 3b85 0bbe 3220 2f3e
00000070: 77d1 643d 920f 93bf c49d 353f c712 2ebe
00000080: 4f61 57bd 7188 4cbd 66a2 463f b3da 9a3d
00000090: 913b 523d 1457 bcbe f44e efbd ec26 29bd
000000a0: 04bd d3bc e8cc d9bc d44a df3e 4295 173f
000000b0: 811b 253f 3718 883d 2522 003f e37c 963e
000000c0: ac27 d8be 28c3 82bd 5d1c af3e a63b 40bd
000000d0: 12f5 f5be 1342 eabd c8d1 2c3e 8c77 06bf
000000e0: 5028 b63e 38bf 89bd 774e 36bf 0aea be3e
000000f0: 8fc4 723c 1f08 29be f594 c9be 1c09 23be
00000100: 3e86 8cbd 95b5 c7bd 645f 24bd 46d2 043d
00000110: 0f49 57bd c40d 683d f6df 84bd 4915 033c
00000120: 59b5 6bbd 4061 5e3b 569d f3bd d0cd dfbd
00000130: 49db a2bc 6cef bd39 9dda 5b3d d24f b2bc
00000140: 7a38 203c 0d49 533d 1afe dcbd c801 e1bd
00000150: 147d c6bd 9425 cbbc 007d dfbd 9629 8ebd
00000160: 414f 47bd 2eb3 80bc e156 c83c 87e7 563d
00000170: dee8 e63d 6c69 e1bd 543f 00bd 6874 01bc
00000180: d47c df3d f8ad 1ebd e641 a9bd 302a a2bd
00000190: eea2 bc3d b40d 11bd c4c1 3fbd 8e26 ad3d
000001a0: d88f eb3d 609c acbb 6f4b f2bd b451 1c3d
000001b0: 70c3 d5bd 3cf1 6bbd 60f9 b3bd 13d5 f0bd
000001c0: e059 21be 50c4 93bd 50b8 13be d863 cebc
000001d0: ccdc 4d3d 79c3 00be 000c 37b9 8649 a6bd
000001e0: a767 54bb 22ba dd3d db12 a6bd 40d8 80bd
000001f0: 265f 21be 1d0c d4bd 84d3 133d 30f3 ea3c
00000200: edea c53c 837a 833d 84d3 ffbd e824 30bf
00000210: e23b 1ebe 6d93 0cbe c795 19bf eaa6 80be
00000220: 0e59 2dbf e019 a0bc db23 c9bd 29b4 ecbe
00000230: 430d 35bf d86f 6bbe 8be8 eabe 762f 6eba
00000240: 43e2 283e 2066 64bf bf54 7fbe e78d 853d
00000250: fee5 d0bd 12e1 98be 2fc1 48bf 81e3 bc3e
00000260: be8a 53bd 4e06 c1be f237 1ebf a7ba f5be
00000270: 54e3 b7bd c956 e23e 5014 0d3e c455 dc3e
00000280: 5044 4dbc c33d 863d 87a7 b0be e4b6 acbd
00000290: 1a30 dabd 7ca9 cebe 009e 543b 7850 19bd
000002a0: 5541 27be 2038 8a3b 3ea4 343e 9e5b 4bbd
000002b0: 49ec 65bf 58d1 3f3d db29 a2be 47c8 f1be
000002c0: e580 10bf 7e29 2ebd 6408 78be 38df 6e3d
000002d0: 9070 20be b0a8 14be 91e7 39be 93d5 923f
000002e0: 9bdd 44bf 003f 25bb 5a11 5e3e a0a4 d73e
000002f0: 21c6 7ebf a4c6 75bf b1b1 5a3e a676 60bf
00000300: c34c 32bf c602 13bf 1cd0 80bf 535b 3bbf
00000310: ce0e 6cbe 7403 b2be 21c8 ed3d e28f 1dbe
00000320: 53ab 533e 0b0c 933d 5796 98bd 9261 5a3e
00000330: cb51 113e f6cd 32bf dda0 483f 7506 1b3f
00000340: 875d 1fbf f63e 2ebe 62ae 1a3f a613 38bd
00000350: 6ae8 5dbc e97e 093f 51cb 36bf 14a4 03bf
00000360: 6a37 f9be f1a7 f4bc cd7f 0dbc 6dfd a23e
00000370: 40ba b23c f3b5 31be 73d3 5c3f 8a9a 45bf
00000380: bc73 47bd e109 72bd b559 47bf d6b8 693d
00000390: 857b 3ebd be7a 1cbe 0427 5ebd ca6e b23d
000003a0: c0d1 12be a815 4fbd 8615 6abe e355 fe3e
000003b0: 3ed0 333e 7bef 85bd be04 f1be 72da e8bd
000003c0: c673 4ebf b4f1 083d 3c4f c2be e303 933d
000003d0: a3f3 00bf 98e5 4a3f 247f 54bf 9709 43bf
000003e0: 1359 693e 2425 d83d 2d0f 46bf 5485 0f3d
000003f0: c6f0 933e 788c 42bf e825 d1be 0c33 56bf
0.1807635 -0.8899713 -0.62457985 -0.06787367 -0.3063121 -0.17191209 0.62823594 -0.16695927
-0.31882715 -0.09509314 0.10622033 -0.2982623 0.79945403 -0.24827419 -0.21384604 0.89254946
-1.3776935 1.7151107 0.3546985 -0.14461711 -0.2888053 0.19850579 0.1284188 -1.2145916
-0.29054397 -0.31711397 -0.13625042 0.17102125 0.055863824 -1.1489127 0.70943856 -0.1699935
-0.052583035 -0.04993481 0.7759155 0.07561245 0.05132634 -0.36785185 -0.11684981 -0.041296884
-0.025846966 -0.026586965 0.43611777 0.59212124 0.6449509 0.066452436 0.500521 0.29392156
-0.42217767 -0.06384879 0.34201327 -0.046931885 -0.48038536 -0.11438384 0.168769 -0.52526164
0.3557763 -0.06725925 -0.7121348 0.37287933 0.014817371 -0.16507004 -0.39371458 -0.15921444
-0.06861542 -0.09751431 -0.040130034 0.032427095 -0.05255991 0.056653753 -0.0648803 0.00800068
-0.057545993 0.0033932477 -0.11895244 -0.109279275 -0.019879954 0.00036227272 0.053675283 -0.021766577
0.00977909 0.05158334 -0.107906535 -0.10986668 -0.096918255 -0.024798192 -0.10912514 -0.06941526
-0.048659567 -0.01571044 0.02445549 0.052466895 0.11274885 -0.11006436 -0.031310394 -0.007901289
0.10912481 -0.03874013 -0.08264522 -0.07918203 0.09210764 -0.03541346 -0.04681565 0.08454619
0.115020454 -0.005267665 -0.11830794 0.038163856 -0.10437667 -0.057603106 -0.08787799 -0.11759391
-0.15756941 -0.07215178 -0.14425778 -0.025194094 0.050259396 -0.12574567 -0.0001745671 -0.08119492
-0.0032410414 0.10826518 -0.08109065 -0.062912464 -0.15758952 -0.10353873 0.03609039 0.028680414
0.024159873 0.06419852 -0.12491515 -0.68806314 -0.15452531 -0.13728113 -0.5999417 -0.25127345
-0.6771401 -0.019543588 -0.09821292 -0.462312 -0.7072336 -0.22991884 -0.4588054 -0.0009086052
0.16492562 -0.8921833 -0.24934672 0.06521206 -0.102001175 -0.29859215 -0.78419775 0.36892322
-0.051645987 -0.37700123 -0.61804116 -0.47993967 -0.08978906 0.44206837 0.1377728 0.43034184
-0.012528494 0.06554749 -0.34502813 -0.08433321 -0.10653706 -0.4036368 0.0032442808 -0.037430257
-0.16333516 0.0042181164 0.17640778 -0.04964792 -0.8981367 0.046830505 -0.31672558 -0.47223112
-0.5644668 -0.04252004 -0.24221951 0.058318347 -0.15667939 -0.14517474 -0.18154742 1.1471428
-0.76900643 -0.0025214553 0.21686307 0.42117786 -0.9952107 -0.96006227 0.21356846 -0.87681043
-0.6964838 -0.57426107 -1.006351 -0.73186225 -0.23052523 -0.3476826 0.11610437 -0.15386918
0.20670824 0.071800314 -0.0745055 0.21326283 0.14191358 -0.6984552 0.7837046 0.6055673
-0.62252086 -0.17016205 0.6042234 -0.044940613 -0.013544181 0.53709275 -0.71403986 -0.5142224
-0.4867509 -0.029865237 -0.008636427 0.31833974 0.021817327 -0.17354564 0.86260146 -0.7718893
-0.048694357 -0.059091453 -0.7787126 0.05706104 -0.046504516 -0.15281197 -0.054236427 0.087125376
-0.14337826 -0.050557762 -0.22859773 0.496749 0.17559907 -0.06539818 -0.4707393 -0.1136979
-0.80645406 0.03343363 -0.37951076 0.07178476 -0.5037176 0.7925658 -0.830065 -0.7618651
0.22787885 0.10553959 -0.77366906 0.03503926 0.28894633 -0.7599559 -0.40849233 -0.8367164

bias f4 [64]
00000000: 9d31 d43d 0c7a 08be d743 153e 3a11 cebe
00000010: 978c 863e 6164 efbc 9ff7 edbe 4e66 d1be
00000020: 372d 9e3e 2739 85be 3da1 923e 4589 70bc
00000030: 233f dc3e 6c50 10be 1ade 80be 5aac d93e
00000040: 38cf 953d 9c24 babd d339 fe3d 870b 383d
00000050: 7ffe 153f f078 6bbd 3056 cd3c 5425 1cbe
00000060: 5f59 7a3e 39a6 8bbc 5417 eebe 7428 c2bd
00000070: d091 bc3c a284 0b3d b2e6 c43d f72f 103e
00000080: 690c adbd aaf0 5e3e e56e a63e e2b0 023e
00000090: fde6 ec3e 0458 ed3c 3172 dd3e 62b6 17be
000000a0: 93cf b9be 630b fcba 4877 34be f31c f83e
000000b0: a23c debd bf81 bd3d 2bff 49be b674 e1bb
000000c0: ab32 2e3d 2125 af3e 6eda e63e 37bf c63d
000000d0: c6d5 683e c06f a3bd 8fa6 923f e377 ec3b
000000e0: cd47 46be 8516 af3e 5c0c 043e 3bd5 af3d
000000f0: 4753 74be b9cb 493e 452d e3bd d32a 42be
0.103610255 -0.13327807 0.1457666 -0.40247518 0.26279137 -0.02922267 -0.46477982 -0.40898365
0.3089387 -0.26020166 0.2863864 -0.014681165 0.4301692 -0.14093179 -0.2516945 0.42514306
0.073149145 -0.09089014 0.12413373 0.04493287 0.58591455 -0.05748838 0.025065511 -0.15248615
0.24448155 -0.017047035 -0.46502173 -0.09480372 0.023018748 0.034062035 0.09614314 0.14080797
-0.08449633 0.21771494 0.3250648 0.12762788 0.4626998 0.028972633 0.43251184 -0.14815667
-0.3629118 -0.0019229468 -0.17623627 0.48459587 -0.108514085 0.09253263 -0.19726245 -0.006880368
0.04252879 0.34208015 0.45088524 0.0970444 0.22737798 -0.07980299 1.145708 0.00721644
-0.19363327 0.3419687 0.1289534 0.08585592 -0.23859893 0.1970662 -0.11092619 -0.18961649

weight f4 [64, 64]
00000000: d8b2 8c3b 1f6c e0bd 3ac2 20bf 61e9 cfbe
00000010: d5c0 d23e b364 203e 5637 01bf 5758 d6be
00000020: 854d 173c e614 88bc f793 dbbe a1d5 2c3c
00000030: 3b13 a7bc 7ca1 9e3c 49f1 263f ebff b9bd
00000040: b5ec 573e e6e5 eebe 355a 113e 6f7d ce3d
00000050: 01e0 b93e 7c2a 753e 94c7 9a3e fcad 4c3d
00000060: ae36 77be 7335 14be 0759 4ebe 3455 98bd
00000070: d2d8 0cbf 8639 dd3d 64fa d2be fdfb 3dbf
00000080: 57ce 24bf 3258 64bd c83c 40be 0118 0a3f
00000090: 6adc 563d 5072 c1bd 87c6 ecbd a032 143c
000000a0: 1c3e 16bf 8127 c03d f594 e63e 566d ebbe
000000b0: 437b 28bd 7f06 40be cb66 0dbf b59f 26be
000000c0: ddb5 3e3e 3ef8 693e a6ad 03bf 0916 043e
000000d0: 999b 653e e43b c43d 84fb 88be 36ff cbbe
000000e0: 60af 403d 9fc8 3dbf e29d f53e dfac 223d
000000f0: 5e45 ca3c 59cf 073d f0b3 1bbf 8c5b b83e
00000100: 736e 4bbe a3e3 c63d 7b14 69bd 54e1 eebe
00000110: 0fe6 85be ea01 1cbe 191a 99be 0dde 3abe
00000120: 3613 38be 2ba5 e93c f039 0dbe 91ba 14bc
00000130: c830 10bf 904a b13c 2c02 28be 3f50 6bbd
00000140: 108a 213d 0f5e b9bd 4737 10be 8bf1 6ebe
00000150: f5c1 03be 9a5b 81be 081c 9c3d e0f2 f63d
00000160: f4ca debd c173 9bbc ec3e fe3c 7870 d93d
00000170: de48 60be cdd0 62be edc8 c73c daec 56bd
00000180: 1803 9ebd 88d1 f13c e609 cbbd b7cf f63c
00000190: ce4c c7be b648 a03d a52c 75be ec5a 1fbd
000001a0: 7d18 63be 0440 07be a06c 76be 4d4f ecbd
000001b0: ccfe 213d 55de e1bc 5b39 84be 095d 43be
000001c0: 39ce fa3a f710 2f3d 18ec 97bd 7b2d 29be
000001d0: a0e6 933d b6bb c3bd 5c3f 27bd fa5a 0bbf
000001e0: 60ae f6bc 5301 07bf 95a3 a0bd e145 59bd
000001f0: c243 a8bd ff0c 43be 1732 cabc f2c6 e4bd
00000200: 4d2e c9be cf47 ca3d c700 2e3f ff48 e93e
00000210: ae98 133f a7b9 80bc a036 d8be ca3d 8d3d
00000220: d79c 8f3e e94d 793e 9c65 6f3f 733f 9e3e
00000230: db01 233f 8524 f9bd 5f27 8ebe 8957 613f
00000240: 1f0e 36bf a07f 203f 9e2c b5be 6742 933e
00000250: 130c 483e c0a9 823e 3d12 46bd 8993 8cbd
00000260: 3014 31bc db4c 7bbd cbba 26bd 2a64 8dbc
00000270: 9729 0d3f 102e 543f f0f4 353f c92c 973d
00000280: 874c edbe 2257 4e3f 9a6a 433f 0007 0e3f
00000290: 9f61 93bf 0588 0c3f 2f24 0e3f ccb6 593d
000002a0: 7084 823f ffc7 c7bd a714 003f 4806 93bd
000002b0: ae87 0bbd 5ba9 99be 73cc 96be c169 173f
000002c0: 9a3f a3bc 249c 8f3e 23a5 3dbf efab 6b3f
000002d0: 02f6 303e 8020 d1bd 734c dcbd 663a af3e
000002e0: f73d b43d 9498 5b3f b0d2 93bd 176f 3f3f
000002f0: 1460 a2ba 132f 34bf ef23 5c3f a7a1 433b
00000300: c946 0d3e 0000 b139 2825 eebd 6a13 893c
00000310: 14bc 0bbf e62b ccbe 0b68 57be 4abf 0cbf
00000320: 8039 863d 6f56 54bf c42c 523e 5612 633e
00000330: 9fed df3e 7c87 023e cccc f7be b9cb 27bf
00000340: c019 563f 7b6c e2be 6f3c eb3d 197b 283e
00000350: 82b9 dd3d a0d4 6e3e a74d 6a3f 20ce 783d
00000360: bfee 8e3c 3760 ae3d 8aa1 5fbc 2037 173d
00000370: 97ac 303e 7c4f e53e 7b04 eabe 30ff b73e
00000380: 500f 133f d347 89be 1a0f 033f 1922 983e
00000390: fece 8a3f be9c b53d 0297 cd3f 70d5 063d
000003a0: 8203 bd3c 17ce a23d a02a d1bd e9d3 7e3f
000003b0: e143 583d 98da a23e ae5d c0be c015 adbe
000003c0: 3aba 2a3e 0e0e 79be 6c82 733f eeb5 67be
000003d0: 89f3 283e c1c7 fabd 5a65 d33f 282a 963e
000003e0: c0b9 34bd 0772 3ebe 778e d13e ba1c 113f
000003f0: 20e6 413d 8ff2 4f3e 8bcc 23be 7c37 a03e
0.004293781 -0.109581225 -0.62796366 -0.4060774 0.41162744 0.15663414 -0.5047506 -0.41864273
0.009234791 -0.016611528 -0.42886326 0.01054898 -0.020394912 0.019364111 0.6521192 -0.090820156
0.2108639 -0.46659774 0.14194568 0.10082518 0.36303714 0.23941988 0.3023039 0.049970612
-0.24141952 -0.14473514 -0.20151149 -0.07438126 -0.5501834 0.10801987 -0.41206658 -0.7421263
-0.6437735 -0.055748172 -0.18773186 0.5394288 0.052456297 -0.094456315 -0.115613036 0.009045273
-0.5868852 0.09382535 0.4503552 -0.45981854 -0.041133177 -0.18752478 -0.55234975 -0.16271861
0.18624063 0.22848603 -0.5143684 0.1289903 0.22422637 0.09581736 -0.2675439 -0.39843148
0.04704225 -0.7413425 0.47972018 0.039715644 0.02469128 0.033156727 -0.6082144 0.36007345
-0.19866352 0.09711387 -0.056904297 -0.46656287 -0.26152083 -0.15235105 -0.29902723 -0.18248768
-0.17976078 0.028521141 -0.13791633 -0.009077684 -0.56324434 0.021642 -0.16407079 -0.057449576
0.039438307 -0.090511434 -0.14083587 -0.23334329 -0.12866957 -0.252652 0.07622534 0.120580435
-0.10878554 -0.018976094 0.031035863 0.10617155 -0.21902797 -0.22149964 0.024387801 -0.052471973
-0.07715434 0.029518858 -0.09913997 0.030128343 -0.38925785 0.078263685 -0.23942812 -0.03890507
-0.2217731 -0.13208014 -0.24064875 -0.11538563 0.039549634 -0.027571836 -0.2582501 -0.19078459
0.0019134945 0.04274079 -0.07418078 -0.16521256 0.072217226 -0.095572874 -0.04083191 -0.54435694
-0.030112445 -0.52736396 -0.07843701 -0.053045157 -0.08216049 -0.19047926 -0.024682088 -0.11170758
-0.39293137 0.09876978 0.67969936 0.45563504 0.57654846 -0.015713526 -0.42229176 0.06896551
0.28049347 0.24346127 0.9351442 0.30907783 0.63674706 -0.12165169 -0.27764413 0.88024193
-0.711153 0.6269474 -0.35385603 0.28761598 0.19535856 0.25520134 -0.048357237 -0.068640776
-0.010808036 -0.061352592 -0.040705483 -0.017259676 0.55141586 0.82882786 0.7107687 0.07381589
-0.46347448 0.80601704 0.76334536 0.5547943 -1.1514167 0.5489505 0.5552396 0.053152844
1.0196667 -0.09754943 0.5003151 -0.071789324 -0.03406494 -0.3001202 -0.29452857 0.5914574
-0.019927789 0.28048813 -0.74080104 0.92059225 0.17281345 -0.10211277 -0.10756769 0.34224242
0.08800881 0.8577969 -0.0721792 0.74778885 -0.0012388253 -0.7038433 0.8599233 0.002985099
0.13796534 0.0003376007 -0.11628181 0.01673289 -0.5458386 -0.39877242 -0.21035783 -0.54979384
0.06553936 -0.8294439 0.20524889 0.22174963 0.43735978 0.12746996 -0.48398435 -0.6554523
0.8363304 -0.4422339 0.11486136 0.16453208 0.108263984 0.23323298 0.9152474 0.06074345
0.017447827 0.08514445 -0.013649354 0.036917806 0.17253338 0.44787204 -0.45706543 0.3593688
0.5744524 -0.2681261 0.5119492 0.29713514 1.0844419 0.08867787 1.6061709 0.032918394
0.023072962 0.07949465 -0.10213208 0.995421 0.05279911 0.318074 -0.37571472 -0.33805656
0.16672602 -0.24321768 0.95120883 -0.22627994 0.16499151 -0.12245131 1.6515305 0.29329038
-0.044122458 -0.18598185 0.40929005 0.5668446 0.047338605 0.20307373 -0.15995996 0.3129233

bias f4 [64]
00000000: 2725 d6bd 434c 01be 58d8 e83e d056 263f
00000010: 941e 23be e343 8cbe 1a19 e9be 93fb f1be
00000020: d7f7 123f b779 c0be 1492 22be ecf5 8cbf
00000030: 21c9 53be a109 623e 0def 7d3f d6eb dfbe
00000040: d43e 0d3f f451 f8bd 319a 963e ed03 833e
00000050: 710b 29bf 8710 5f3f 5b8a fcbe 407e 5dbf
00000060: 802f 9c3e b991 3abe eb7a 383f 929c d8be
00000070: a158 11bf e232 cb3e 523e 143f 6ffd 16bf
00000080: 8a0d 113f 3b94 813f bbd9 2fbf 17f6 4cbe
00000090: cd83 4f3f b6d8 793e 7279 903e eafd 663e
000000a0: 5b50 4bbe 23c6 47bf b2bd 923e 1b6a 6ebe
000000b0: 17ad dbbe 19e7 8dbe e095 78bf 1553 04be
000000c0: 1401 9ebe dec6 e7be fe29 5fbc 1299 b0be
000000d0: d229 19bf 603a 4c3f 9866 8cbf a5a0 0abf
000000e0: f2dc 9dbe af10 413f c5a1 b03e 230e 56be
000000f0: 6f11 10be 082f 3dbe d415 a43e 9258 dc3e
-0.10456305 -0.12626748 0.45477557 0.64976215 -0.15929633 -0.27395543 -0.45526963 -0.47262248
0.57409424 -0.3759286 -0.15876037 -1.1012549 -0.20682193 0.22073986 0.9919289 -0.43734616
0.55173993 -0.12125006 0.29414514 0.25588933 -0.66033083 0.87134594 -0.49324307 -0.8652077
0.3050499 -0.18219651 0.7206256 -0.42306954 -0.5677586 0.39687258 0.57907593 -0.5898046
0.56661284 1.0123361 -0.68691605 -0.20015751 0.8106049 0.24399075 0.28217655 0.22557798
-0.19854872 -0.7803671 0.2866035 -0.23282664 -0.42905495 -0.27715376 -0.9710369 -0.12922318
-0.30860198 -0.4526891 -0.013620852 -0.34491783 -0.5982944 0.79776573 -1.0968809 -0.54151374
-0.3083263 0.7541608 0.3449842 -0.2090383 -0.1406915 -0.18474972 0.32047904 0.43036324

weight f4 [4, 64]
00000000: 6b3f 1fbe 8827 1ebd c389 af3e d752 613f
00000010: 6fa1 8cbd b2d1 47be f900 b2be 78dd f53d
00000020: 0ceb b83e b82f 103e 3603 acbe 11f3 06bf
00000030: db54 d63e 8113 863f e02d fe3f 8b48 703e
00000040: 7c25 a9bc e71d 903f f5be 343e 3c4e 153f
00000050: 6f15 ce3e d079 4c3f b808 033f ff06 83be
00000060: e1dd 253e 26e7 28bc 9bd6 bc3e 2b80 143f
00000070: 4780 253e e124 763f 6f15 563f 739c 1dbf
00000080: 0222 e53d d06b 0d3f 1f24 3cbd 3e36 c73e
00000090: bca1 893f 1227 e63e f3d9 2d3f c11f 6e3e
000000a0: d9c3 1bbf e8d0 55bf eaf4 82be 091f f5bb
000000b0: ab0d 88be 5215 db3e bb15 4a3c 319d 033e
000000c0: dfd1 063d 0243 ecbe 94c4 88be f6fc 97be
000000d0: 8dd1 e4be cf76 9b3f 8396 1cbd 8ca8 8abe
000000e0: 4f65 eb3e b9ef 983d df4d 283f 5bfb 653c
000000f0: 6a79 c7bd 4059 0a3e 80c8 603e 0edf c23e
00000100: bab2 193e 506e 9dbe 71c5 aebe 7da7 a0bf
00000110: 63ff 71bf 6b30 66bf c792 993e f7f4 a0bf
00000120: d76f 1c3e b244 b03d 5133 98be 3adf 19bf
00000130: 1fec efbe 950d df3d 0f26 0ebe b3e8 adbe
00000140: ae9c 1fbf 8e83 6bbd 48ef 1abd de9b e4bd
00000150: 2d90 98be 87eb e53e cdea 803d 81b4 20bf
00000160: 45bf 5dbf f965 1dbd 12dc 8fbf 3f6e f23c
00000170: c91d 8bbd 28a1 96bf 4d6b a5bf fa6d 903d
00000180: 1fd4 1cbf 8cf9 a9bf e249 d93e 1af8 d6be
00000190: b6b3 913f ca3c 7f3e de79 91bf da2e 253e
000001a0: fed3 4b3e 25bc 2f3d 034d f63e 19f3 d73d
000001b0: c279 0a3f 1159 543e 9f96 89bd a7d1 0c3d
000001c0: fb66 79be 732d aa3e 18fa 9bbd 7630 40bf
000001d0: 9350 3cbd 47f1 88be cb3c de3e 338d 90be
000001e0: 71fb 6fbd 434a c7be 359d 11bf cb6a 95bb
000001f0: 8f04 e03e 0ffa 273d 2242 edbe e497 5b3f
00000200: 4a4e d8be 8f20 713d d479 8c3f a81a 0bbf
00000210: 7bd8 063f a2dc 5d3f f030 2abe eb30 69be
00000220: d4d6 913f 8617 a2be 3f83 063f 354f a0be
00000230: 77c9 9ebd 9c35 603e f6be 2e3f 40ff 863f
00000240: 113e 5b3f e1c9 86be 33eb 163f 6212 4dbf
00000250: 8190 ae3e 0012 47bf 6bd5 e8bd dde7 7b3f
00000260: 1ee5 1f3f 5f86 31bd 0a7d 3cbe 3211 033f
00000270: c0b6 0ebc 6cec 8ebe b3b2 683e c949 e03d
00000280: 7205 453e b3d1 253e 1702 61be 27e3 b33e
00000290: c721 033f 6fee 1ebf e25d 283e 699a 08bf
000002a0: 9561 903c b24b c2bd f054 863e f2f6 28be
000002b0: 3bfb 803e a076 98be 9aa6 033e 32f2 8ebf
000002c0: 53d1 2bbf 2f23 0a3f 337a 32bf 816a c0be
000002d0: 6c2d 87be e3dd b73e c684 84be 06ea 7abd
000002e0: 7b36 463f 173f 2e3f 98d3 3dbf 0c07 9c3d
000002f0: a4f7 d23e a1dc 95bd e5b6 08bf 6c07 633e
00000300: c43c c6be a753 4b3c 69b5 cd3e 2d5b d83d
00000310: d658 31be 6c7a c03e 9e82 36be 4af9 f8be
00000320: 7875 eaba 392b 943c 6478 f9bd 2bd9 cb3d
00000330: 1241 29be a54f adbd 64c6 fcbe 4e72 823e
00000340: 1147 02bf 5a6c ecbd 7930 aebe fa6b d9be
00000350: 35c4 c8bb 6f1a 503e cfe6 2c3e 1c16 8f3e
00000360: d643 2f3d 6981 6dbd 5f72 04be 5457 293d
00000370: c396 eb3c 0f63 28bd 3737 11be 90f9 a2be
00000380: 6f43 fcbe 63f7 d5be c9b8 82bd fb1c 9d3e
00000390: 3d14 16be 4eb0 9c3d d9df 4cbe 1a96 0b3e
000003a0: 2205 c73e 8efe c9be 5273 94bf de41 843d
000003b0: 1679 2b3d 708e ff3c b011 dc3e 162f 833e
000003c0: bee8 15bd 6798 013e 9bd3 babe 7a73 04bf
000003d0: 0964 093d 7614 d7bd 9792 a63e 0fd0 1abf
000003e0: 732f 5c3d f325 29be dbf9 a6be dfe3 903c
000003f0: c9d9 5b3e cded 093d f63c b13e 1c6b e5bd
-0.15551536 -0.03861192 0.3428479 0.8801703 -0.068667285 -0.19513586 -0.34766367 0.120051324
0.36116827 0.14080703 -0.335962 -0.5271464 0.41861615 1.0474702 1.985775 0.23465173
-0.020647757 1.1259125 0.1765097 0.583225 0.40250728 0.7987337 0.5118518 -0.25591275
0.16197921 -0.010309016 0.3688248 0.5800807 0.16162215 0.9615002 0.83626455 -0.6156685
0.11188127 0.55242634 -0.045932885 0.3890857 1.0752482 0.44951683 0.6791069 0.232543
-0.60845715 -0.8352189 -0.2557748 -0.0074805063 -0.26572928 0.42789704 0.0123342825 0.12852933
0.032914992 -0.46144873 -0.26712477 -0.2968518 -0.44691125 1.2145633 -0.038229477 -0.27081716
0.4597573 0.074675985 0.6574382 0.014036979 -0.09739955 0.13510609 0.21951485 0.38060802
0.15009585 -0.30748224 -0.3413501 -1.2551113 -0.94530314 -0.8991763 0.29994795 -1.2574757
0.15277039 0.086068526 -0.2972665 -0.6010624 -0.46859834 0.108912624 -0.13881706 -0.33966598
-0.6234845 -0.057498507 -0.037825853 -0.11162542 -0.29797497 0.44906256 0.06294785 -0.6277543
-0.8661998 -0.038427327 -1.1239035 0.029593585 -0.067927904 -1.1767931 -1.2923371 0.07052226
-0.6126117 -1.3279281 0.4243918 -0.4198616 1.1382968 0.24925533 -1.1365316 0.16131154
0.19905087 0.042904038 0.4810563 0.10544414 0.5409204 0.20737101 -0.06718182 0.034379628
-0.2435569 0.332378 -0.07616061 -0.75073946 -0.04597528 -0.2674658 0.43405756 -0.28232726
-0.058589403 -0.38923845 -0.56880504 -0.00455985 0.43753478 0.04100996 -0.46339518 0.8577864
-0.4224723 0.05886894 1.0974679 -0.5433755 0.52674073 0.86664784 -0.1662023 -0.22772567
1.1393685 -0.31658572 0.52544016 -0.3131043 -0.0775327 0.2189545 0.68260133 1.0546646
0.8564158 -0.26325896 0.58952636 -0.80106175 0.34094623 -0.7776184 -0.11368831 0.9840067
0.6245898 -0.043341037 -0.18407074 0.5119811 -0.008710563 -0.2791475 0.22724418 0.109515734
0.19240358 0.16193275 -0.21973453 0.3513424 0.51223415 -0.6208257 0.16442063 -0.5336061
0.017624656 -0.09487094 0.26236677 -0.16500452 0.25191674 -0.29778004 0.12856522 -1.1167662
-0.6711628 0.53959936 -0.6971771 -0.37581256 -0.26401842 0.35911474 -0.25882548 -0.06125834
0.7742688 0.6806502 -0.7415099 0.076185316 0.4120456 -0.07317472 -0.53404075 0.221708
-0.38718235 0.012410081 0.40177467 0.105642654 -0.17319044 0.375934 -0.17823264 -0.48627692
-0.0017887792 0.018087016 -0.12181166 0.09953531 -0.16528729 -0.084624566 -0.4937011 0.25477833
-0.5088969 -0.11544104 -0.34021357 -0.42465192 -0.0061269053 0.20322584 0.16884921 0.27946556
0.042789303 -0.057984743 -0.12934254 0.04134305 0.028758412 -0.041110095 -0.14181219 -0.31831026
-0.49270198 -0.41790304 -0.06382901 0.30686173 -0.14656158 0.07650815 -0.20007266 0.13631478
0.38871104 -0.39452022 -1.1597693 0.06457876 0.041863523 0.03119585 0.42982244 0.2562186
-0.036598913 0.12655793 -0.36489567 -0.51738703 0.033542667 -0.105019495 0.32533714 -0.6047372
0.05375619 -0.16518383 -0.326125 0.017686782 0.21469797 0.03367405 0.34616822 -0.1120207

bias f4 [4]
00000000: 6d47 8a3f 8411 b63e f134 0d3f 502a e8be
1.0803047 0.35560238 0.5515891 -0.45344782

weight f4 [64, 32]
00000000: dab4 96be 8571 27bf 8f55 8cbe 82f3 a9be
00000010: 535e 7bbf ac83 3a3e 6c13 8dbe b6dd ebbe
00000020: 7229 6d3f 5cb2 92be 8bec a83d fb7b 40bc
00000030: ba12 51be d5e6 dab9 1b4e 4fbf 8e9d 03c0
00000040: 6983 033f a0ec 0d3f 36a5 133c 1e78 05c0
00000050: 2c3e 57bf 587e 03c0 df1e c33e d98c cf3f
00000060: 82a4 99be bf51 66bb b937 a7bd 83ca e13e
00000070: 163f b2bb 1e34 483e 710f 46be dbf7 5dbe
00000080: 80ec 17bf 1905 b43f ba61 0dc0 e7ea f1be
00000090: 1acb 8b3e 3146 c8bf f3dd 22c0 e434 eabd
000000a0: 3fb4 db3f dfa0 cac1 6c97 cb41 3acc 20be
000000b0: 4977 293e 2a6b 4cbf 709e bb3f 1a38 973f
000000c0: 1e28 16c0 3f12 ad3e edf9 9d3f 1982 8fbf
000000d0: d34f 1340 7ace d53f c0c6 eabf d08a 2abd
000000e0: f77c ea40 3ec3 7b3d b5cb d53f d41a 04c0
000000f0: 5d4f 013d 4db9 c23d 4798 7ebe 5bf3 c53d
00000100: a395 803d d594 1cbf e6a4 b9bd 76c3 bb3d
00000110: 0814 3bbf cb58 98be 0407 94bd 718d 0dbf
00000120: 75b3 953e 2712 d1bf 314e e83f cc1a 453c
00000130: 8dca a43e 36a5 253d 6b29 423f b8f9 dabf
00000140: a0a9 18bd 638f 0e3e c065 ee3d be46 883f
00000150: 343f 373f 6084 c7bf 3270 3cbe da2b eebd
00000160: ff50 ccbd 6e1e 0cbf 3536 773f 1ffc a03d
00000170: 942d c03c 3be7 983d 72e9 1bbd 0614 423d
00000180: 3fe1 103c 7aa3 9a3c 6765 5bbe 7d8e acbd
00000190: 238d 1cbe 79f1 e7bd ba33 043b b00a 4a3c
000001a0: 7522 0dbe fa5a ebbc fa24 a7bd 2ed4 53bc
000001b0: 238d aabd 7d20 78bd 4c52 21be ad54 62be
000001c0: 8bd0 97bd e922 1cbe 9ece 33be a8fa fd3d
000001d0: 0efd bebd bbf7 613e eee7 983d da92 edbd
000001e0: 656c 8c3d 8323 71be 1327 51bc bb3f a83c
000001f0: c197 863d 56c4 8bbd c07d 293d 1cbf 57bd
00000200: 073e 0bbf ab4f 21bb 3e83 bbbd c022 bbbe
00000210: 7e8a e8be 8e73 813e 8a7b 8dbf 43e6 26bf
00000220: aa5f 9f3f 0649 f8bf 5d66 0d40 456c 253f
00000230: 30f4 3ebe 2317 9abd 07fe 0cbf 6479 97bf
00000240: 200e 323f 23cd 113f f387 803f 47e9 a73e
00000250: da8b 76bf 9a4d a6bf 37bd d8be da62 9f3f
00000260: d412 733f b9e9 97be 3c8a f3be 3af3 df3d
00000270: 805c 07be bd07 013e b2f3 2dbd 87c4 173d
00000280: 0fa6 8abe 93bb 01bf 7f21 da3c ae93 6dbe
00000290: 57ef 16bf f1a4 26be ff59 97be 8fa3 f9be
000002a0: 0932 a73e 168c b2be 49b2 7a3e db1c 66bd
000002b0: 5a17 313e 1c92 c6bc ebbe 23bf 8e1d bbbf
000002c0: 5dbd ae3e 3d24 d83e bcb5 353d 858e 3abe
000002d0: f54f 04bf 0b00 b1bf 95aa 333e 94ef 333e
000002e0: 8594 bb3e 4256 e23c 8da0 1e3f da80 c13e
000002f0: 6186 183d 1d4a de3d 2f71 61bd c887 193c
00000300: ec84 f2be 648f cebe 109c b4be 7f0f 12bf
00000310: f7dd 1abf fd6f ddbd d968 d63e 3460 01be
00000320: ea57 483f 72ab 0440 72bd 2dc0 17c5 973c
00000330: b5cf 7dbf 0eaa 5f3d 4bfe 7cbf e9b8 ffbe
00000340: 8433 e13e fc8d cbbf 4817 29bf 9e0b 1a3f
00000350: 56e0 07bf 2e89 db3d 3774 1a3f bf0c 9b3f
00000360: 202a 903f 8a57 b43e 4f95 563d b7ef ce3c
00000370: 54eb aabd 1c76 ff3d 8a9d 96bd 19b7 3f3d
00000380: c4aa 41be 509d a6bd 6048 64be 8048 71be
00000390: dc28 703d 03d1 e43b 7ab0 773d 52d3 703d
000003a0: 4eb8 1a3d f698 a73d b006 acbd 01b7 92bd
000003b0: 8406 bbbd 756a ffbd 20f2 273e 19a3 53be
000003c0: 1994 7b3e 5488 a43c c9bf 623d 4dec 3a3e
000003d0: e5a1 7ebd 22a2 c7bc 1c89 973c 41f3 c1bd
000003e0: 15e4 35bd 95e0 023d 6436 6abd f30d 273d
000003f0: 7d32 2dbc 1011 a93d f2f8 9f3c bf3d 08be
-0.29434854 -0.6540759 -0.27409026 -0.33193594 -0.981908 0.18214291 -0.2755388 -0.4606759
0.92641366 -0.28651702 0.08248242 -0.011748309 -0.204173 -0.00041752183 -0.80978554 -2.0564914
0.5137239 0.55439186 0.009011557 -2.0854564 -0.8407924 -2.0545864 0.3810949 1.6214858
-0.30008322 -0.003514394 -0.08164925 0.44099817 -0.0054396493 0.19551131 -0.19341828 -0.2167658
-0.59345245 1.4064056 -2.2090898 -0.4724953 0.27303392 -1.5646421 -2.5447967 -0.11435869
1.7164382 -25.32855 25.448936 -0.15702906 0.1654941 -0.7985102 1.4657726 1.1813996
-2.3461986 0.33802983 1.2341896 -1.1211578 2.301747 1.6703637 -1.8341904 -0.04163629
7.3277545 0.061465494 1.6702791 -2.0641375 0.031569827 0.095079996 -0.24862777 0.09665557
0.06278541 -0.611646 -0.09064655 0.091681406 -0.7307744 -0.29755244 -0.072279006 -0.5529395
0.29238477 -1.6333665 1.8148862 0.012030315 0.32185784 0.04044076 0.7584445 -1.7107458
-0.037271142 0.13921885 0.11640501 1.0646589 0.71580815 -1.5587273 -0.18402174 -0.11629458
-0.09976386 -0.5473393 0.9656709 0.07860588 0.023459233 0.07465979 -0.038064428 0.047382377
0.008842765 0.01887678 -0.214254 -0.08425615 -0.15288214 -0.11325354 0.0020172433 0.01233165
-0.13782676 -0.028729904 -0.081613496 -0.012929006 -0.08327701 -0.06057786 -0.1575405 -0.22102614
-0.07412823 -0.15247692 -0.17559287 0.124013245 -0.0932561 0.22067158 0.07466112 -0.11600275
0.06856612 -0.23548703 -0.012765664 0.020538202 0.065719135 -0.068245575 0.04137969 -0.05267249
-0.5439152 -0.0024614136 -0.09155892 -0.3654995 -0.4541816 0.25283474 -1.1053326 -0.651951
1.2451069 -1.9397285 2.2093728 0.6461833 -0.18647838 -0.07523944 -0.55075115 -1.183392
0.69552803 0.5695364 1.0041488 0.32795164 -0.96307147 -1.2992432 -0.4233186 1.2452042
0.94950604 -0.29670504 -0.47566402 0.10935064 -0.1321888 0.12600608 -0.042468734 0.037052657
-0.27079818 -0.5067684 0.0266273 -0.23200867 -0.58958954 -0.16273858 -0.2956085 -0.48757598
0.3265536 -0.34872502 0.24482073 -0.056179862 0.17294064 -0.024239592 -0.6396319 -1.4618394
0.34128848 0.42215148 0.04436277 -0.1821843 -0.51684505 -1.3828138 0.1754554 0.1757186
0.3663675 0.027629022 0.6196373 0.37793618 0.03723753 0.1085398 -0.05503958 0.009370752
-0.47367036 -0.40343773 -0.35275316 -0.57054895 -0.6049494 -0.10812376 0.41876867 -0.12634355
0.78259146 2.0729642 -2.7146878 0.018526597 -0.9914506 0.054605536 -0.9882552 -0.49945763
0.43984616 -1.5902705 -0.6605115 0.60173976 -0.53076684 0.10719524 0.6033358 1.2113265
1.1262856 0.35223037 0.052388486 0.02526079 -0.083456665 0.124736995 -0.07354267 0.046805475
-0.18912798 -0.08135474 -0.22293234 -0.23562813 0.058632717 0.006982924 0.060471036 0.05879528
0.037773423 0.08183472 -0.08399713 -0.071638115 -0.09132102 -0.12471477 0.16400957 -0.20667686
0.24568214 0.020084538 0.05535868 0.18254204 -0.062166113 -0.024369303 0.018497996 -0.09470225
-0.04440697 0.03195246 -0.057180777 0.040784787 -0.010571119 0.082552075 0.019527886 -0.13304804

bias f4 [64]
00000000: 0365 f4be c7df cbbf f2d1 9abe bc86 75be
00000010: 1efd 0ebe a8a8 69bd 8e21 00bf 3c33 7abe
00000020: 5cab 38bd c2ef 783d ce5d 9fbd c006 3abf
00000030: 398b b0be 11b9 993e d04d 26be 5c7c 73be
00000040: e313 1fbf 10fe fa3c cf87 fabe 0303 a4bd
00000050: a94b cabe 258a bcbe 9016 6cbe f41a 00bf
00000060: 180f babe 467e d33b 45f8 4ebe 9c3d 82be
00000070: 45c5 423f 13eb 83bd f511 1abf 5689 96bc
00000080: e33d 0abf f8e0 0fbe b302 bfbe 839f 51be
00000090: 7699 47bc 1923 0bbf 7973 21be 0698 fbbe
000000a0: 6181 61bd 8b3b b63d 4527 8d3e dee1 88bd
000000b0: 92ba 9c3e d288 72be 87e2 13bf 827f 14bf
000000c0: 78a6 c6be 6508 00be 6053 c8be fd05 8ebe
000000d0: 2e61 4fbe a314 83be c858 dcbe 5902 e4be
000000e0: 607a 83be 99b7 11bf a255 0cbe 46ba a8be
000000f0: e5b1 99bc 1c26 76be b95b 2e3d 96d9 e7be
-0.47733316 -1.5927666 -0.302383 -0.23977178 -0.13963744 -0.05704561 -0.500512 -0.24433607
-0.045085296 0.060775526 -0.07781564 -0.7266655 -0.34481218 0.30024007 -0.1624062 -0.23777908
-0.6213972 0.030638725 -0.4893174 -0.08008387 -0.3951085 -0.36824146 -0.23055482 -0.5004113
-0.3633964 0.006454262 -0.20211895 -0.2543763 0.7608226 -0.06441321 -0.6018365 -0.018376034
-0.5400068 -0.14050663 -0.37306747 -0.20471005 -0.012182584 -0.5435043 -0.15766706 -0.49139422
-0.055055026 0.08898076 0.27569023 -0.06683706 0.30611092 -0.23685005 -0.5776753 -0.5800706
-0.3879888 -0.12503202 -0.3912611 -0.27738944 -0.20251915 -0.25601682 -0.43036485 -0.4453304
-0.25679302 -0.5692077 -0.13704541 -0.32954615 -0.018761585 -0.24037975 0.042567942 -0.45283192

weight f4 [64, 64]
00000000: e0c9 e43d f030 d8bf 63c8 cbbe a0c0 a03d
00000010: 97c9 2bbe ec27 053e e1fa e53e 670d fc3d
00000020: 0dc2 d1bf 31eb 43be 4827 d23d cea0 dcbf
00000030: 160c 953d f94b c9be f350 193e 5064 2f3d
00000040: 62e8 f1be 19bf 023c 8729 11bf f60c c9be
00000050: 832f ebbe 69e6 123e fe39 f0bd e363 26bf
00000060: 031b 4ebc c006 33bf 2e06 94bd 838b 963f
00000070: 63c6 5abf bb38 81be 95ed 1f3e a75c 5abf
00000080: daaf 4bbe 9914 4cbd 8882 aebf 74b0 27bd
00000090: d91a 1f3e 90b7 11bf 903e b43e 4f33 2a3e
000000a0: e756 cf3d 479c cdbc 6a30 153f cc34 993d
000000b0: a5ee 27bf f61b d0bd 4383 ac3d 8b77 653f
000000c0: aeb4 553d fa68 11be 061d 7abe 2e8b 82bd
000000d0: dd6e 58bf 3b53 733f 0f1a 4c3f a208 9fbb
000000e0: c5fb f93e 08b6 4c3e 6011 4ebf 3153 e93f
000000f0: 0913 1a3e b314 55bc 2e59 1bc0 69b4 b9be
00000100: 46f3 ae3e 8ec1 dcbe aea5 003e 59c9 e33d
00000110: a712 b5bc 095f 1e3e 39ab 4f3d da34 ffbd
00000120: cd00 18bf f03a 213e 7dc6 523d 8efe 853e
00000130: 0b96 423e be64 c2bd ed23 0a3d 906b 97bd
00000140: c4e9 0c3e fbed 41bc ee74 273f c4ab 623f
00000150: 59f5 efbd 97b9 943e ea27 9f3d f0c1 fdbd
00000160: 362f 403e cf92 11c0 d261 62bd 24de f6bf
00000170: 994c 6d3d b70c bebe e58c b2bd d9ab 99be
00000180: e549 0bbf 8b4f 363d b60c 553d 2be0 d53e
00000190: 8a86 01be 6c2a 91be 6141 c9bc 3b37 22bf
000001a0: e0f8 463d 5c18 213c d022 2e3e 15a1 813d
000001b0: b1d1 9abe 3921 e1bd d89b 2a3e 2b77 853e
000001c0: 1f4b f33d f1c6 f3be 3807 8c3d f826 8e3c
000001d0: a813 3fbf 7d9f 5f3e aae3 c63e 42e6 81bc
000001e0: 62e2 453d 1c6e 123d 8018 06c0 6cd3 023f
000001f0: e555 85be 7d0f 6dbd db34 d1be 5813 803f
00000200: 2bb9 ad3e f29d 00c0 773c 58be fe25 87bd
00000210: 433d 4d3f 191e 683f 76bf 143d fe6b fc3d
00000220: f15d 16bf 314e 163f 9662 a3bd 91e0 06b9
00000230: e21b c3be 5005 3e3f 59de 1cbd 30c7 5b3c
00000240: d85a 28bd f893 283e f6a9 42bf da15 993e
00000250: 6e96 c7bd 12de 18bf abe5 753d a21e 0d3e
00000260: 4a71 30bf ea08 eec0 ea42 b23d e792 a6bf
00000270: 17b8 5e3c 36a7 eebe f8cb a6be b94b a83e
00000280: b961 8f3e dc24 05bd 1023 e73e 9863 51be
00000290: f3f7 87bd 5649 28bf d951 083f 0497 a1be
000002a0: 284d e339 3e6b d6bd 8a27 463f 8ecd a03d
000002b0: ba96 81bf fa8c 833a 46ce 5cbf 8f14 44be
000002c0: f7a5 26be 490a 15bd cec1 a9be caa7 dc3c
000002d0: f141 aec0 c1c5 29bf e370 d9ba 4c35 debe
000002e0: 0003 293c ba1a 1b3e fd7b 0ec0 5d62 d8bf
000002f0: 78ee 2b3e 06c6 f43d f4fa c83b c3ce 93bf
00000300: 84ad 9e3b df05 b2bd 4bd5 0dbe e07b 6c3d
00000310: 6064 3ebd 316e 1ebd 2a6a a13c 907b f33d
00000320: aa58 f0bd 3cb2 37bd 540f 11bd f9bd 1dbe
00000330: bd50 a9bd bc32 aabb b870 cabc 4a49 8dbd
00000340: 1424 433d 820f 1abe 9e1e 53be 07bc ecbd
00000350: bae2 19be 79a5 96bd 380c 553d 37f5 88bd
00000360: 8ad1 b23c b15c e13c f852 da3c 8b14 ea3c
00000370: d1fb 91bd 329a f6bd 9ede a93d 9a98 93bd
00000380: dd31 8a3d 9cbf d43d 2a12 99bd eabf 90bd
00000390: 9b1c 11bd 1c5b e2bd c638 c9bd 9479 82be
000003a0: 40b7 e23c 0059 5f3c d952 683d 9e72 ecbd
000003b0: 7f61 863c d80e 853d ad73 58bd c7a7 3abe
000003c0: a440 64bd aed9 b8bd 7a5b 03be 88e7 48bd
000003d0: 9e11 30bc 4bf2 9bbd 80d1 64bb 5387 13be
000003e0: 20bf 353d 7c60 efbd 6adf 5abe c778 94bd
000003f0: 3f2a 07be b63b dabd efa4 623d 2e7b 74be
0.11171317 -1.6889935 -0.3980132 0.0784924 -0.16776119 0.1300351 0.44917968 0.12307244
-1.6387345 -0.19132687 0.102613986 -1.7236574 0.07277696 -0.39315775 0.14972286 0.042820275
-0.47247607 0.007980132 -0.5670399 -0.392677 -0.45934686 0.14345707 -0.11729811 -0.64996165
-0.012579682 -0.69932175 -0.07227741 1.1761326 -0.85458964 -0.25238594 0.15617974 -0.85297626
-0.19891301 -0.04982433 -1.3633585 -0.040939763 0.15537585 -0.5692072 0.3520398 0.16621135
0.10123997 -0.025098933 0.58277 0.07480773 -0.6559852 -0.10161583 0.08423474 0.89635533
0.052174263 -0.14200202 -0.24425134 -0.06374203 -0.84544164 0.95048875 0.7972726 -0.004853324
0.48824897 0.19991314 -0.8049526 1.8228513 0.15046324 -0.013005423 -2.427318 -0.36270455
0.34169978 -0.4311642 0.12563202 0.111223884 -0.02210362 0.1546594 0.0507004 -0.124612525
-0.5937622 0.15745139 0.051458824 0.26170772 0.1900255 -0.09491871 0.033725668 -0.07393563
0.1376105 -0.011836524 0.65412796 0.88543344 -0.11716718 0.29047844 0.07771285 -0.12390506
0.1876801 -2.2745855 -0.05526907 -1.9286542 0.057934377 -0.37119076 -0.0871828 -0.30013922
-0.5440963 0.04450945 0.052014075 0.4177259 -0.12648979 -0.28352678 -0.024567308 -0.63365525
0.04857719 0.009832468 0.17005467 0.06329552 -0.30238107 -0.10992665 0.16661012 0.2606748
0.118795626 -0.47612718 0.06837314 0.017352566 -0.7463937 0.21838184 0.3884557 -0.015856866
0.0483116 0.03574954 -2.0952454 0.51103854 -0.26042095 -0.0578761 -0.40860638 1.0005903
0.33930334 -2.0096402 -0.21116816 -0.06599043 0.801716 0.90670925 0.036315404 0.123252854
-0.58737093 0.5871306 -0.07977788 -0.00012862893 -0.3810721 0.74226856 -0.038297985 0.013414189
-0.04110226 0.16462696 -0.7604059 0.29899484 -0.09745489 -0.5971385 0.06003348 0.13781217
-0.68922865 -7.438588 0.08704169 -1.3013581 0.013593695 -0.46611947 -0.3257749 0.32870272
0.28004244 -0.032505855 0.45143938 -0.20448148 -0.066390894 -0.657369 0.5324989 -0.31560528
0.000433543 -0.104696736 0.7740408 0.078517064 -1.0124123 0.0010036521 -0.8625225 -0.19148467
-0.16274248 -0.03638676 -0.33155674 0.026935477 -5.4455495 -0.66317374 -0.0016589429 -0.43400037
0.010315657 0.15146914 -2.2263176 -1.6905018 0.16790187 0.119518325 0.0061334316 -1.1547474
0.004842462 -0.08692526 -0.13850896 0.057735324 -0.046482444 -0.038679305 0.019703943 0.11888802
-0.11735661 -0.044847712 -0.03541501 -0.154045 -0.08267353 -0.0051940363 -0.024711952 -0.068987444
0.04764183 -0.15044978 -0.20617148 -0.11559301 -0.15027896 -0.0735578 0.052013606 -0.06687396
0.021828432 0.027510019 0.02665089 0.028574249 -0.07128108 -0.12041129 0.08294414 -0.07206841
0.06747792 0.10388109 -0.07474168 -0.07067855 -0.03542767 -0.11052534 -0.09825282 -0.25483382
0.027675271 0.013632059 0.056719635 -0.11545299 0.016403912 0.06496972 -0.052844692 -0.18228064
-0.05572571 -0.09025894 -0.12827864 -0.04904893 -0.010746388 -0.07614573 -0.003491491 -0.14407091
0.044371724 -0.11688325 -0.21374288 -0.07249599 -0.1319971 -0.1065592 0.055333074 -0.23875114

bias f4 [64]
00000000: 6063 2fbd fd7b 4f3f 0322 36be 4afd 81be
00000010: 844c 4e3f 3b05 c3bf 6983 b1bc eb46 25bc
00000020: b505 20be b211 b1bf 9994 e9be 53b2 03bf
00000030: 1b35 bbbd 38ef 93be ffab b63b dff0 6d3f
00000040: 84c9 50bf 55cc bfbd ed8e 07bf cca8 68bc
00000050: 7fe1 2bbe 138c 28bf cf77 9dbf 1c85 47be
00000060: b83e 01be f460 b9bd b27d a1bf bb53 b8be
00000070: e6c8 02be 391a a1be 3b79 c6be f005 52be
00000080: 9aa9 f1bf ce27 c7bf dc8a 28bf 7404 37bf
00000090: 46c0 dfbf f0fa 283f 5c95 03bf cea2 113f
000000a0: 45db 6abe 8da3 3b3f 273f 17bf 27bc 95bd
000000b0: a9d5 56bf 67b5 49be 0be0 6c3f 87ea d6bc
000000c0: 872f 93be ceab 91bf f863 ca3f 3788 e43f
000000d0: 8f2e bcbd a0cc 1fbc 3661 21bf 85fd b9be
000000e0: 0648 65bf cc97 02ba 84e6 febd 81aa 9abe
000000f0: 8fe9 2140 3399 3bbf 0f24 09be 52cd f93f
-0.04281938 0.81048566 -0.17786412 -0.25388557 0.80585504 -1.5235971 -0.021669107 -0.010087709
-0.15627177 -1.3833525 -0.45621184 -0.51443976 -0.091409884 -0.28893447 0.0055747028 0.92945665
-0.8155749 -0.09365145 -0.5295246 -0.014200401 -0.16785239 -0.65838736 -1.2302188 -0.19484371
-0.12621582 -0.090516955 -1.2616484 -0.3600138 -0.12771949 -0.3146532 -0.38764367 -0.20510077
-1.8879883 -1.5559022 -0.6583688 -0.7149117 -1.7480552 0.660079 -0.5139978 0.56889045
-0.22935207 0.73296434 -0.5908074 -0.07311278 -0.8391977 -0.19698106 0.9252936 -0.026234878
-0.28747198 -1.1380556 1.5811758 1.785407 -0.09188568 -0.009753376 -0.6303896 -0.36326233
-0.89563024 -0.0004981726 -0.12446311 -0.3020821 2.5298803 -0.7328064 -0.13392662 1.9515784
