ddpg_her/models/reach_trained_agent.pt (torch, 84799 bytes, 15 tensors)

weight f4 [64, 13]
-0.04392075 0.10625116 -0.2687276 -0.20411277 -0.1068226 0.11603367 -0.048673302 0.25777715
-0.03338852 0.061142918 -0.12556219 -0.09710704 -0.30372718 -0.22887252 -0.15655193 -0.034355346
0.10964625 0.16641638 -0.16785006 -0.10809657 0.101834126 0.22990462 -0.057604995 0.1624725
-0.08951623 -0.014618118 0.69161665 -0.729645 -0.21896507 -4.220317 -4.266619 0.04292661
-0.18583493 -0.113186546 -0.51732373 -0.05933651 -0.6114248 0.68920946 0.26244336 0.30469486
-0.2363907 -1.0431995 -2.1534345 -2.438912 0.13818358 0.018146873 -0.24185097 -0.95932204
-0.35588998 -0.43157998 0.2568656 1.3630018 0.032048605 -0.01805459 0.085934274 -0.10371199
0.105708756 -0.17654797 -0.02886181 -0.28973648 -0.17752351 -0.1356931 -0.2452557 0.00664733
0.048007313 -0.07797453 -0.02336746 0.018000107 0.22119136 0.31202555 -0.26730883 -0.02373455
-0.07493413 0.011198373 0.04294365 0.20007339 0.010548408 -0.28582764 -0.0060732886 -0.20386368
-0.28607914 0.24642347 0.21088585 -0.30156815 0.06763701 -0.06568304 -0.056092005 -0.12780653
0.07504004 -0.19479258 0.07083328 -0.09357774 0.74842185 0.10196909 2.1239445 2.1370893
0.1852548 0.2598685 -0.123094186 1.2255636 1.640738 0.23530003 -1.1446102 -0.90650487
-0.26420316 -0.004985129 -0.20886096 -0.21393585 -0.015281881 0.041642744 -0.11358327 0.16457333
-0.16877837 0.25165918 0.19006799 -0.2338846 -0.06902809 -0.026477186 0.0029166476 0.027162656
0.10884002 0.016613316 -0.09642683 0.102295205 -0.2301052 -0.18203676 -0.08306582 -0.175201
-0.14018577 -0.2658949 -0.2647211 -0.48364627 -0.11474392 1.2721018 1.505174 0.1562084
-0.093338065 -0.24329175 -1.0659955 0.12557437 0.0027117797 -0.02612142 0.4931025 -0.20692356
-0.65603876 -0.27871308 0.25723732 0.056475967 0.08357605 -0.23032638 -0.11441575 -0.24782613
0.11940699 0.118458785 0.1160696 -0.30148268 0.19542481 -0.9914267 -0.59987164 -0.41881946
-0.30427292 0.059569713 0.12742677 -0.42984346 -0.54037887 -0.39696795 0.080260396 -0.5526833
-0.67689925 -0.052760143 0.21548396 -0.15155219 0.24058007 0.09591605 -0.29556218 0.17174274
-0.056861576 -0.15720135 0.18922313 -0.26506516 0.02700367 -0.16063797 0.74344534 0.26950026
0.4335528 0.51872605 0.31033033 0.32038012 0.12821558 0.06573994 0.6905722 0.11318729
-0.7966454 -0.419533 -0.3842876 -0.3449002 -0.51032835 -0.069350995 -0.21912773 -0.056612737
0.2967801 0.29001752 -0.0828324 -0.382087 -0.15539633 0.10759092 -0.17924464 0.13677329
-0.10737946 0.16035001 -0.35807315 -0.61132634 -0.5067477 -0.5094979 -0.1354009 0.5331094
-0.14200461 -0.74732816 0.3105166 -1.0275586 -1.175986 0.08823169 0.015222937 -0.20662835
-0.48542517 -0.060541507 -0.099557325 -0.19941925 -0.78786635 -0.4104973 -0.8491352 0.029825846
-0.17925517 -0.024163205 0.05148109 -0.21455733 -0.14711955 0.3071699 0.38757274 -0.16973706
0.22337449 0.40235126 -0.15430294 -0.5297939 0.1137164 -0.9112603 0.44837594 -0.23361723
-0.50711286 -0.6203975 -0.5807839 -0.3055399 0.7692513 -0.8174018 -0.44012177 -0.3909173
00000000: 3fe6 33bd 359a d93d aa96 89be f002 51be
00000010: cfc5 dabd 10a3 ed3d a85d 47bd 5efb 833e
00000020: 67c2 08bd ff70 7a3d 6093 00be 0ee0 c6bd
00000030: 2182 9bbe 8f5d 6abe 264f 20be 31b8 0cbd
00000040: 378e e03d 0e69 2a3e e3e0 2bbe bc61 ddbd
00000050: 698e d03d 1e6c 6b3e 37f3 6bbd 315f 263e
00000060: 4954 b7bd d580 6fbc ca0d 313f 04ca 3abf
00000070: 6138 60be d60c 87c0 2588 88c0 d0d3 2f3d
00000080: 834b 3ebe 59ce e7bd 546f 04bf d70a 73bd
00000090: 5686 1cbf 0870 303f fa5e 863e f700 9c3e
000000a0: 6710 72be 9087 85bf dfd1 09c0 2217 1cc0
000000b0: ff7f 0d3e c0a8 943c c8a7 77be 2196 75bf
000000c0: 3637 b6be 0df8 dcbe e383 833e d876 ae3f
000000d0: 6645 033d 38e7 93bc 4ffe af3d f466 d4bd
000000e0: d57d d83d fec8 34be 9a6f ecbc 5758 94be
000000f0: b9c8 35be 22f3 0abe 4f24 7bbe d8d1 d93b
00000100: 51a3 443d 1cb1 9fbd 1e6d bfbc f674 933c
00000110: fd7f 623e d0c1 9f3e b4dc 88be f66e c2bc
00000120: 1177 99bd 6179 373c aee5 2f3d 0ae0 4c3e
00000130: 3bd3 2c3c 0058 92be 7002 c7bb a4c1 50be
00000140: f778 92be 6f56 7c3e 76f2 573e 2467 9abe
00000150: 4685 8a3d d484 86bd bbc0 65bd b7df 02be
00000160: 98ae 993d b577 47be 0a11 913d b0a5 bfbd
00000170: 9398 3f3f 2cd5 d03d b5ee 0740 12c6 0840
00000180: 6fb3 3d3e 7c0d 853e ce18 fcbd 45df 9c3f
00000190: b403 d23f 7ef2 703e 9682 92bf b410 68bf
000001a0: a345 87be 4b5a a3bb a6df 55be 0012 5bbe
000001b0: db60 7abc 9591 2a3d 589e e8bd e985 283e
000001c0: 3dd4 2cbe 79d9 803e 2fa1 423e 727f 6fbe
000001d0: 995e 8dbd afe6 d8bc 3a25 3f3b 3884 de3c
000001e0: 84e7 de3d a618 883c 6e7b c5bd 2680 d13d
000001f0: b3a0 6bbe d867 3abe 6a1e aabd e467 33be
00000200: dc8c 0fbe 6023 88be 8689 87be 7ca0 f7be
00000210: dcfe eabd 3bd4 a23f 8ba9 c03f 18f5 1f3e
00000220: 0728 bfbd 7921 79be 8a72 88bf 9196 003e
00000230: 1db8 313b 97fc d5bc ee77 fc3e c5e3 53be
00000240: 28f2 27bf 7bb3 8ebe 9cb4 833e 5853 673d
00000250: ec29 ab3d aeda 6bbe ce52 eabd 22c6 7dbe
00000260: a78b f43d 859a f23d e6b5 ed3d f05b 9abe
00000270: 711d 483e 24ce 7dbf 3091 19bf 816f d6be
00000280: a9c9 9bbe 5fff 733d 2a7c 023e 7114 dcbe
00000290: 4556 0abf 623f cbbe 905f a43d a77c 0dbf
000002a0: 4549 2dbf 051b 58bd d4a7 5c3e 7f30 1bbe
000002b0: 9f5a 763e a26f c43d ed53 97be 54dd 2f3e
000002c0: afe7 68bd 64f9 20be b5c3 413e 9fb6 87be
000002d0: cd36 dd3c 487e 24be 6f52 3e3f f0fb 893e
000002e0: a2fa dd3e 3bcb 043f 9ee3 9e3e dd08 a43e
000002f0: f24a 033e a9a2 863d 57c9 303f bdce e73d
00000300: f4f0 4bbf 08cd d6be 58c1 c4be c296 b0be
00000310: e1a4 02bf e507 8ebd 0563 60be c2e2 67bd
00000320: 90f3 973e 2d7d 943e 09a4 a9bd e8a0 c3be
00000330: 3720 1fbe a158 dc3d e88b 37be 4c0e 0c3e
00000340: c3e9 dbbd cb32 243e 5d55 b7be e27f 1cbf
00000350: 38ba 01bf 746e 02bf 89a6 0abe dc79 083f
00000360: a869 11be e650 3fbf 08fc 9e3e 0a87 83bf
00000370: b686 96bf d1b2 b43d a069 793c 6296 53be
00000380: a689 f8be 5ffa 77bd b6e4 cbbd 8f34 4cbe
00000390: 9cb1 49bf b42c d2be ed60 59bf 5555 f43c
000003a0: ab8e 37be eaf1 c5bc d6dd 523d ebb4 5bbe
000003b0: 82a6 16be 6045 9d3e ef6f c63e 8dcf 2dbe
000003c0: 48bc 643e fc00 ce3e 9701 1ebe 93a0 07bf
000003d0: 25e4 e83d 5b48 69bf 8891 e53e 5b39 6fbe
000003e0: 26d2 01bf 5fd2 1ebf 41ae 14bf ba6f 9cbe
000003f0: a7ed 443f 3f41 51bf a457 e1be 5026 c8be

bias f4 [64]
-0.014861779 -0.14769402 0.0024379233 0.1041457 -0.055522744 -0.15572254 -0.12538095 -0.11722814
-0.050149582 0.1408147 -0.14257866 0.07103581 0.6028582 -0.10201715 0.2251021 0.11062988
-0.040520344 -0.19828987 -0.23026165 0.5293554 -0.11709591 -0.11008311 0.044189367 -0.2413817
-0.081111625 -0.09060142 0.08590313 -0.38803872 0.04333129 0.1756079 -0.024219498 -0.055549126
0.3599941 -0.118526205 -0.13670808 -0.2775761 -0.038285755 0.18976204 -0.025999578 -0.12989299
-0.28803036 0.0048076473 -0.008215653 0.19611011 0.21251959 0.106599 -0.34192947 -0.10312298
-0.13477297 -0.2556185 -0.61457556 -0.10240545 0.023508392 -0.15148544 0.15413544 -0.13756472
0.0065142354 0.32775518 -0.15478519 0.10967466 0.016176574 0.3678059 0.015764832 0.1735419
00000000: d27e 73bc 1a3d 17be 91c5 1f3b 574a d53d
00000010: d16b 63bd bb75 1fbe dd63 00be 4f15 f0bd
00000020: a669 4dbd bb31 103e 2400 12be 397b 913d
00000030: ea54 1a3f 5eee d0bd 2a81 663e eb91 e23d
00000040: a9f8 25bd 800c 4bbe b6c9 6bbe d683 073f
00000050: fbcf efbd 4173 e1bd e9ff 343d c42c 77be
00000060: da1d a6bd 3d8d b9bd fbed af3d 03ad c6be
00000070: 277c 313d 8fd2 333e f867 c6bc 7b87 63bd
00000080: 2651 b83e debd f2bd 34fd 0bbe 741e 8ebe
00000090: 86d1 1cbd fb50 423e 11fd d4bc ab02 05be
000000a0: b778 93be 7889 9d3b f29a 06bc 17d1 483e
000000b0: bc9e 593e 9450 da3d 6111 afbe 2432 d3bd
000000c0: ed01 0abe 6ee0 82be d354 1dbf f3b9 d1bd
000000d0: ac94 c03c 001f 1bbe aed5 1d3e c4dd 0cbe
000000e0: 5e75 d53b 87cf a73e 0280 1ebe 1c9d e03d
000000f0: bc84 843c 0e51 bc3e 4025 813c f8b4 313e

weight f4 [64, 64]
-0.065436356 -0.024479888 0.91218185 0.9526931 0.105938494 0.122832134 0.13390878 0.2893144
0.08788276 0.01984553 -0.13490453 0.41488186 -0.86202514 0.055933952 0.4353682 0.4609554
0.17742845 0.13994628 1.0220481 -0.45444658 -0.10961743 -0.7613443 0.055093706 0.017034903
0.121528774 1.1177423 0.0710622 0.32730028 0.85339594 -1.5728942 -0.06707323 -0.44519532
-0.8203515 0.039223805 0.22727868 -0.25997123 -0.12033452 0.10754339 -0.79315394 0.076584995
0.5580464 -0.105012946 0.09047671 0.26729044 0.027925208 -0.6493378 0.503522 0.007600133
-0.07933488 -0.019777864 -0.14105585 -0.35057104 -0.8771816 -0.38805345 -0.0760487 -0.5678725
-0.14620768 -0.9099422 0.07479654 0.10845016 -0.58916956 -1.044752 0.20659338 -0.77572864
-0.0893341 0.026898727 0.08213225 -0.12678997 -0.13974439 0.0005711551 0.09412779 -0.123679444
0.02751714 0.08787316 0.023089275 0.027051345 0.08506985 0.081434086 -0.17491654 -0.0046366616
0.009907833 0.09478679 -0.18542337 0.028747128 -0.03629148 -0.11448623 0.027746752 -0.06805171
0.017714024 -0.12740898 -0.10951663 -0.010606378 -0.11517231 0.025383756 -0.003752934 0.037313107
-0.0387209 -0.040195167 0.0846667 -0.050926898 0.023461461 -0.12838003 -0.080367245 -0.03947996
-0.012925855 -0.09748492 -0.000768736 -0.13900699 -0.02689135 0.0010291894 -0.12792327 -0.08425647
-0.030522063 -0.034266755 0.0057103126 0.0053018313 -0.008271661 -0.0958099 -0.008821398 0.02382938
0.060461346 -0.06649658 -0.072327524 0.020484226 0.08380552 -0.079059385 -0.07408796 0.0054064873
-0.008758247 -0.101826146 1.3842449 -0.8678844 -0.06245473 0.05951903 0.09881748 -0.5030984
-0.009884343 -0.077592894 0.017138753 -0.08897344 -0.7926796 -0.029874459 0.24862552 0.074964784
-1.3550228 0.1269747 0.0022998878 -0.4356429 0.06005664 0.8846722 0.08192492 0.052183717
-0.14079854 0.23566963 0.32033974 0.7669284 -0.9140119 0.41065052 -0.05693725 0.14683752
0.48378748 0.048410848 0.12366052 0.089589745 -0.0689553 0.11174489 -0.8231922 0.09440651
0.28352666 -0.080258355 -0.014651611 0.37858456 0.048996896 -0.91563857 -1.1707965 -0.056606743
0.09308503 -0.079343915 -1.0331606 1.9941306 -0.54897994 0.022827184 0.10210556 0.4313402
-0.78609866 0.22685486 0.04558572 -0.074546196 -1.3026433 0.5946941 1.3833371 1.040864
-0.007699892 -0.07839753 0.5429053 -0.76611984 -0.009806 0.07762997 -0.049566492 1.2172036
0.0026602745 -0.114708185 0.01743884 -0.078708775 1.0671514 -0.024988025 0.18495892 0.09955243
-0.5538494 0.026026923 -0.08351114 0.502397 0.038210243 0.83565205 -0.018917086 -0.12056297
0.28351277 -1.0763761 -0.14820589 0.18406688 -0.8195896 -1.0150964 -0.109510034 -0.38516062
-0.37708244 -0.113588154 -0.08346596 -0.45307362 -0.11787146 0.6028911 -0.060354274 -0.08665466
-0.20020618 -0.095722295 -0.094729275 0.6105322 0.023370788 -0.12024273 -0.6253712 -0.060376883
-0.011568308 0.0006324202 -0.10338975 -1.3256061 0.584666 -1.914378 -0.06883538 0.19343156
-0.08829429 -0.5515265 0.02961947 -0.050725956 -0.4764454 -0.38621825 0.69061995 -0.037152216
00000000: 7f03 86bd 0c8a c8bc c084 693f b2e3 733f
00000010: 48f6 d83d 6a8f fb3d 621f 093e 0421 943e
00000020: e0fb b33d 1893 a23c 6a24 0abe 656b d43e
00000030: aead 5cbf 001b 653d 95e8 de3e 5902 ec3e
00000040: ceaf 353e 144e 0f3e 79d2 823f 39ad e8be
00000050: 1a7f e0bd 76e7 42bf f0a9 613d c88c 8b3c
00000060: 14e4 f83d 2e12 8f3f 0f89 913d e793 a73e
00000070: 2878 5a3f 9954 c9bf b15d 89bd a4f0 e3be
00000080: 8e02 52bf 24a9 203d bebb 683e f31a 85be
00000090: f271 f6bd b53f dc3d 230c 4bbf 98d8 9c3d
000000a0: 21dc 0e3f 0711 d7bd da4b b93d 4bda 883e
000000b0: 68c3 e43c 013b 26bf d1e6 003f 890a f93b
000000c0: 537a a2bd 3005 a2bc f270 10be 0c7e b3be
000000d0: f98e 60bf f1ae c6be 6cbf 9bbd 1860 11bf
000000e0: 77b7 15be f9f1 68bf ee2e 993d 1e1b de3d
000000f0: d1d3 16bf 6fba 85bf 378d 533e 2796 46bf
00000100: ccf4 b6bd b85a dc3c f434 a83d 3bd5 01be
00000110: 2719 0fbe 92b9 153a 12c6 c03d a64b fdbd
00000120: a06b e13c d8f6 b33d b825 bd3c c89a dd3c
00000130: 1a39 ae3d eac6 a63d 521d 33be 23ef 97bb
00000140: 7754 223c 941f c23d a0df 3dbe 197f eb3c
00000150: 60a6 14bd c277 eabd 284d e33c b25e 8bbd
00000160: 001d 913c 8077 02be 414a e0bd 60c6 2dbc
00000170: 76df ebbd 98f1 cf3c c9f3 75bb a1d5 183d
00000180: ce99 1ebd b0a3 24bd bc65 ad3d b998 50bd
00000190: 4032 c03c 0e76 03be 9597 a4bd bdb5 21bd
000001a0: f7c6 53bc 2ca6 c7bd 0085 49ba d957 0ebe
000001b0: 404b dcbc dee5 863a 51fe 02be a88e acbd
000001c0: 6809 fabc 4c5b 0cbd 931d bb3b fcba ad3b
000001d0: dc85 07bc fb37 c4bd a087 10bc d535 c33c
000001e0: 51a6 773d 5c2f 88bd 7420 94bd 89ce a73c
000001f0: 3aa2 ab3d e3e9 a1bd 6ebb 97bd e728 b13b
00000200: c07e 0fbc 3a8a d0bd f02e b13f ac2d 5ebf
00000210: 88d0 7fbd 3aca 733d d260 ca3d 0fcb 00bf
00000220: f0f1 21bc 06e9 9ebd 9266 8c3c b537 b6bd
00000230: 0ded 4abf 48bb f4bc b097 7e3e 2387 993d
00000240: 6371 adbf a805 023e b7b9 163b 960c dfbe
00000250: f4fd 753d e179 623f 41c8 a73d 98be 553d
00000260: 7e2d 10be 6153 713e 9203 a43e 6b55 443f
00000270: affc 69bf c940 d23e 0937 69bd 935c 163e
00000280: feb2 f73e 744a 463d ba41 fd3d d47a b73d
00000290: 7038 8dbd 81da e43d b9bc 52bf 3358 c13d
000002a0: 682a 913e 7e5e a4bd 500d 70bc d6d5 c13e
000002b0: f8b0 483d 4a67 6abf a9dc 95bf 79dc 67bd
000002c0: 5da3 be3d 107f a2bd 9b3e 84bf ac3f ff3f
000002d0: f389 0cbf 1300 bb3c b81c d13d 9fd8 dc3e
000002e0: c33d 49bf a44c 683e 18b8 3a3d adab 98bd
000002f0: 04bd a6bf df3d 183f 3111 b13f 083b 853f
00000300: 604f fcbb e28e a0bd d7fb 0a3f 6e20 44bf
00000310: 58a9 20bc 76fc 9e3d 3c06 4bbd 54cd 9b3f
00000320: 0058 2e3b 20ec eabd e6db 8e3c 1132 a1bd
00000330: 6b98 883f b0b3 ccbc df65 3d3e 25e2 cb3d
00000340: 13c9 0dbf 6a36 d53c e307 abbd 179d 003f
00000350: 5882 1c3d 4bed 553f 01f8 9abc b8e9 f6bd
00000360: 9628 913e b1c6 89bf 49c3 17be 077c 3c3e
00000370: a0d0 51bf aeee 81bf cc46 e0bd c633 c5be
00000380: f310 c1be e8a0 e8bd 34f0 aabd 44f9 e7be
00000390: 9866 f1bd 1257 1a3f 0b36 77bd 0078 b1bd
000003a0: d902 4dbe 0d0a c4bd 6c01 c2bd d74b 1c3f
000003b0: 1874 bf3c d241 f6bd 5418 20bf c04d 77bd
000003c0: 0089 3dbc 00c9 253a 01be d3bd 76ad a9bf
000003d0: acac 153f 570a f5bf 90f9 8cbd ec12 463e
000003e0: a3d3 b4bd d730 0dbf 88a4 f23c 05c6 4fbd
000003f0: a7f0 f3be 66be c5be 78cc 303f ec2c 18bd

bias f4 [64]
-0.4244087 -0.114639804 -0.29725713 -0.41956615 -0.14611262 0.08728463 0.39590245 -0.08128827
-0.16344878 -0.14008205 -0.06485598 -0.18526144 -0.15273532 -0.05250283 -0.10430512 -0.12065181
-0.75169665 0.2994803 -0.21877968 -0.13727733 -0.078581214 -0.11490426 0.2999271 -0.13310483
-0.14985292 0.29149866 -0.027877396 -0.17703952 -0.009466849 -0.124390446 -0.2057919 -0.08078271
0.01823078 -0.14914238 -0.20706877 -0.05322148 0.38145652 -0.2637494 -0.13369651 -0.12638323
-0.08089154 -0.1102034 -0.0807057 -0.1081833 -0.15413356 0.10457531 0.37378386 -0.4955846
0.17855394 0.17481245 0.33379892 -0.061297745 -0.019545814 -0.14561321 0.0074885786 -0.05303286
-0.13117063 -0.17041722 -0.14188433 0.13036439 -0.10205493 -0.1705754 0.12992582 0.25417694
00000000: 194c d9be 46c8 eabd 1632 98be 60d1 d6be
00000010: 8c9e 15be 49c2 b23d bab3 ca3e 777a a6bd
00000020: 1e5f 27be ab71 0fbe 36d3 84bd 2db5 3dbe
00000030: a666 1cbe 350d 57bd ec9d d5bd 4c18 f7bd
00000040: 316f 40bf 7b55 993e c807 60be 6e92 0cbe
00000050: 30ef a0bd ed52 ebbd 0b90 993e a24c 08be
00000060: 0b73 19be 503f 953e 235f e4bc d949 35be
00000070: d81a 1bbc 6bc0 febd 1dbb 52be 6871 a5bd
00000080: b758 953c c8b8 18be d609 54be c4fe 59bd
00000090: 454e c33e 290a 87be bde7 08be 9b6a 01be
000000a0: 77aa a5bd 52b2 e1bd 0849 a5bd 358f ddbd
000000b0: 30d5 1dbe 952b d63d 9960 bf3e 44bd fdbe
000000c0: d8d6 363e 0902 333e b1e7 aa3e 5813 7bbd
000000d0: 8b1e a0bc a11b 15be c062 f53b fc38 59bd
000000e0: 9851 06be da81 2ebe 204a 11be 3e7e 053e
000000f0: 2d02 d1bd 51ab 2ebe 460b 053e 7b23 823e

weight f4 [64, 64]
-1.4376341 0.093313225 0.37880638 0.59918225 0.10257731 1.049776 0.285376 -0.6597524
0.5918891 -0.045067642 0.05873221 -0.05133826 0.06542092 -0.06840621 -0.94699335 0.087905
0.6941031 -0.53526103 0.32809028 1.0658462 -0.014706244 -0.030991822 0.41430798 0.051337134
0.055381574 0.6211247 -0.0067410665 -1.2273932 -0.69236165 -0.11357262 0.62425685 -0.10710053
-1.6701771 0.06348493 0.014023531 -0.065510236 0.37488562 0.34590504 0.03069655 0.09940687
-0.0261698 -0.022246582 0.024301156 0.04455875 0.019146655 -0.5534888 -0.92280626 -1.1502724
0.30952346 -0.56798 -0.45194957 -0.058091965 0.013804569 0.10056084 -0.66026866 -0.064421766
0.019062277 0.02940728 0.07838713 -1.8388113 0.0019000553 0.055717394 -0.08005388 -0.16013774
0.28337145 -0.10965204 0.6686725 -0.15519746 -0.02450389 -0.06206787 0.9144889 0.5578128
-0.900376 0.025332602 -0.035316836 0.09870264 0.119641736 -0.011575724 -1.5864978 -0.030150378
-0.23599826 -0.058232736 1.766082 -0.21225645 -0.041668817 0.020555025 -0.45869857 -0.005993201
0.108246304 0.54030854 0.20505188 -1.1414076 0.6728037 0.027373899 -0.7369164 -0.012074414
0.93141186 0.03789768 0.2412779 0.04913886 0.3070711 0.62103593 -0.060154002 0.04955037
0.020695597 -0.06292064 0.019882321 -0.020612894 1.1215222 -0.7844125 -0.94482636 0.47620612
-0.3723955 -1.7044876 -0.9957171 0.012917593 0.03671868 0.09971581 -0.24280435 -0.091174915
-0.036317967 0.4578667 -0.07639274 0.12727243 -0.013134021 0.08555129 0.87838525 0.15174583
-0.012523603 -0.05773253 -0.29292986 -0.7680768 0.08306618 0.36207145 -0.74600804 1.3905869
0.4512343 -0.10069612 0.00997308 0.20332158 0.016604342 0.036008686 0.23846768 0.04537736
-1.319801 -0.07941059 -0.20138672 0.78388715 0.11936312 0.011983794 -0.3504741 0.05468822
0.030893803 0.6805843 0.11176186 -0.7054168 0.8436185 0.0878475 0.8048784 -0.038047653
-0.86074567 0.028317556 -0.010820012 -0.0055314004 -0.20555727 0.76407975 0.10178462 -0.12630452
-0.09536307 -0.20425543 0.034492657 -0.06250949 0.28022403 -0.3036257 -1.3173287 -1.4299078
-0.27039537 -0.94888616 -0.7693156 0.09487717 -0.17549539 0.11781631 0.20690566 0.12642695
0.13980933 -0.1793862 0.010060325 0.5168193 0.08369137 -0.09599652 -0.36146095 0.2752269
-0.2723267 0.025056044 -0.12075873 0.12587596 -0.058494676 0.9999004 0.26313943 -0.47673997
0.20168464 -0.012017354 -0.04255064 0.08370291 0.07605568 -0.11669462 0.21085674 0.08911606
0.08522355 0.40407223 0.35516965 -1.3063402 -0.10216759 0.09584999 0.6038752 -0.10659856
-0.096876964 -0.54873055 0.050583594 0.588645 0.10746494 0.055452425 0.17396393 0.20120008
0.1702988 0.17869106 -0.011969603 -0.13492857 -0.39552772 0.20603874 0.07133144 -0.010508756
0.019656032 0.026072875 0.09384331 -0.013032885 -0.8952233 0.062497232 0.43595392 -0.49878854
1.1984855 0.57230914 -0.23142731 -0.025805414 0.122255504 0.056455866 -0.7546975 -0.0237598
0.027623605 0.18348269 0.067675434 -0.5539349 -0.09434479 0.030809635 -0.01606679 0.497224
00000000: 6504 b8bf 011b bf3d e9f2 c13e 0264 193f
00000010: 0d14 d23d 0f5f 863f ce1c 923e 89e5 28bf
00000020: 0b86 173f d998 38bd 3091 703d 1148 52bd
00000030: 67fb 853d 8e18 8cbd 286e 72bf 8907 b43d
00000040: beb0 313f de06 09bf 73fb a73e a66d 883f
00000050: 75f2 70bc 90e2 fdbc 2d20 d43e e346 523d
00000060: cad7 623d 0702 1f3f 2ae4 dcbb 381b 9dbf
00000070: 9d3e 31bf c398 e8bd 4ccf 1f3f 8657 dbbd
00000080: 5dc8 d5bf 6304 823d f4c2 653c 3b2a 86bd
00000090: 02f1 bf3e 771a b13e 5577 fb3c d495 cb3d
000000a0: 0c62 d6bc 773e b6bc 3813 c73c 3c83 363d
000000b0: 72d9 9c3c 71b1 0dbf 083d 6cbf 203c 93bf
000000c0: dc79 9e3e 2367 11bf ef65 e7be d7f1 6dbd
000000d0: 8f2c 623c d7f2 cd3d 5e07 29bf 8fef 83bd
000000e0: 7e28 9c3c 89e7 f03c 6e89 a03d 2b5e ebbf
000000f0: 470b f93a ec37 643d 4af3 a3bd 26fb 23be
00000100: 1016 913e 4091 e0bd 1f2e 2b3f 15ec 1ebe
00000110: 62bc c8bc e13a 7ebd f21b 6a3f d2cc 0e3f
00000120: 0b7f 66bf 5186 cf3c 63a8 10bd 9c24 ca3d
00000130: ba06 f53d 1ba8 3dbc 5c12 cbbf edfd f6bc
00000140: 87a9 71be 7385 6ebd fa0e e23f c159 59be
00000150: ecac 2abd 0363 a83c 8ada eabe 9d62 c4bb
00000160: 3db0 dd3d a951 0a3f 1ff9 513e a519 92bf
00000170: dd3c 2c3f 3a3f e03c 8ea6 3cbf c3d3 45bc
00000180: 0271 6e3f 993a 1b3d 8e11 773e d445 493d
00000190: 6c38 9d3e 36fc 1e3f 0b64 76bd 54f5 4a3d
000001a0: d089 a93c 89dc 80bd 40e0 a23c 5fdc a8bc
000001b0: 0a8e 8f3f 42cf 48bf 24e0 71bf 4ad1 f33e
000001c0: 9faa bebe a62c dabf 51e7 7ebf 50a4 533c
000001d0: 5466 163d cd37 cc3d b4a1 78be eab9 babd
000001e0: 26c2 14bd 816d ea3e cc73 9cbd b453 023e
000001f0: 1430 57bc 8435 af3d dbdd 603f 4263 1b3e
00000200: cc2f 4dbc f278 6cbd e7fa 95be aea0 44bf
00000210: 9a1e aa3d 6e61 b93e 62fa 3ebf c0fe b13f
00000220: 2f08 e73e c439 cebd 2166 233c 8833 503e
00000230: d405 883c d87d 133d df30 743e 9cdd 393d
00000240: 3def a8bf 05a2 a2bd 5238 4ebe d4ac 483f
00000250: a774 f43d ad57 443c 5771 b3be c100 603d
00000260: 0015 fd3c c63a 2e3f 67e3 e43d 3296 34bf
00000270: 62f7 573f 64e9 b33d 830c 4e3f dbd7 1bbd
00000280: d459 5cbf 38fa e73c 6b46 31bc c040 b5bb
00000290: 9b7d 52be bb9a 433f 7474 d03d f955 01be
000002a0: b74d c3bd 5628 51be 2c48 0d3d fa04 80bd
000002b0: 8679 8f3e d474 9bbe 3a9e a8bf 3807 b7bf
000002c0: 4371 8abe 34ea 72bf def1 44bf f64e c23d
000002d0: 10b5 33be ad49 f13d 14df 533e 1176 013e
000002e0: 2d2a 0f3e 04b1 37be 10d4 243c 454e 043f
000002f0: 6266 ab3d d399 c4bd 6911 b9be 8aea 8c3e
00000300: 686e 8bbe 5542 cd3c 5a50 f7bd a1e5 003e
00000310: 1d98 6fbd 79f9 7f3f 36ba 863e 4317 f4be
00000320: 6b86 4e3e 70e4 44bc 9449 2ebd 6e6c ab3d
00000330: 15c3 9b3d 97fd eebd d4ea 573e 7b82 b63d
00000340: af89 ae3d 8ee2 ce3e ccd8 b53e 2836 a7bf
00000350: 3e3d d1bd 004d c43d 9197 1a3f 5950 dabd
00000360: 6e67 c6bd 9b79 0cbf be30 4f3d 70b1 163f
00000370: 9416 dc3d 1522 633d 9a23 323e 6507 4e3e
00000380: cf62 2e3e cafa 363e 271c 44bc b72a 0abe
00000390: 9c82 cabe d2fb 523e 3816 923d eb2c 2cbc
000003a0: b005 a13c c896 d53c ec30 c03d e287 55bc
000003b0: 5b2d 65bf 19fd 7f3d 5a35 df3e 3661 ffbe
000003c0: f967 993f da82 123f 48fb 6cbe e065 d3bc
000003d0: 1861 fa3d 443e 673d db33 41bf e9a3 c2bc
000003e0: e64a e23c e3e2 3b3e 6b99 8a3d adce 0dbf
000003f0: d737 c1bd 7d64 fc3c 809e 83bc 2594 fe3e

bias f4 [64]
-0.15304396 0.063116245 0.019425208 0.33277816 0.0053990292 -0.5509551 0.0561289 0.016766021
-1.4973695 -0.5010788 -0.23753788 -1.7841603 -0.42412683 -0.49613118 -0.16904944 -0.23143286
-0.77340573 -0.10288286 -0.48276973 -0.30875012 -0.9754617 -0.19121535 0.21259314 0.5876923
-0.6767357 0.6127952 -1.2693666 -0.032556888 -0.445175 -0.15148698 0.17844315 -0.5869003
-0.16597074 -0.07906892 -0.7079506 0.4859438 -0.53338134 -1.39967 -0.35101202 -0.15068665
0.6193981 -0.02102278 -0.35525826 -0.011851708 -0.13459222 -0.13229132 -0.6463551 0.32716003
0.23330459 -0.6638404 0.06901064 -0.40601 0.16763198 -0.62025887 -1.0109245 0.38118455
0.23861961 -0.13018245 -0.5137042 -0.11256015 -0.4456921 -0.55843925 -0.44061887 -0.4599947
00000000: 8eb7 1cbe 1743 813d 9d21 9f3c e661 aa3e
00000010: 57ea b03b 650b 0dbf 6be7 653d e558 893c
00000020: cea9 bfbf b346 00bf 213d 73be 5d5f e4bf
00000030: 2727 d9be e804 febe 4c1b 2dbe bcfc 6cbe
00000040: ebfd 45bf 40b4 d2bd 982d f7be 7f14 9ebe
00000050: dcb7 79bf f5cd 43be 04b2 593e 0173 163f
00000060: 8d3e 2dbf 25e0 1c3f 9b7a a2bf 5f5a 05bd
00000070: faed e3be 671f 1bbe cdb9 363e 193f 16bf
00000080: 3cf4 29be e3ee a1bd 403c 35bf a0cd f83e
00000090: ae8b 08bf 6328 b3bf d9b7 b3be 9a4d 1abe
000000a0: e090 1e3f f737 acbc 69e4 b5be ab2d 42bc
000000b0: 8bd2 09be 6077 07be 8777 25bf 8581 a73e
000000c0: 66e7 6e3e 72f1 29bf 7355 8d3d 8be0 cfbe
000000d0: b8a7 2b3e 49c9 1ebf f965 81bf 9f2a c33e
000000e0: b358 743e 8c4e 05be 1e82 03bf f085 e6bd
000000f0: c131 e4be e0f5 0ebf cc98 e1be 6d84 ebbe

weight f4 [4, 64]
-0.22642095 -0.48188353 -0.5506104 0.5240069 0.8590088 -3.738819 0.0890358 0.16069254
-1.1898649 -0.8109432 -0.8195908 1.806401 -4.51853 0.85479087 0.9832122 -0.060872097
-0.108665526 -0.08201153 -0.7659265 0.14047576 1.9775969 0.011056216 0.32653022 0.5329414
-0.11731067 0.5616907 5.8488474 -0.33258438 -0.34862882 -0.017175123 0.5282575 2.1305149
0.015085812 -0.07070293 -0.9034659 4.6592193 -0.8292967 -7.4084764 0.6471918 0.115588024
-0.39740628 0.48860145 0.17685652 -0.0032585051 0.0012431951 -0.20189549 1.8694086 0.6553943
0.22939935 -2.8239381 0.115365356 0.029730922 -0.12367707 -0.18668951 -0.93770057 0.017186385
0.40995684 0.12250158 1.6110177 -0.11786936 1.3540859 -0.2225506 -2.7978165 0.576448
0.45423555 0.09917221 0.48135588 0.25097683 -0.68049145 -1.2835374 -0.6464201 -0.08600913
0.7567215 0.070905715 -0.014554313 -1.422506 -0.37288538 -0.3120887 0.50537145 -0.040759485
0.08832654 0.007990284 0.46037605 -0.67967385 -0.9292851 0.014113185 0.6865147 -0.1870176
-3.8613245 -0.0058288206 0.21248592 0.034175612 0.34982938 -0.093882985 0.055333406 2.3230896
-0.0045642816 0.11073157 0.10273281 0.30850935 -0.20442146 4.2075543 -1.5537351 0.1137394
0.70583653 -0.54767555 -0.6072264 0.12574679 -0.009128625 0.1116716 -2.0393162 0.100828715
3.9777076 0.5189406 0.0465495 1.127166 0.04906603 -0.025378864 0.8822378 0.18585664
-0.16471691 0.008708422 -1.9354597 -0.17417555 -2.4916759 1.2213603 0.30970794 -0.093094505
0.2922918 -0.46418533 -0.9915153 0.069368795 0.06921034 -0.28452912 -0.09561638 -0.034443967
2.3386495 -0.50201803 0.556781 1.5885714 0.6533351 -1.9512337 1.8195388 0.07155741
1.4829375 -0.087569475 -0.9539023 0.89962953 6.4692245 0.060159687 0.14429398 0.46901387
-0.23881449 1.3071114 -0.038726874 3.879999 0.14639764 0.0836191 0.63141096 -1.1821266
-0.05351984 -0.123841345 0.63754976 -0.11759043 -0.57167 -0.997509 0.47364366 -0.03373838
-0.6444527 -0.28387368 0.44970378 -0.32108897 -0.13839263 0.71751136 0.96892285 -0.25772172
0.022984652 -0.36034927 -2.5570529 0.61188394 -1.7391124 -0.21609 1.5208972 0.99146056
-3.191587 0.08181657 -1.153362 0.0212404 -0.3263032 -0.7653314 -3.2629583 0.22546692
2.7809274 2.3156848 -1.0823951 3.2613394 -0.11984123 -2.883344 -0.78979397 -0.050202124
1.4158348 2.0913324 -1.9860661 -0.8498781 2.0599453 0.82517093 3.2897193 -0.029629637
1.1954976 0.09784525 0.156808 2.0025444 0.6810407 -0.04519176 0.8010181 -3.4649556
2.1677887 -1.5229713 1.2691753 1.1780597 2.6628761 -0.020229965 -0.68917567 -2.3865247
1.0594653e-05 0.022355424 -0.26426864 0.787243 -0.89586145 2.1017892 0.4302853 -0.011316379
-1.9179709 7.0556946 1.0091231 0.5059252 -0.15897307 1.6424727 -0.32217842 0.6596468
0.55251557 0.66958374 0.7872583 2.8173413 0.9353701 -2.9902124 -0.072610825 0.72109133
1.6200693 0.0663081 0.3037052 2.220133 0.22685342 5.1002893 -0.51852494 -1.7331152
00000000: e5da 67be 70b9 f6be cef4 0cbf 5125 063f
00000010: 00e8 5b3f cf48 6fc0 6758 b63d 968c 243e
00000020: 7e4d 98bf f999 4fbf b4d0 51bf 2638 e73f
00000030: cc97 90c0 93d3 5a3f cbb3 7b3f 0555 79bd
00000040: 088c debd a9f5 a7bd c213 44bf e1d8 0f3e
00000050: e521 fd3f 2225 353c f82e a73e d96e 083f
00000060: 9440 f0bd f6ca 0f3f c229 bb40 8048 aabe
00000070: 7a7f b2be d8b2 8cbc e23b 073f 5b5a 0840
00000080: 7b2a 773c b3cc 90bd 8b49 67bf 5318 9540
00000090: ca4c 54bf 3d12 edc0 5dae 253f 6ab9 ec3d
000000a0: d678 cbbe f829 fa3e e019 353e a58c 55bb
000000b0: b5f2 a23a b1bd 4ebe c848 ef3f ecc7 273f
000000c0: aae7 6a3e 67bb 34c0 ac44 ec3d 438e f33c
000000d0: 674a fdbd 892b 3fbe 250d 70bf 76ca 8c3c
000000e0: dde5 d13e 1ce2 fa3d d435 ce3f 7e65 f1bd
000000f0: b052 ad3f 4ee4 63be 6d0f 33c0 1992 133f
00000100: 9091 e83e cd1a cb3d 4774 f63e 0980 803e
00000110: b034 2ebf f44a a4bf ca7b 25bf 8e25 b0bd
00000120: 80b8 413f 0437 913d 3775 6ebc ad14 b6bf
00000130: d5ea bebe 17ca 9fbe 0660 013f 6bf3 26bd
00000140: 8ce4 b43d aee9 023c 69b6 eb3e 1bff 2dbf
00000150: a1e5 6dbf fd3a 673c 6dbf 2f3f 8b81 3fbe
00000160: f11f 77c0 b1ff bebb e995 593e bafb 0b3d
00000170: d61c b33e b945 c0bd 48a5 623d 80ad 1440
00000180: f88f 95bb 3cc7 e23d 9465 d23d f0f4 9d3e
00000190: dc53 51be 49a4 8640 cbe0 c6bf 34f0 e83d
000001a0: b4b1 343f 7734 0cbf 3073 1bbf c4c3 003e
000001b0: 3a90 15bc 14b4 e43d 2884 02c0 497f ce3d
000001c0: c392 7e40 4bd9 043f b0aa 3e3d fa46 903f
000001d0: 76f9 483d 56e7 cfbc 56da 613f 3451 3e3e
000001e0: 8dab 28be c5ad 0e3c 25bd f7bf 135b 32be
000001f0: 9e77 1fc0 8955 9c3f 0a92 9e3e 55a8 bebd
00000200: 45a7 953e b3a9 edbe f2d3 7dbf 3a11 8e3d
00000210: 27be 8d3d cdad 91be 85d2 c3bd 1e15 0dbd
00000220: 6fac 1540 4184 00bf 3389 0e3f 4f56 cb3f
00000230: f840 273f 07c2 f9bf a6e6 e83f b18c 923d
00000240: e5d0 bd3f a057 b3bd f132 74bf 1f4e 663f
00000250: e303 cf40 016a 763d cdc1 133e 9622 f03e
00000260: c98b 74be 6d4f a73f 12a0 1ebd e751 7840
00000270: 43e9 153e 7e40 ab3d 26a4 213f ed4f 97bf
00000280: 9f37 5bbd 88a0 fdbd 7636 233f 40d3 f0bd
00000290: f758 12bf c05c 7fbf 6c81 f23e 4131 0abd
000002a0: dafa 24bf e457 91be 933f e63e c665 a4be
000002b0: ccb6 0dbe d3ae 373f 540b 783f 1af4 83be
000002c0: 4f4a bc3c b37f b8be c1a6 23c0 6da4 1c3f
000002d0: 3c9b debf b246 5dbe c2ac c23f 5cd0 7d3f
000002e0: f642 4cc0 728f a73d 5ea1 93bf 5900 ae3c
000002f0: 3711 a7be c2ec 43bf 4fd4 50c0 cde0 663e
00000300: b7fa 3140 2e34 1440 ec8b 8abf c9b9 5040
00000310: 526f f5bd b588 38c0 f02f 4abf bea0 4dbd
00000320: 133a b53f 64d8 0540 6a37 febf 9c91 59bf
00000330: 25d6 0340 673e 533f c38a 5240 dab9 f2bc
00000340: 1106 993f 1763 c83d 4792 203e b029 0040
00000350: af58 2e3f ff1a 39bd 860f 4d3f d5c1 5dc0
00000360: 0dbd 0a40 b9f0 c2bf 5674 a23f a9ca 963f
00000370: 906c 2a40 50b9 a5bc d16d 30bf d2bc 18c0
00000380: b0bf 3137 b922 b73c 384e 87be c288 493f
00000390: 2d57 65bf b783 0640 5b4e dc3e 5568 39bc
000003a0: 1280 f5bf 40c8 e140 f22a 813f 5084 013f
000003b0: d6c9 22be 8c3c d23f 92f4 a4be 9dde 283f
000003c0: a971 0d3f d769 2b3f c389 493f 524f 3440
000003d0: 6a74 6f3f a45f 3fc0 fcb4 94bd 7199 383f
000003e0: 6e5e cf3f 8bcc 873d 3f7f 9b3e a916 0e40
000003f0: 434c 683e 9235 a340 0dbe 04bf b8d6 ddbf

bias f4 [4]
0.20071562 0.027031416 -0.53577924 0.25002038
00000000: 6588 4d3e fd70 dd3c d428 09bf ac02 803e

weight f4 [64, 17]
0.25351712 -0.23495892 -0.8951315 -7.944406 -8.046367 0.017636515 -0.039263006 -0.052159656
-0.5830376 -0.09049731 -0.26843303 0.24299137 0.92183197 0.00834008 -0.004319624 -0.018754356
-0.004977618 -0.418489 0.10471253 -0.6634127 8.382351 8.486711 0.18752539 0.06243819
-0.07048504 -2.0901053 -1.8976699 0.38510215 -0.051880118 -0.16211586 -0.015217342 0.0060142153
-0.0058319136 -0.0043598306 -0.27309754 0.03665499 -0.06869359 0.14173439 0.27867782 0.23669332
0.2494031 0.001546644 -0.23958291 0.22909178 -0.13003688 -0.057682447 -0.13864374 0.157452
-0.09092162 -0.10780218 0.09276599 0.19556358 0.68599313 0.05832227 2.0138934 2.024432
0.10406563 0.14233737 0.20329405 -0.7618789 -0.53311795 -0.4739702 -0.42461497 -0.2593859
0.009669878 0.01727254 0.0050896467 0.006319288 -0.34976262 0.34727165 -0.34377864 -0.94555146
-0.58083373 -0.12646878 0.30761 -0.07751754 -0.14758189 0.31129915 0.29878923 0.43484107
0.43938503 -0.0025162655 0.004356886 -0.0064774454 0.0007958657 -0.08449066 -0.0069307545 -0.11841266
2.047487 2.2921913 -0.06298575 -0.0023974294 0.0048474227 0.23004983 0.23328386 0.60808283
0.020864194 -1.2312292 -0.0021459823 0.018389255 -0.0043147476 0.006110771 0.16753252 -0.16648743
-0.20436594 0.16473015 0.18417071 0.11233978 0.21294321 0.03542604 0.16120175 -0.16453876
-0.22700062 -0.0023433296 -0.19074568 -0.036311314 0.005094285 0.066794515 -0.030021219 -0.12928951
-0.3297635 -0.21985576 0.11138607 0.21083535 0.29376298 0.16419011 -0.045495015 0.08259839
-0.08751909 -0.11808491 -0.11003476 -0.26926407 -0.05017266 -0.10900045 0.011164909 -0.16345687
0.23302348 -0.08754072 0.13734594 -2.5733116 -2.4195442 0.060074087 -0.13197961 -0.14076655
0.386077 0.21377718 -0.6218639 -0.56835085 -0.21138991 0.054013375 0.037504256 -0.05148759
-0.0071062115 -0.01718652 0.20771468 0.83832484 -8.441102 -8.279361 0.074139565 0.26070097
0.28732273 0.50996053 0.60705245 -0.656415 -0.09083618 -0.35404798 -0.02314904 0.030079044
0.02224706 -0.013291901 -0.010623068 -0.088772595 0.28195152 5.0651383 5.385559 0.031882893
0.13172223 -0.07987908 0.91543096 0.28017145 -0.7418324 0.1289703 0.93213654 0.010140883
0.003966684 0.0011220786 -0.0041944603 0.13166781 0.11607805 -0.046870824 5.8848467 5.766887
-0.0027123392 0.054503556 -0.039700888 -0.073420994 -0.26853216 -0.12150891 -0.14978123 1.1264348
0.010180227 -0.0014566953 -0.0042823516 -0.0025963588 0.22339815 0.3321047 -1.4601119 8.299292
8.498367 -0.2664914 -0.012782785 -0.7533794 0.64349365 0.766275 -0.09049876 -0.34454444
-0.048429277 -0.03234178 -0.009853361 -0.056108538 -0.0001636018 0.3316687 -0.28394547 -0.5445346
-0.5934262 -0.94770324 -0.12872294 0.16804802 0.1862728 0.022006482 0.35575694 -0.22541486
-0.50854945 0.47750697 0.020970734 0.023248354 -0.014603796 0.001485314 -0.440937 -0.09800212
0.1826215 1.4351072 1.472243 -0.08974821 -0.0065847468 -0.02193876 0.47618252 0.114401475
0.2736018 0.7094671 -0.00048199482 -0.021890203 -0.00985478 0.00038853186 0.00042139372 0.5433183
00000000: ffcc 813e 1299 70be 5727 65bf 9338 fec0
00000010: ebbd 00c1 747a 903c 3fd2 20bd 5da5 55bd
00000020: f441 15bf a756 b9bd 0e70 89be bbd2 783e
00000030: 2efd 6b3f d5a4 083c a28b 8dbb bca2 99bc
00000040: 491b a3bb 3144 d6be 8673 d63d 6ad5 29bf
00000050: 1c1e 0641 91c9 0741 a806 403e 30bf 7f3d
00000060: 765a 90bd 49c4 05c0 d9e6 f2bf 1c2c c53e
00000070: 3f80 54bd b301 26be 2952 79bc e512 c53b
00000080: a319 bfbb e9dc 8ebb 71d3 8bbe 8b23 163d
00000090: 3aaf 8cbd d222 113e dcae 8e3e bc5f 723e
000000a0: 8763 7f3e c3b8 ca3a 3955 75be 0997 6a3e
000000b0: 6328 05be 6e44 6cbd a0f8 0dbe 193b 213e
000000c0: 1d35 babd 64c7 dcbd 18fc bd3d d241 483e
000000d0: 3f9d 2f3f 55e3 6e3d a1e3 0040 4b90 0140
000000e0: 5c20 d53d e3c0 113e 512c 503e 7f0a 43bf
000000f0: 6b7a 08bf 39ac f2be 2267 d9be 3bce 84be
00000100: 686e 1e3c 247f 8d3c 0dc7 a63b 0812 cf3b
00000110: 1614 b3be 97cd b13e c103 b0be a90f 72bf
00000120: 85b1 14bf 0881 01be 0f7f 9d3e 84c1 9ebd
00000130: b51f 17be 9a62 9f3e e7fa 983e 7da3 de3e
00000140: 13f7 e03e eee7 24bb 35c4 8e3b c040 d4bb
00000150: a5a1 503a 7009 adbd 621b e3bb 5682 f2bd
00000160: 070a 0340 43b3 1240 acfe 80bd 311e 1dbb
00000170: 21d7 9e3b 2f92 6b3e f7e1 6e3e 51ab 1b3f
00000180: 63eb aa3c eb98 9dbf 9ca3 0cbb 10a5 963c
00000190: ba62 8dbb dd3c c83b a58d 2b3e ae7b 2abe
000001a0: 4e45 51be 05af 283e 3f97 3c3e 6612 e63d
000001b0: c90d 5a3e e51a 113d 1212 253e d97c 28be
000001c0: da72 68be 8c92 19bb d652 43be 2cbb 14bd
000001d0: f6ed a63b 90cb 883d 0fef f5bc 7864 04be
000001e0: c3d6 a8be de21 61be 611e e43d 39e5 573e
000001f0: 1a68 963e 7421 283e fb58 3abd 5829 a93d
00000200: 353d b3bd 80d6 f1bd e759 e1bd fbdc 89be
00000210: d981 4dbd a13b dfbd 06ed 363c 3d61 27be
00000220: b59d 6e3e 8d48 b3bd 6aa4 0c3e 23b1 24c0
00000230: d0d9 1ac0 3f10 763d aa25 07be 1b25 10be
00000240: e2ab c53e 68e8 5a3e 7932 1fbf 717f 11bf
00000250: 9976 58be 213d 5d3d 109e 193d a7e4 52bd
00000260: 39db e8bb bfca 8cbc 28b3 543e 759c 563f
00000270: c10e 07c1 4378 04c1 7cd6 973d 997a 853e
00000280: f71b 933e c68c 023f ca67 1b3f d00a 28bf
00000290: 5208 babd c745 b5be 0ea3 bdbc 5468 f63c
000002a0: 773f b63c 46c6 59bc 600c 2ebc 68ce b5bd
000002b0: f35b 903e 9d15 a240 8056 ac40 a397 023d
000002c0: 31e2 063e a597 a3bd af59 6a3f a272 8f3e
000002d0: bae8 3dbf ca10 043e 80a0 6e3f f225 263c
000002e0: f5fa 813b b612 933a af71 89bb edd3 063e
000002f0: 54ba ed3d 9ffb 3fbd aa50 bc40 578a b840
00000300: 80c1 31bb 1f3f 5f3d 669d 22bd bf5d 96bd
00000310: 0c7d 89be aad9 f8bd 4060 19be 042f 903f
00000320: f8ca 263c 95ee beba f852 8cbb ac27 2abb
00000330: 7cc2 643e a109 aa3e f2e4 babf e6c9 0441
00000340: 50f9 0741 9071 88be e36e 51bc 79dd 40bf
00000350: 00bc 243f 992a 443f 6a57 b9bd 2168 b0be
00000360: c75d 46bd d078 04bd fe6f 21bc 11d2 65bd
00000370: 868c 2bb9 7bd0 a93e 4d61 91be 9f66 0bbf
00000380: c8ea 17bf ae9c 72bf f2cf 03be c814 2c3e
00000390: 4cbe 3e3e f046 b43c c625 b63e 27d3 66be
000003a0: 4c30 02bf cb7b f43e d1ca ab3c 5573 be3c
000003b0: c344 6fbc deae c23a 7fc2 e1be 56b5 c8bd
000003c0: 2101 3b3e 98b1 b73f 7572 bc3f e9cd b7bd
000003d0: dcc4 d7bb eab8 b3bc 32ce f33e 524b ea3d
000003e0: 8915 8c3e a39f 353f 40b4 fcb9 1553 b3bc
000003f0: f175 21bc ddb3 cb39 82ee dc39 e816 0b3f

bias f4 [64]
-0.023577472 0.38464457 -0.11661966 0.44202206 -0.32678264 -0.06736083 0.061712995 -0.08201784
0.1007125 0.2364624 -0.003409138 -0.46636462 0.47226614 0.59249085 -0.19925304 0.015195043
0.37555528 -0.29250664 -0.38133472 -0.1150894 0.024971986 -0.26599506 -0.21288131 0.21441893
-0.057817344 0.029616877 -0.26916596 -0.32179716 -0.23072034 0.08901947 -0.21549805 0.39500025
-0.3440677 -0.1588804 0.5234057 -0.028691778 0.32698393 0.10338103 -0.09419266 -0.23875758
-0.21902868 0.24340552 -0.1943903 0.055490818 0.2661847 0.15098539 0.20250596 0.27161676
0.059338722 -0.04741668 -0.34479356 -0.2758551 0.13387217 -0.24325943 0.23156199 -0.08396877
0.4530084 0.12780145 0.42480773 0.213926 0.16250405 0.0531452 0.015628222 -0.19015019
00000000: 8b25 c1bc 22f0 c43e 4ad6 eebd b750 e23e
00000010: 0e50 a7be 7af4 89bd c4c6 7c3d f8f8 a7bd
00000020: 5b42 ce3d 3323 723e d86b 5fbb 58c7 eebe
00000030: decc f13e 7bad 173f fd08 4cbe a1f4 783c
00000040: c848 c03e 6ec3 95be 4e3e c3be feb3 ebbd
00000050: 0d92 cc3c 8130 88be 8ffd 59be a390 5b3e
00000060: e1d1 6cbd 189f f23c 1fd0 89be 99c2 a4be
00000070: f441 6cbe d74f b63d 85ab 5cbe 793d ca3e
00000080: a429 b0be 8bb1 22be eafd 053f 050b ebbc
00000090: 706a a73e 6fb9 d33d 15e8 c0bd de7c 74be
000000a0: 0e49 60be 4c3f 793e 400e 47be 574a 633d
000000b0: 5c49 883e ea9b 1a3e b95d 4f3e 5a11 8b3e
000000c0: 290d 733d fe37 42bd c888 b0be e13c 8dbe
000000d0: c915 093e 0019 79be 961e 6d3e d2f7 abbd
000000e0: b8f0 e73e 62de 023e 6680 d93e 6b0f 5b3e
000000f0: 7667 263e c8ae 593d c206 803c bbb6 42be

weight f4 [64, 64]
1.6840717 0.6043992 -0.060189236 0.112803504 0.12648404 0.17784466 0.058851603 -0.07717539
-0.005992251 -0.022942705 0.050977573 0.31454024 0.28842372 -0.25841442 -0.20110221 0.103670165
0.10830631 -0.7715221 0.79862005 0.34134582 -0.08035127 -0.087010644 0.014347538 -0.001923288
-0.2856226 0.06666829 0.01593736 0.095676035 -0.07322094 0.38757327 0.10351509 0.02239647
0.5636883 -0.01032359 -0.2674667 -0.10912719 0.120215654 -0.07719449 0.92300636 0.11254277
0.0060158162 -0.058103763 -0.017720496 -0.07658938 0.20519742 0.19033892 -0.10213924 0.55650103
0.13733307 -0.11714758 0.0036844404 0.12578417 0.06719267 -0.6158548 -0.24691309 0.14164136
-0.29652783 -0.16461128 0.27647915 0.08274841 0.1246074 0.3548725 0.07347847 -0.103783
1.1087044 0.81831235 0.044007033 0.44508106 -0.22131605 0.64055127 -0.015234987 0.032700155
0.22578853 -0.24807139 -0.7732528 -2.5396235 0.49736848 0.18691608 0.7982469 -0.41022938
0.39682436 0.5917358 -1.4538982 -0.5525303 -0.6753676 -2.1799653 -0.05173035 0.6215705
0.12925792 0.017164666 -0.14481653 0.09261134 -0.07344646 -0.13302127 0.07821846 -1.6643553
-4.520742 0.077524684 0.7731551 -0.04993332 0.33278033 0.23688489 -0.9803258 -0.035785265
0.057150587 -0.065502316 -0.03733553 -0.10314412 0.42924955 0.4899659 0.47510722 0.17222202
-0.46725053 0.29111388 0.36871684 0.0630888 0.36599946 0.04335835 0.7694912 0.16717125
0.33828583 -1.0245873 0.2706911 0.33963725 0.08082453 -0.028579734 -0.6013358 0.05909571
-0.12203382 -0.013478497 0.018125147 -0.1118969 0.028879061 0.033032946 0.03984052 -0.04990478
-0.027241701 -0.0049034124 -0.06930371 -0.08524218 -0.0126813315 -0.13638411 0.056351334 -0.0055820527
-0.11408248 -0.019766022 -0.09594021 -0.05053822 -0.111315206 0.0030310731 0.060598373 -0.08502555
0.06726822 0.08865596 -0.11254625 -0.112237684 0.011422262 -0.09833656 0.08281572 0.046506215
-0.10941485 0.015320346 0.008015409 0.10492255 -0.111417405 -0.0196492 -0.11996412 -0.10662328
0.11101258 0.016994279 -0.12349062 0.07473968 -0.15244126 0.057222642 -0.03349063 -0.08587628
-0.019634051 -0.07188797 -0.057155147 -0.08583686 0.010913032 -0.086520314 -0.045910478 -0.13904841
-0.09879069 -0.016571606 -0.037562322 -0.13518715 0.002310253 0.008671697 -0.07248199 0.014331609
-0.09787753 -0.13973992 -0.021068215 0.050854187 0.0045696795 -0.12024083 0.09727506 -0.019746706
-0.14186932 0.0095428685 -0.13411081 0.08108379 -0.0065674647 0.0047901752 -0.109868616 0.0012663413
-0.04291485 -0.027078032 0.035447672 -0.112533346 -0.089356855 -0.11389415 -0.04403834 0.023467496
0.03674911 0.032106325 -0.049317643 -0.026824104 0.049133345 -0.087616205 -0.11896016 -0.025265321
-0.049763635 0.081406504 0.010156482 0.01789695 0.021374179 -0.14213794 -0.09723596 -0.10222973
-0.030172303 -0.11994459 -0.005388722 -0.057282403 0.0068471795 -0.13779846 -0.09726694 0.05474087
0.089133486 -0.018263197 -0.08926068 -0.10962586 0.055455126 0.0024325699 -0.053031415 -0.045083847
-0.06228052 0.035654426 -0.11191314 -0.039650235 0.04962297 -0.027637005 0.034751415 0.031518295
00000000: a98f d73f e8b9 1a3f fd88 76bd 8605 e73d
00000010: 0885 013e e91c 363e 610e 713d 220e 9ebd
00000020: a55a c4bb 57f2 bbbc dccd 503d 6b0b a13e
00000030: 46ac 933e e54e 84be bded 4dbe 0651 d43d
00000040: b3cf dd3d 7982 45bf 5d72 4c3f e1c4 ae3e
00000050: 358f a4bd a332 b2bd f011 6b3c d616 fcba
00000060: 203d 92be 6289 883d 118f 823c ccf1 c33d
00000070: dcf4 95bd 0170 c63e b8ff d33d cd78 b73c
00000080: e04d 103f 4624 29bc 65f1 88be 147e dfbd
00000090: a033 f63d 2518 9ebd 254a 6c3f d37c e63d
000000a0: 5320 c53b 36fe 6dbd 932a 91bc e5da 9cbd
000000b0: 461f 523e 35e8 423e 612e d1bd da76 0e3f
000000c0: 0aa1 0c3e 12eb efbd a776 713b 91cd 003e
000000d0: 509c 893d a9a8 1dbf c9d6 7cbe 6f0a 113e
000000e0: 7fd2 97be dc8f 28be ad8e 8d3e 0078 a93d
000000f0: 2a32 ff3d d9b1 b53e e17b 963d 2e8c d4bd
00000100: 07ea 8d3f eb7c 513f b840 343d aae1 e33e
00000110: ada0 62be 2bfb 233f 2b9c 79bc 99f0 053d
00000120: 1c35 673e 6d06 7ebe e5f3 45bf 3189 22c0
00000130: 15a7 fe3e ee66 3f3e e959 4c3f 9609 d2be
00000140: 902c cb3e ff7b 173f 5619 babf a072 0dbf
00000150: e4e4 2cbf 8d84 0bc0 34e3 53bd 3f1f 1f3f
00000160: 305c 043e ea9c 8c3c c94a 14be 04ab bd3d
00000170: 196b 96bd ba36 08be 0031 a03d 9809 d5bf
00000180: eba9 90c0 43c5 9e3d 7eed 453f e286 4cbd
00000190: 2f62 aa3e f491 723e a2f6 7abf 9293 12bd
000001a0: bc16 6a3d 1426 86bd 24ed 18bd 393d d3bd
000001b0: 99c6 db3e cfdc fa3e 4141 f33e f85a 303e
000001c0: 763b efbe e10c 953e 74c8 bc3e b334 813d
000001d0: 4864 bb3e 8698 313d 60fd 443f f12e 2b3e
000001e0: cd33 ad3e ad25 83bf 0698 8a3e efe4 ad3e
000001f0: 5587 a53d 0c20 eabc 25f1 19bf 580e 723d
00000200: deec f9bd ead4 5cbc 307b 943c 342a e5bd
00000210: c893 ec3c 8e4d 073d d02f 233d f468 4cbd
00000220: fd29 dfbc ceac a0bb 1aef 8dbd 7493 aebd
00000230: 5cc5 4fbc 47a8 0bbe a8d0 663d a7e9 b6bb
00000240: 13a4 e9bd 5aec a1bc 4d7c c4bd 2a01 4fbd
00000250: 3af9 e3bd f8a4 463b 0036 783d e021 aebd
00000260: ecc3 893d 4291 b53d a67e e6bd dfdc e5bd
00000270: 7024 3b3c ae64 c9bd 4a9b a93d 4d7d 3e3d
00000280: e514 e0bd 3002 7b3c 1053 033c a2e1 d63d
00000290: cf2e e4bd 5cf7 a0bc c0af f5bd 4e5d dabd
000002a0: 905a e33d 9637 8b3c a6e8 fcbd 1e11 993d
000002b0: 9019 1cbe 4a62 6a3d 792d 09bd e7df afbd
000002c0: 97d7 a0bc 003a 93bd 841b 6abd 3ccb afbd
000002d0: 93cc 323c 9031 b1bd a00c 3cbd b562 0ebe
000002e0: c652 cabd 2dc1 87bc f3da 19bd 806e 0abe
000002f0: 9d67 173b bc13 0e3c 7071 94bd 20cf 6a3c
00000300: 0474 c8bd fb17 0fbe 4097 acbc 7b4c 503d
00000310: 40bd 953b d340 f6bd 2638 c73d d8c3 a1bc
00000320: 3146 11be b159 1c3c 5854 09be 420f a63d
00000330: e333 d7bb e7f6 9c3b cc02 e1bd 5dfb a53a
00000340: 7bc7 2fbd c0d2 ddbc 9431 113d e277 e6bd
00000350: ba00 b7bd 5641 e9bd 8c61 34bd e83e c03c
00000360: 3c86 163d ec81 033d 4c01 4abd 39be dbbc
00000370: 0c40 493d 2070 b3bd 62a1 f3bd 38f9 cebc
00000380: f4d4 4bbd 74b8 a63d 6067 263c a09c 923c
00000390: e718 af3c 9c8c 11be a623 c7bd d25d d1bd
000003a0: e82b f7bc 82a5 f5bd e093 b0bb f4a0 6abd
000003b0: 4e5e e03b 0a1b 0dbe e433 c7bd f637 603d
000003c0: 9e8b b63d b39c 95bc 4ece b6bd 8683 e0bd
000003d0: ea24 633d c06b 1f3b 7837 59bd d7a9 38bd
000003e0: dc19 7fbd 600a 123d b732 e5bd 4968 22bd
000003f0: 7541 4b3d 0067 e2bc 8057 0e3d 5419 013d

bias f4 [64]
0.11714305 0.40501484 -0.02210266 -0.05683371 -0.018211825 -0.058163032 0.08320207 0.072752096
0.036228515 0.0251367 -0.49229658 -0.431093 -0.18913229 -0.15960465 -0.059933852 0.18429816
-0.14295726 -0.5235321 -0.004364513 0.36757177 0.2741095 0.057311602 -0.065599926 -0.11801236
-0.4204076 0.022328414 0.27558592 -0.09112215 -0.09652996 -0.13425991 0.13590099 -0.11173691
-0.004304918 -0.037368063 -0.14015268 -0.15243132 0.34769532 0.0068367873 0.063488 -0.1402793
0.11566819 -0.2337391 0.042265505 0.19258542 -0.26012912 0.13662335 -0.21230096 -0.07098883
-0.050723623 0.06975414 -0.2568018 0.0141554875 -0.012111815 -0.02303701 -0.08001103 0.12681368
0.2502873 -0.08563709 -0.03299747 0.27308786 -0.16852795 -0.0881611 0.048827793 -0.06008435
00000000: b2e8 ef3d 1b5e cf3e a310 b5bc 77ca 68bd
00000010: f730 95bc 5c3c 6ebd d965 aa3d 0dff 943d
00000020: 5a64 143d 7beb cd3c 4c0e fcbe 39b8 dcbe
00000030: e5ab 41be 676f 23be 337d 75bd a8b8 3c3e
00000040: 6363 12be 3306 06bf 3004 8fbb 5e32 bc3e
00000050: 1558 8c3e 92bf 6a3d 4159 86bd 77b0 f1bd
00000060: aa3f d7be 14ea b63c 9919 8d3e 409e babd
00000070: 80b1 c5bd 6e7b 09be a129 0b3e 52d6 e4bd
00000080: 4510 8dbb 410f 19bd 2f84 0fbe f516 1cbe
00000090: 1f05 b23e 2107 e03b ff05 823d 60a5 0fbe
000000a0: 72e3 ec3d 4d59 6fbe 981e 2d3d 1d35 453e
000000b0: a52f 85be fee6 0b3e 6c65 59be 9762 91bd
000000c0: 93c3 4fbd 42db 8e3d 877b 83be 6bec 673c
000000d0: a270 46bc 1db8 bcbc d3dc a3bd 72db 013e
000000e0: a825 803e 8062 afbd 5b28 07bd 2cd2 8b3e
000000f0: 9792 2cbe cf8d b4bd a7ff 473d 021b 76bd
