ddpg_her/models/slide_trained_agent.pt (torch, 92479 bytes, 15 tensors)

weight f4 [64, 28]
-0.51291007 0.9418993 -0.14159536 -0.2022688 0.8917567 0.37027967 1.6673007 1.49958
-0.43554324 2.0760493 -3.4511895 1.5196561 0.057001363 0.38075536 -3.6222491 0.53758
-0.19886269 0.30215317 0.027614318 0.11404466 -0.85826105 0.0008924492 -1.8637935 0.9208288
0.3816795 0.005835109 1.0271727 0.1912486 -0.84800595 -0.57406265 -0.18919681 -0.41623303
-1.1902268 -0.6719445 1.0413702 -4.129349 -2.7489634 -2.3949125 3.245568 0.33877853
-0.8158921 0.5068078 -4.312077 -3.234709 -0.38657016 0.13631563 -0.16602543 -0.16104323
-5.6052017 -5.7190228 -1.5713184 0.5231051 -1.1217922 1.6326163 2.0793066 -0.15748066
0.20551512 -1.2405058 -0.77622914 0.11880411 -0.3621262 0.23844366 1.470196 2.422347
3.2906377 2.287225 -3.7782547 -0.47568893 0.16300921 0.71009207 3.248658 -1.3204591
0.9567554 -0.6715861 -0.9696035 1.4350361 0.9683198 -1.2008612 -0.100784406 0.05857847
0.6558679 -1.3564999 -0.34554484 -0.55229425 -0.087960005 -0.31986958 -0.5671537 -0.25529194
-0.12507826 -0.290763 0.0671565 0.14115436 0.92789423 0.11184163 -0.39416268 -0.056731414
-0.120857455 -0.019801669 0.13550453 0.12320752 0.5540693 0.035595056 -0.036941767 -0.4070142
-0.40346855 -0.33611184 -0.1293866 -0.102124035 -0.08566376 -0.016670054 -0.23998983 -0.029746264
-0.98201495 -0.38022882 -0.70274174 -0.7024247 0.22529636 -1.2191262 2.3027084 2.6970582
0.3145764 1.5283118 -2.9291112 0.5481602 -1.0878595 -0.14848195 6.5531635 4.002917
-1.5998067 0.08348829 -0.07630887 -1.9197752 2.7899313 3.1214492 0.38782874 -2.4140584
0.448514 -0.8523679 -0.7273546 -1.8471134 0.7167737 0.31542405 0.6185872 0.10521959
0.16828072 0.28410313 -3.3255634 2.032621 -0.9555227 0.65409577 -0.3524989 -0.010730606
0.69581974 0.43648025 0.16354176 -0.2028565 1.4965754 -0.15370977 0.33626184 -0.2103167
-1.375081 -0.378829 -1.4737211 1.196674 -0.8997319 -1.2571623 -0.03337993 -4.878708
-0.3406127 1.1201587 0.2615328 -0.09521865 1.673601 -0.15164486 -1.235325 5.107743
-2.343243 -2.4389 3.6599326 -0.6476194 -0.78481793 -0.04824713 2.7620811 10.363151
-0.7118558 0.10946157 0.3574757 0.10764817 5.667116 8.153955 0.6363934 -4.3100533
0.9904945 -0.08034787 -0.72866607 -0.6923465 0.5675466 -0.023459116 -0.21448798 1.0314933
-0.63311917 0.3836575 1.951726 -5.6749306 4.830745 1.0989766 -2.1420283 -0.3725038
-0.0374799 -0.24986926 3.0124056 -5.0967674 0.3818759 0.3320895 -0.42296165 1.4738481
4.341723 -3.60032 -0.98260283 4.162026 0.61454505 1.6323105 0.08968563 -0.34240913
-0.29281044 -0.015502824 -0.23472655 -0.116147764 -0.09752337 -0.124617174 0.059458368 0.12814349
0.06653417 0.16927002 0.115602784 -0.0803484 0.004733125 -0.013454003 -0.08621523 0.0810351
0.057420466 0.022918664 -0.09107968 0.10533538 0.0931939 -0.16616914 0.1103065 -0.18376678
-0.023983844 -0.08550599 -0.12930606 -0.011676005 -0.20330921 -0.6382532 0.010760593 -0.7061809
00000000: 134e 03bf 5020 713f 60fe 10be 8d1f 4fbe
00000010: 2b4a 643f 4c95 bd3e 1c6a d53f 3df2 bf3f
00000020: 86ff debe fedd 0440 4ae0 5cc0 1784 c23f
00000030: 437a 693d 5ef2 c23e eed2 67c0 d89e 093f
00000040: a9a2 4bbe d2b3 9a3e 6c37 e23c 3f90 e93d
00000050: ffb6 5bbf 41f3 693a c990 eebf 70bb 6b3f
00000060: 7f6b c33e 7134 bf3b 657a 833f acd6 433e
00000070: eb16 59bf c5f5 12bf cfbc 41be 7f1c d5be
00000080: 5a59 98bf 8e04 2cbf 9e4b 853f a123 84c0
00000090: 04ef 2fc0 3f46 19c0 63b7 4f40 6174 ad3e
000000a0: 4ede 50bf 28be 013f 89fc 89c0 7905 4fc0
000000b0: 86ec c5be 5396 0b3e 9202 2abe 84e8 24be
000000c0: d05d b3c0 3c02 b7c0 f620 c9bf 37ea 053f
000000d0: e396 8fbf 92f9 d03f 5c13 0540 9c42 21be
000000e0: 8e72 523e e5c8 9ebf f4b6 46bf 924f f33d
000000f0: 9b68 b9be 932a 743e 622f bc3f bc07 1b40
00000100: cf99 5240 e561 1240 edce 71c0 808d f3be
00000110: e3eb 263e 98c8 353f 03ea 4f40 ce04 a9bf
00000120: eced 743f 11ed 2bbf ef37 78bf 43af b73f
00000130: cee3 773f d2b5 99bf 0e68 cebd faef 6f3d
00000140: f5e6 273f caa1 adbf 41eb b0be 2863 0dbf
00000150: 6024 b4bd f2c5 a3be fc30 11bf a0b5 82be
00000160: 8414 00be e3de 94be 5989 893d c58a 103e
00000170: 7a8a 6d3f 390d e53d b1cf c9be 335f 68bd
00000180: 1d84 f7bd 1c37 a2bc b3c1 0a3e 3954 fc3d
00000190: 7cd7 0d3f 1fcc 113d 4050 17bd 2a64 d0be
000001a0: 6e93 cebe da16 acbe ec7d 04be 6826 d1bd
000001b0: 7b70 afbd a38f 88bc e5bf 75be 70ae f3bc
000001c0: 5565 7bbf 5aad c2be e2e6 33bf 1bd2 33bf
000001d0: 17b4 663e 540c 9cbf 935f 1340 9a9c 2c40
000001e0: 2810 a13e b99f c33f 8f76 3bc0 3a54 0c3f
000001f0: fb3e 8bbf a70b 18be 84b3 d140 e517 8040
00000200: 77c6 ccbf e9fb aa3d d347 9cbd 32bb f5bf
00000210: 3c8e 3240 d3c5 4740 7d91 c63e ef7f 1ac0
00000220: a1a3 e53e c834 5abf e933 3abf 366e ecbf
00000230: 7b7e 373f 437f a13e bb5b 1e3f 5e7d d73d
00000240: c851 2c3e f775 913e 08d6 54c0 7616 0240
00000250: 239d 74bf d272 273f bc7a b4be 6ccf 2fbc
00000260: 3e21 323f 577a df3e 7e77 273e 9db9 4fbe
00000270: c88f bf3f 1866 1dbe 832a ac3e 435d 57be
00000280: a702 b0bf e0f5 c1be e5a2 bcbf 9d2c 993f
00000290: d454 66bf b2ea a0bf 65b9 08bd 601e 9cc0
000002a0: ca64 aebe 5c61 8f3f a1e7 853e ff01 c3bd
000002b0: 8f38 d63f ca48 1bbe 211f 9ebf a172 a340
000002c0: b1f7 15c0 f016 1cc0 563c 6a40 63ca 25bf
000002d0: d4e9 48bf c89e 45bd f0c5 3040 77cf 2541
000002e0: 2f3c 36bf 632d e03d 0e07 b73e a576 dc3d
000002f0: 0459 b540 9a76 0241 aeea 223f f5eb 89c0
00000300: 0c91 7d3f 6d8d a4bd dc89 3abf 9f3d 31bf
00000310: bc4a 113f 552d c0bc bda2 5bbe f907 843f
00000320: 1914 22bf c16e c43e 28d2 f93f 0899 b5c0
00000330: 7795 9a40 44ab 8c3f fe16 09c0 d1b8 bebe
00000340: 8684 19bd badd 7fbe 41cb 4040 b818 a3c0
00000350: 3d85 c33e a307 aa3e 6e8e d8be 0ea7 bc3f
00000360: 65ef 8a40 a56b 66c0 dc8b 7bbf 512f 8540
00000370: d352 1d3f 8def d03f 19ad b73d 4050 afbe
00000380: 40eb 95be 8fff 7dbc 285c 70be e1de edbd
00000390: 55ba c7bd 4a37 ffbd 9e8a 733d 0c38 033e
000003a0: 1143 883d 1f55 2d3e 27c1 ec3d b48d a4bd
000003b0: 5518 9b3b 2e6e 5cbc 9c91 b0bd bbf5 a53d
000003c0: b931 6b3d ecbf bb3c fc87 babd 13ba d73d
000003d0: 72dc be3d 3e28 2abe 60e8 e13d 5c2d 3cbe
000003e0: c479 c4bc c41d afbd cf68 04be b74c 3fbc
000003f0: 4a30 50be 9064 23bf 334d 303c 45c8 34bf

bias f4 [64]
0.8384922 -0.5297683 0.068358175 -0.34007573 -1.1197069 1.1325952 -0.14528447 -0.006201105
-0.10894849 0.28992918 0.6586434 -0.6340121 0.93101335 0.5463697 -0.05333995 -0.686569
0.6645767 -0.16800173 0.23207678 1.5719638 -0.14927723 1.0879511 0.6151354 -0.63663757
-0.59062845 0.5467086 0.5972411 0.32053986 -0.47734052 0.8702346 -1.0362809 0.02841939
0.05018656 -0.21707103 0.1634387 1.0104803 -1.1946336 0.43145606 -0.51554894 0.555355
0.43691456 0.2631127 -0.11557553 -0.25660095 0.621398 0.81087434 0.96286786 -1.0021914
-0.4645962 0.40490553 -0.26632816 -0.49406168 -0.13041505 -0.36147615 -0.15071286 0.14274794
0.91188425 0.019918269 0.2533609 -0.17995079 -0.85940105 -0.3394383 -0.119584754 0.46846083
00000000: 6da7 563f e59e 07bf 5fff 8b3d 681e aebe
00000010: 8e52 8fbf e1f8 903f 74c5 14be a432 cbbb
00000020: 6320 dfbd 9971 943e db9c 283f 9e4e 22bf
00000030: e456 6e3f e2de 0b3f fe7a 5abd fcc2 2fbf
00000040: b321 2a3f a508 2cbe 89a5 6d3e 1c36 c93f
00000050: 21dc 18be fb41 8b3f 8379 1d3f aefa 22bf
00000060: 6d33 17bf 18f5 0b3f cbe4 183f cd1d a43e
00000070: fa65 f4be b2c7 5e3f daa4 84bf c8cf e83c
00000080: 6c90 4d3d de47 5ebe 795c 273e 6b57 813f
00000090: c1e9 98bf cfe7 dc3e 04fb 03bf bf2b 0e3f
000000a0: 44b3 df3e b5b6 863e ddb2 ecbd 3361 83be
000000b0: f013 1f3f 7695 4f3f 827e 763f cf47 80bf
000000c0: 8edf edbe c74f cf3e 2a5c 88be a7f5 fcbe
000000d0: 868b 05be 6713 b9be 7954 1abe 842c 123e
000000e0: 3f71 693f a32b a33c 85b8 813e 0545 38be
000000f0: b501 5cbf dbca adbe dae8 f4bd 19da ef3e

weight f4 [64, 64]
-0.32065254 0.64586604 0.03599566 0.081373006 -1.1538317 1.4243917 -0.9897264 0.09327627
-0.05947176 -0.91804 0.5565716 0.16278805 0.39795938 1.4062505 0.34635106 -0.41281363
-0.3960105 -0.09358476 1.5927056 2.3570874 -0.06446901 2.7462535 0.91728836 -2.6341608
-0.20418026 1.2198927 0.18129756 -2.1980245 1.3220471 -0.18222012 0.8231278 -1.545867
-1.9178327 -0.14540504 -2.8437123 1.1954951 -0.06445564 -0.81209475 0.8767383 0.18156692
1.3780423 -0.003967727 0.5264496 0.10384204 0.5760038 0.25839898 1.1369997 -1.9458811
0.15122436 1.1433111 0.91826504 -0.20254909 0.9728092 -0.89042276 0.042119797 -3.1104963
0.49286255 -0.30643526 1.4710963 0.09967344 0.37533545 -0.016049635 -1.5048777 0.7250198
0.20644557 -1.4943358 0.6254224 0.3739368 -1.7588245 1.8265084 -0.1836059 -0.9102449
0.03983004 0.08991838 0.7499484 0.19316182 1.7179825 1.6357042 -0.78790474 -0.63546515
-1.1937954 -1.5598061 3.8241735 0.5459688 0.020641217 0.86475533 -0.50235105 -3.0054338
1.6517619 0.076505 -0.070583835 -1.1553233 0.33109304 0.33121255 -0.46096212 -1.3794838
-0.16409793 0.053047113 0.21822545 0.51552993 -0.7164042 -0.27335453 0.4297742 1.6158103
0.43633792 -0.3018255 -0.7155849 0.07153016 0.894208 0.6512173 1.7640761 -1.8780072
-1.3699946 -0.37666056 0.68286973 0.5582363 -0.39773124 -0.43792188 -0.055962678 1.7072874
-1.0493872 0.8069186 2.495581 -0.05069424 -1.9820994 0.18092993 -1.0383873 1.9571398
0.041937917 -0.17349222 -0.14953233 0.103318624 0.004495333 0.17565264 -0.5106337 -0.14810356
0.08002116 -0.10278564 -0.06646356 0.22065137 -0.038205996 -0.22607568 -0.20862648 -0.14447407
0.02097981 -0.26976836 -0.24297883 0.06503776 0.07787624 -0.14364427 0.020151205 -0.016044574
-0.10321022 -0.1021236 -0.299138 0.030437382 -0.08978906 0.040133312 0.052480448 0.096477546
0.08706833 0.0794892 -0.057720494 -0.24480206 -0.43870196 -0.14643356 0.0032442808 -0.056680724
0.027848125 -0.00076882343 -0.047994956 -0.05420102 0.13769825 0.0513462 -0.2657535 0.109595664
-0.3639081 0.019748606 -0.2428282 -0.23374926 -0.10292795 -0.09018935 0.2053869 -0.08150422
-0.024127616 -0.0025214553 -0.1693667 0.12322002 -0.24151431 0.02234929 0.12728302 -0.08225009
1.2039766 0.33945897 0.039139286 0.15930042 0.56131124 3.21884 0.102519065 -0.473803
0.14184965 0.76008534 2.3713784 -0.52706826 1.5671403 1.6655128 1.7712389 0.4954135
1.3679402 0.41539383 -1.5858673 1.3265313 -0.08771809 4.6710596 3.254281 -0.43068802
-0.7180221 1.4577092 1.3874571 0.8172447 1.5701735 1.7119645 0.899297 0.26294872
1.5212827 0.054744948 -2.2189317 1.8749291 -0.01709152 0.16964294 1.5128181 0.5315398
0.42389235 0.5239537 1.4409616 -0.10768396 1.1576962 1.9995697 3.7082014 1.4493393
0.912033 -0.6976031 -2.0144846 -0.11514273 1.7155323 0.022529073 -0.012411956 0.5453394
-0.75802606 1.0389389 0.5375036 -0.054077696 -0.60649693 0.16642918 1.1506869 -0.9777944
00000000: 922c a4be 7a57 253f 2f70 133d e4a6 a63d
00000010: c2b0 93bf 7852 b63f b65e 7dbf a107 bf3d
00000020: a998 73bd ab04 6bbf 7a7b 0e3f e9b1 263e
00000030: 55c1 cb3e 0400 b43f ed54 b13e 4f5c d3be
00000040: e3c1 cabe 5ea9 bfbd c7dd cb3f 85da 1640
00000050: 5408 84bd 9ec2 2f40 69d3 6a3f 1796 28c0
00000060: a114 51be 7225 9c3f 11a6 393e 6fac 0cc0
00000070: d738 a93f e997 3abe 81b8 523f f8de c5bf
00000080: 8b7b f5bf 0fe5 14be 62ff 35c0 fc05 993f
00000090: 5201 84bd 71e5 4fbf ec71 603f aeec 393e
000000a0: b163 b03f b503 82bb 67c5 063f 23ab d43d
000000b0: fc74 133f df4c 843e 3589 913f a212 f9bf
000000c0: 8fda 1a3e 0558 923f 6b13 6b3f 0769 4fbe
000000d0: 060a 793f bff2 63bf cf85 2c3d 5f12 47c0
000000e0: 7b58 fc3e 15e5 9cbe e24c bc3f 9721 cc3d
000000f0: f82b c03e 867a 83bc d59f c0bf e69a 393f
00000100: 7866 533e 6546 bfbf af1b 203f a574 bf3e
00000110: 2921 e1bf 07cb e93f 2f03 3cbe cf05 69bf
00000120: d324 233d 2127 b83d 9efc 3f3f 36cc 453e
00000130: dae6 db3f c15e d13f 20b4 49bf d8ad 22bf
00000140: 4ace 98bf baa7 c7bf 42bf 7440 9cc4 0b3f
00000150: c517 a93c 9b60 5d3f 149a 00bf 0759 40c0
00000160: ef6c d33f a7ae 9c3d 428e 90bd a2e1 93bf
00000170: 0785 a93e b194 a93e 3a03 ecbe ed92 b0bf
00000180: 4a09 28be ee47 593d 7e76 5f3e c5f9 033f
00000190: 4466 37bf 20f5 8bbe 5d0b dc3e dfd2 ce3f
000001a0: af67 df3e df88 9abe 9230 37bf 687e 923d
000001b0: d1ea 643f 2db6 263f 3fcd e13f 8a62 f0bf
000001c0: fc5b afbf a7d9 c0be 8dd0 2e3f 93e8 0e3f
000001d0: 6ea3 cbbe 4c37 e0be 1f39 65bd 6588 da3f
000001e0: 5252 86bf 3892 4e3f 99b7 1f40 c3a4 4fbd
000001f0: 6fb5 fdbf b245 393e e0e9 84bf 8f83 fa3f
00000200: 18c7 2b3d f2a7 31be 011f 19be b798 d33d
00000210: 964d 933b 49de 333e e4b8 02bf 76a8 17be
00000220: 22e2 a33d 4781 d2bd 0c1e 88bd 6ff2 613e
00000230: e47d 1cbd 6280 67be 2ea2 55be 03f1 13be
00000240: dadd ab3c 141f 8abe 71cf 78be 8432 853d
00000250: 947d 9f3d 7c17 13be 2414 a53c e96f 83bc
00000260: e15f d3bd 2e26 d1bd 9e28 99be d157 f93c
00000270: 54e3 b7bd d462 243d bdf5 563d 0596 c53d
00000280: e150 b23d 3ccb a23d 536c 6cbd 64ad 7abe
00000290: 8b9d e0be aef2 15be 009e 543b 0c2a 68bd
000002a0: c021 e43c de8a 49ba 5c96 44bd e401 5ebd
000002b0: c500 0d3e 6550 523d d810 88be b173 e03d
000002c0: 2a52 babe d4c7 a13c f5a7 78be f75b 6fbe
000002d0: e4cb d2bd 32b5 b8bd f250 523e afeb a6bd
000002e0: 47a7 c5bc 003f 25bb 776e 2dbe c75a fc3d
000002f0: 874f 77be dc15 b73c 7b56 023e bc72 a8bd
00000300: e81b 9a3f 91cd ad3e 8450 203d a61f 233e
00000310: 18b2 0f3f 7901 4e40 84f5 d13d 4f96 f2be
00000320: 0941 113e f494 423f aac4 1740 f2ed 06bf
00000330: 0e98 c83f 862f d53f f5b7 e23f d7a6 fd3e
00000340: aa18 af3f 80ae d43e b3fd cabf c7cb a93f
00000350: 8ba5 b3bd 5279 9540 2446 5040 2483 dcbe
00000360: 4cd0 37bf 3796 ba3f 3298 b13f f336 513f
00000370: 72fb c83f a721 db3f 5438 663f 37a1 863e
00000380: 64b9 c23f 3d3c 603d fa02 0ec0 adfd ef3f
00000390: 8403 8cbc e1b6 2d3e 06a4 c13f fe12 083f
000003a0: 6b08 d93e d421 063f 6e71 b83f 6889 dcbd
000003b0: 642f 943f e6f1 ff3f 2c53 6d40 f383 b93f
000003c0: ff7a 693f 1e96 32bf 51ed 00c0 f4cf ebbd
000003d0: 9096 db3f e48e b83c 845b 4bbc 5d9b 0b3f
000003e0: ff0d 42bf f3fb 843f d699 093f 9380 5dbd
000003f0: 6243 1bbf 696c 2a3e b549 933f bc50 7abf

bias f4 [64]
1.6126622 1.507658 -0.27532157 0.026223782 1.0868802 -0.34284335 -0.74395627 -0.8010956
-0.8139536 -0.33845717 -0.05932117 -1.890918 1.0365154 0.5181865 1.4142283 -0.02860908
0.56748694 -0.5546803 -0.3836358 0.13667415 0.7882086 0.9071112 0.058086626 -0.16229662
2.1716573 -0.387106 0.2938018 0.1326336 -0.4112444 0.695681 0.090877555 0.7993212
-0.5189765 1.4889992 -0.1896884 -0.14459443 -0.652071 -0.0019980583 0.7181992 -0.4699135
1.2951955 0.39511323 -0.052483086 -0.20935439 -0.14260021 0.27462733 0.12715822 0.3606287
1.407623 -0.16646694 -0.37172353 0.13398762 -0.7181359 -0.7036577 2.7635639 -0.17503358
0.6396849 -0.27595365 1.5457572 1.4747155 0.514077 -0.014238665 -0.16622671 1.0337133
00000000: b76b ce3f f0fa c03f f3f6 8cbe 42d3 d63c
00000010: e41e 8b3f 2a89 afbe eb73 3ebf 9a14 4dbf
00000020: 435f 50bf 424a adbe c1fa 72bd 9a09 f2bf
00000030: 89ac 843f dfa7 043f 6f05 b53f 975d eabc
00000040: d346 113f 87ff 0dbf e96b c4be 4ff4 0b3e
00000050: 0ac8 493f 7138 683f 3eec 6d3d 1631 26be
00000060: 6ffc 0a40 c232 c6be 316d 963e 1ad1 073e
00000070: a08e d2be 2618 323f 031e ba3d 50a0 4c3f
00000080: a5db 04bf 8797 be3f ad3d 42be 9010 14be
00000090: 20ee 26bf dbf1 02bb e7db 373f 8198 f0be
000000a0: f7c8 a53f 484c ca3e 81f8 56bd ff60 56be
000000b0: ca05 12be f49b 8c3e c435 023e 53a4 b83e
000000c0: fe2c b43f 4f76 2abe 8c52 bebe 0d34 093e
000000d0: c1d7 37bf e922 34bf 3bde 3040 013c 33be
000000e0: 64c2 233f cc49 8dbe 5fdb c53f 7ac3 bc3f
000000f0: 8d9a 033f 4a49 69bc 5637 2abe b850 843f

weight f4 [64, 64]
-0.78046846 -1.7988905 0.04682226 -1.0697104 1.4952506 0.1617375 0.6560854 -2.298901
-0.2930488 0.33509734 0.090721294 0.7769518 1.2842846 -2.1164129 0.67308336 0.0158956
-0.97146773 -0.7883759 -0.062057056 -0.25994086 1.4732052 -1.062695 -0.08282125 0.114415266
-1.8594301 0.8942935 -0.14864977 2.0928824 -1.2173998 -0.6509588 -1.6459248 2.5244718
-0.27776492 -1.3102554 -0.08943297 -2.9723265 0.13245088 -0.24515322 -3.0363314 -3.705246
0.9721657 2.0277233 0.049265735 -1.1759579 -0.081284136 -0.2407433 -1.1289378 -1.168958
-1.9875948 -0.28365248 -1.012292 -0.7967656 -1.6199167 2.2918975 -0.9552779 -0.29691613
-1.1603394 -2.8815286 -2.2910855 -0.41096228 -1.1506004 0.060023528 1.8050027 -0.02680998
0.29780892 1.6096449 0.10805068 -0.45229322 0.698997 -0.6970892 -0.42945328 1.9363457
-1.3771236 -1.4908837 0.20643272 -0.049451202 -0.18965179 1.0226301 -0.23316139 0.0124929305
-0.11341442 2.514693 0.14762376 2.0106835 -3.0353656 1.3994472 -1.2542083 0.25641367
2.208368 -2.5312562 -1.0109581 -1.413716 0.035487898 0.08897903 -2.7455568 -1.4331367
-0.6215887 1.1819658 -0.06533165 -0.1124277 -1.4551432 -1.3757081 -0.33618248 -0.72377217
-0.4715655 -1.5563605 -0.00074587454 -1.8584962 0.06982377 -1.1728193 0.062295 -0.3148121
0.6476066 0.11987273 3.0775583 0.0666881 -4.021485 -1.2202142 -0.71908975 -2.133358
0.56472486 0.49360615 0.693839 0.479249 1.9062594 -0.022776775 -0.5330338 1.4297801
-0.8851793 -1.4174349 0.3025491 -1.2144244 -0.2072857 -0.19839557 0.10973879 -0.4597957
-0.20991333 -0.68651366 -1.9380502 3.23466 1.1591957 -2.376211 -0.0006794485 0.030844692
-2.9762917 -0.8450621 -2.8464873 -2.174228 0.10749577 -2.4142404 -0.35793927 -0.10332866
-0.024738405 0.17183888 0.63821864 -0.21686761 -1.0023535 1.284054 -1.6411023 -0.7930792
-0.3675888 0.6307485 -0.10150061 -0.2883673 0.4986535 0.60954237 1.0202665 2.106664
-0.92483926 -0.6552285 0.07151168 -0.79117763 -0.024146773 -0.23676339 0.1534664 0.83925766
-1.1111495 -0.22811186 -3.2928014 -1.3123903 -0.03960019 -3.19771 -0.63266796 1.1463801
-1.8376191 0.3684821 0.886918 -0.20622282 -0.6963523 0.18365407 0.7323057 -2.06706
-0.63761604 0.05656971 -0.05614485 -0.025178341 1.1148572 0.7155371 1.65187 -0.5624231
2.1426742 0.33358872 0.7180235 2.912838 0.6810483 1.1045302 -0.17841992 0.016669136
0.21050924 0.33499023 -0.20220394 0.23555098 1.8786649 -3.1856925 -0.6337754 0.03217133
-2.9336154 0.26788372 2.2402365 1.4022512 -1.102685 -1.4090549 -0.05184697 0.84028816
-1.1361288 -0.8017834 0.11999471 -0.20878153 0.37589133 -1.5943081 0.14768654 -1.6532391
0.15364505 1.8921528 0.07682729 0.14746943 0.004141466 -1.6675268 2.9285433 1.199776
-1.3934016 -0.11970663 -0.30053604 0.63729817 0.60922277 2.368747 -0.8023605 3.171537
0.47508428 -1.9714558 0.303465 1.2113276 -0.14358799 0.030962992 2.031703 0.18464158
00000000: c8cc 47bf 0b42 e6bf b3c8 3f3d 45ec 88bf
00000010: 5f64 bf3f 849e 253e 36f5 273f 3221 13c0
00000020: 7e0a 96be e191 ab3e 16cc b93d 50e6 463f
00000030: 7063 a43f 4f73 07c0 314f 2c3f 7d37 823c
00000040: 1cb2 78bf 01d3 49bf 8a2f 7ebd f816 85be
00000050: fd91 bc3f 6406 88bf 309e a9bd 8d52 ea3d
00000060: ce01 eebf 6bf0 643f a537 18be c9f1 0540
00000070: c2d3 9bbf 3ca5 26bf aaad d2bf f290 2140
00000080: 3437 8ebe 73b6 a7bf a228 b7bd 993a 3ec0
00000090: 34a1 073e 7209 7bbe 4153 42c0 c022 6dc0
000000a0: dadf 783f 38c6 0140 deca 493d ca85 96bf
000000b0: 4c78 a6bd 6985 76be 0981 90bf 6aa0 95bf
000000c0: 8269 febf e63a 91be c992 81bf d5f8 4bbf
000000d0: 6e59 cfbf 73ae 1240 188d 74bf 6405 98be
000000e0: 0086 94bf f76a 38c0 25a1 12c0 a669 d2be
000000f0: e046 93bf 3bdb 753d 540a e73f 9aa0 dbbc
00000100: 697a 983e d808 ce3f ad49 dd3d fa92 e7be
00000110: 78f1 323f 7074 32bf 4de1 dbbe 2dda f73f
00000120: 9645 b0bf 47d5 bebf 1963 533e 588d 4abd
00000130: 1434 42be 8be5 823f dcc1 6ebe 26af 4c3c
00000140: d245 e8bd bbf0 2040 af2a 173e 0aaf 0040
00000150: 6e43 42c0 1621 b33f e689 a0bf a748 833e
00000160: e755 0d40 1a00 22c0 1367 81bf a5f4 b4bf
00000170: c25b 113d a33a b63d 34b7 2fc0 0671 b7bf
00000180: 7020 1fbf a84a 973f 9acc 85bd 7e40 e6bd
00000190: 2242 babf 3417 b0bf 1c20 acbe 2249 39bf
000001a0: 0971 f1be d236 c7bf cb86 43ba 34e3 edbf
000001b0: c4ff 8e3d f11e 96bf 0b29 7f3d 0d2f a1be
000001c0: 8cc9 253f d57f f53d b7f6 4440 c593 883d
000001d0: 01b0 80c0 fb2f 9cbf 4416 38bf f088 08c0
000001e0: cf91 103f f2b9 fc3e 6f9f 313f 2060 f53e
000001f0: 4f00 f43f 5c96 babc e774 08bf 0903 b73f
00000200: 1c9b 62bf 826e b5bf b7e7 9a3e 4272 9bbf
00000210: b442 54be 3528 4bbe bbbe e03d 586a ebbe
00000220: 85f3 56be 5cbf 2fbf 0712 f8bf ab04 4f40
00000230: 8660 943f d713 18c0 041d 32ba 02ae fc3c
00000240: 907b 3ec0 fd55 58bf d92c 36c0 8d26 0bc0
00000250: be26 dc3d ea82 1ac0 d143 b7be fa9d d3bd
00000260: 32a8 cabc 88f6 2f3e 4c62 233f 8b12 5ebe
00000270: 1f4d 80bf e25b a43f a40f d2bf 3d07 4bbf
00000280: 9934 bcbe bc78 213f 8ddf cfbd e1a4 93be
00000290: 834f ff3e f80a 1c3f 1898 823f 95d3 0640
000002a0: 44c2 6cbf 0ebd 27bf b774 923d 9e8a 4abf
000002b0: 74cf c5bc 1a72 72be 4c26 1d3e 97d9 563f
000002c0: 263a 8ebf 2896 69be 42bd 52c0 68fc a7bf
000002d0: cf33 22bd 48a7 4cc0 87f6 21bf 95bc 923f
000002e0: 1a37 ebbf b0a9 bc3e 0f0d 633f 132c 53be
000002f0: 2544 32bf d00f 3c3e 6378 3b3f b64a 04c0
00000300: ce3a 23bf a4b5 673d 24f8 65bd cf42 cebc
00000310: a4b3 8e3f 702d 373f 7a70 d33f f6fa 0fbf
00000320: 9321 0940 24cc aa3e 63d0 373f f06b 3a40
00000330: 2e59 2e3f 3f61 8d3f b6b3 36be b68d 883c
00000340: bc8f 573e d783 ab3e 8d0e 4fbe 4734 713e
00000350: 1778 f03f 63e2 4bc0 1b3f 22bf 16c6 033d
00000360: 5bc0 3bc0 0e28 893e 0960 0f40 f87c b33f
00000370: c824 8dbf e95b b4bf 7d5d 54bd 201d 573f
00000380: ab6c 91bf ad41 4dbf c9bf f53d d3ca 55be
00000390: d474 c03e 4a12 ccbf 243b 173e 579d d3bf
000003a0: 2155 1d3e 1032 f23f a057 9d3d 3a02 173e
000003b0: 23b5 873b 8571 d5bf 416d 3b40 4392 993f
000003c0: fc5a b2bf c028 f5bd dcdf 99be f925 233f
000003d0: 06f6 1b3f 8d99 1740 7f67 4dbf 76fa 4a40
000003e0: 3f3e f33e aa58 fcbf c45f 9b3e c80c 9b3f
000003f0: bb08 13be 1aa6 fd3c 6c07 0240 af12 3d3e

bias f4 [64]
-2.041871 -0.15113258 -0.76186234 -1.3823768 -0.09581447 1.5046656 1.7792828 -0.20391195
-0.38771632 1.045966 -1.1035236 -0.14886865 -1.3203933 0.72330457 0.32860735 -0.8285238
0.5797996 -1.2722206 0.14035481 -0.7112652 -0.51489717 -0.18769275 0.773248 0.4138602
-2.7003107 2.17559 -0.31036884 0.09027465 0.7310472 -1.4697267 0.035661533 -0.6803776
-1.0017749 -0.044292077 1.7706845 -0.26312932 -0.0405302 -0.049245615 -0.23478708 -0.37750432
1.5487697 1.397505 0.9911437 0.015915234 -0.14887887 0.93863726 0.48508662 -0.15582684
0.7314135 -0.88566345 1.2596551 0.49431497 1.6225297 -0.61036915 0.9868928 -0.5716759
-1.0822521 1.3738139 -0.22938557 -0.2464934 -0.22152299 0.96471864 0.778935 -0.5026565
00000000: 04ae 02c0 80c2 1abe 6909 43bf b9f1 b0bf
00000010: 603a c4bd e298 c03f 8abf e33f 4bce 50be
00000020: c182 c6be 37e2 853f 4340 8dbf 0671 18be
00000030: a602 a9bf 7d2a 393f 393f a83e 231a 54bf
00000040: bf6d 143f 20d8 a2bf 2cb9 0f3e 7a15 36bf
00000050: 4dd0 03bf 8732 40be 95f3 453f 7ce5 d33e
00000060: e4d1 2cc0 de3c 0b40 aae8 9ebe eae1 b83d
00000070: e925 3b3f 0120 bcbf d411 123d 3a2d 2ebf
00000080: 293a 80bf 9c6b 35bd caa5 e23f e3b8 86be
00000090: ff02 26bd c5b5 49bd 066c 70be 3f48 c1be
000000a0: 163e c63f 72e1 b23f 98bb 7d3f aa60 823c
000000b0: b473 18be 884a 703f 465d f83e 1291 1fbe
000000c0: ea3d 3b3f d7ba 62bf 613c a13f da16 fd3e
000000d0: 0eaf cf3f 2741 1cbf 02a5 7c3f 5a59 12bf
000000e0: 3d87 8abf 22d9 af3f 0de4 6abe c468 7cbe
000000f0: ecd6 62be cdf7 763f 4968 473f 19ae 00bf

weight f4 [4, 64]
-1.9241216 -1.0263174 -4.163291 -0.61133254 -3.2002633 -0.094391875 -2.0205574 0.030345455
1.0714487 -0.09866398 2.44092 0.59864897 -0.7310718 -3.1003354 -1.6960759 1.437453
1.613703 1.6247507 0.119475015 -2.3809032 -0.93073887 1.5058864 -3.893485 -2.9391847
1.2676923 -0.8649918 0.83523947 0.6958502 -2.099021 3.1474848 2.3892365 -0.9018816
-2.1449628 -0.40049493 -1.9468801 -0.61793315 0.05263689 0.3748668 0.025613092 -2.6370234
-0.5907477 1.8693115 3.243005 1.0249268 4.8051906 1.9138744 1.2738546 -0.023107788
-0.2819576 -0.5709371 -0.14895959 -3.6181777 0.16605155 1.4535906 -0.4841601 -1.0045418
-0.9150354 2.2710924 4.3296146 0.0050354362 2.038731 -0.6729322 -0.39041263 0.13071215
-2.8380725 -0.3837152 2.2342944 -3.9463997 1.1873064 0.8126123 -1.5219156 -0.019935872
-0.50506616 -2.908973 -0.556924 1.0861645 0.83746046 -0.5784858 0.79196084 -2.3825464
-4.175334 -0.92791927 3.5176153 -0.8611514 -4.2510176 0.7608148 -1.1227386 -0.3791603
0.97204673 -1.4308594 0.2616242 -2.3397138 2.1607466 2.3360121 0.68590546 0.10900177
-3.7156794 3.7773004 0.6538076 -1.6458864 2.6559772 2.7454674 0.124352105 0.5695687
1.3067335 0.08800503 -0.057690527 3.3213408 0.9118202 1.0231338 0.8244359 -0.0398654
-3.380968 -1.71626 2.057979 -2.4365678 0.62121636 3.0659015 -0.286141 -2.0829215
3.3647707 1.015796 1.0637189 0.026564164 3.366217 0.88565856 0.93972445 2.1269932
-3.1222227 0.5079836 -1.7761289 1.4322435 0.51371443 4.1345353 0.8497747 0.16368672
-1.2815769 -2.3745012 0.7423918 1.1213685 0.8967192 0.60565144 -3.7698934 0.40809295
0.29377908 -1.4719994 1.1657379 -0.8086054 1.6600989 -0.17135394 0.94553953 -0.17788357
1.0290821 2.5273232 0.78846645 -0.05916714 -0.22159919 1.2298108 0.43381482 0.98006105
1.1633538 -0.35042462 -1.348717 1.0552825 0.45256007 -1.9260974 0.011761241 0.8513439
-1.515 -1.115846 0.6137076 1.4730632 -0.7196841 -0.01114241 -0.29231882 -0.0030265402
0.19014058 -4.536668 0.3016624 3.3445127 -1.6838293 -3.0828686 -2.0619512 1.7775751
-1.790432 0.33377165 0.359738 -0.104840256 5.0260296 2.2607226 -1.2791446 2.8903913
-1.2620585 -1.4667556 -1.7112331 -1.8095348 -0.39247507 0.58720577 -2.4529233 -0.036170017
-2.2573605 -0.946126 -0.18438444 -1.126196 1.0100893 -1.5157483 -3.4119709 1.7337983
-0.050541308 0.27411687 -0.95226705 -0.9519318 -2.1078334 -1.3986977 0.21304055 -0.7446394
-1.3143128 1.4861786 0.7559104 -0.08832872 1.2522889 -1.1654989 -2.709616 0.40831557
-1.0738248 -1.932985 0.6434085 -0.87969327 -0.17967618 -1.036049 -0.110881045 1.112342
-0.4326785 -0.8787885 -0.8072416 1.0625516 -0.6732594 -1.1599165 -1.9617265 -0.05742412
-2.4642153 1.9157747 -1.5487165 0.107455276 -0.99809957 0.18025112 -1.5509114 0.74926597
-0.56678647 -2.2060115 -1.402684 0.016395764 -1.5256958 -0.78811634 0.39331022 -0.4361609
00000000: 9e49 f6bf 5e5e 83bf ae39 85c0 4a80 1cbf
00000010: 1dd1 4cc0 8750 c1bd d050 01c0 0897 f83c
00000020: 3b25 893f 5710 cabd 0938 1c40 0f41 193f
00000030: 8627 3bbf e56b 46c0 0419 d9bf 76fe b73f
00000040: d28d ce3f d5f7 cf3f 51af f43d b860 18c0
00000050: e744 6ebf e3c0 c03f dc2e 79c0 9a1b 3cc0
00000060: be43 a23f 1a70 5dbf 41d2 553f 3d23 323f
00000070: 5c56 06c0 6470 4940 40e9 1840 b6e1 66bf
00000080: 1247 09c0 ac0d cdbe 5e33 f9bf de30 1ebf
00000090: c899 573d 8bee bf3e 8cd2 d13c fec4 28c0
000000a0: 3e3b 17bf 9945 ef3f 658d 4f40 cd30 833f
000000b0: 1fc4 9940 d6f9 f43f ab0d a33f 8b4c bdbc
000000c0: bf5c 90be ef28 12bf dd88 18be 3990 67c0
000000d0: 6b09 2a3e 420f ba3f d5e3 f7be d394 80bf
000000e0: c33f 6abf 9459 1140 348c 8a40 4d00 a53b
000000f0: 927a 0240 4945 2cbf 2ae4 c7be 68d9 053e
00000100: fba2 35c0 5276 c4be aefe 0e40 d091 7cc0
00000110: a8f9 973f 5c07 503f 21ce c2bf 8e50 a3bc
00000120: 044c 01bf 9d2c 3ac0 9292 0ebf 7007 8b3f
00000130: cf63 563f a517 14bf f2bd 4a3f a47b 18c0
00000140: 569c 85c0 1e8c 6dbf 9c20 6140 6b74 5cbf
00000150: 5608 88c0 c2c4 423f e6b5 8fbf 4d21 c2be
00000160: 0ed8 783f 6726 b7bf 9bf3 853e dfbd 15c0
00000170: ac49 0a40 3981 1540 8097 2f3f 523c df3d
00000180: b1cd 6dc0 4abf 7140 ef5f 273f 68ac d2bf
00000190: 88fb 2940 bdb5 2f40 51ac fe3d 41cf 113f
000001a0: 0b43 a73f fb3b b43d e74c 6cbd d990 5440
000001b0: 0c6d 693f 0cf6 823f 3b0e 533f e749 23bd
000001c0: c861 58c0 68ae dbbf eeb5 0340 baf0 1bc0
000001d0: 0908 1f3f bb37 4440 1381 92be 964e 05c0
000001e0: 6758 5740 9a05 823f f127 883f 179d d93c
000001f0: 1970 5740 85ba 623f c891 703f a820 0840
00000200: 7fd2 47c0 370b 023f 3158 e3bf c153 b73f
00000210: ca82 033f 1d4e 8440 d68a 593f 7e9d 273e
00000220: b60a a4bf d4f7 17c0 640d 3e3f 0189 8f3f
00000230: 648f 653f f90b 1b3f ef45 71c0 8ff1 d03e
00000240: 366a 963e 7a6a bcbf e636 953f c300 4fbf
00000250: 1f7e d43f 6877 2fbe e10e 723f 1c27 36be
00000260: f6b8 833f aabf 2140 f0d8 493f 3e59 72bd
00000270: e6ea 62be 716a 9d3f fa1c de3e 48e5 7a3f
00000280: c7e8 943f db6a b3be c2a2 acbf 7f13 873f
00000290: f4b5 e73e 5c8a f6bf 38b2 403c adf1 593f
000002a0: 85eb c1bf 0bd4 8ebf f11b 1d3f 568d bc3f
000002b0: 383d 38bf a88e 36bc d0aa 95be eb58 46bb
000002c0: 36b4 423e 622c 91c0 7e73 9a3e 7f0c 5640
000002d0: b887 d7bf b84d 45c0 02f7 03c0 9587 e33f
000002e0: e02c e5bf 1ee4 aa3e 942f b83e 7db6 d6bd
000002f0: 3cd5 a040 aeaf 1040 03bb a3bf 2cfc 3840
00000300: 228b a1bf a6be bbbf b009 dbbf d69e e7bf
00000310: 7ef2 c8be 1e53 163f b2fc 1cc0 0327 14bd
00000320: 9878 10c0 5035 72bf 46cf 3cbe 3127 90bf
00000330: 9b4a 813f 0a04 c2bf bb5d 5ac0 1aed dd3f
00000340: 6704 4fbd 0c59 8c3e c6c7 73bf cdb1 73bf
00000350: bee6 06c0 8708 b3bf 4d27 5a3e b0a0 3ebf
00000360: 673b a8bf 1a3b be3f 5883 413f b0e5 b4bd
00000370: 014b a03f 112f 95bf 596a 2dc0 bd0e d13e
00000380: 1773 89bf 0d6c f7bf 6bb6 243f 9433 61bf
00000390: 08fd 37be 419d 84bf 9a15 e3bd 3961 8e3f
000003a0: 0988 ddbe 48f8 60bf 63a7 4ebf b101 883f
000003b0: ba5a 2cbf 2578 94bf db19 fbbf 8e35 6bbd
000003c0: b4b5 1dc0 1b38 f53f 583c c6bf 8311 dc3d
000003d0: 7483 7fbf c093 383e 4484 c6bf e5cf 3f3f
000003e0: eb18 11bf 4b2f 0dc0 268b b3bf 6950 863c
000003f0: 004a c3bf fec1 49bf f55f c93e 7b50 dfbe

bias f4 [4]
-0.61272913 0.39292753 -0.794353 -0.11527089
00000000: d1db 1cbf cc2d c93e b85a 4bbf 2513 ecbd

weight f4 [64, 32]
-0.24650002 -0.6998687 -0.88538104 -0.14866582 -0.5572742 0.75655353 1.3823767 1.5402206
2.3601174 -0.65100086 0.78090775 0.40436447 1.2308505 0.13652577 -4.9336967 -2.652704
-6.1007047 -1.7627511 1.4735105 1.3145097 -11.436412 -2.4353669 -1.5186874 -1.5487721
-0.984178 -1.3967769 -1.6148497 -2.4182372 -0.24524023 -0.5828456 -0.6436752 0.7770483
0.13168508 -1.1160232 -1.8944027 0.14801249 -0.81100386 -0.7258983 -3.6923466 6.3855762
9.505605 0.30665147 -0.42097202 2.0942051 -2.4940221 0.62723684 -7.8798366 -4.1235566
5.3783746 -0.5694613 3.9485176 0.53124994 -3.060031 -4.453311 -5.0540366 1.2647697
5.7357516 -1.2879525 0.6479939 -0.5841286 0.60060316 0.06682542 -0.40311533 0.3112906
-2.582354 -0.6544279 0.5624962 -0.885916 -0.6708647 3.096324 1.5370086 1.7421093
3.1373386 4.6693797 -6.041349 0.107980005 -0.21580856 -0.33216897 -0.9905164 -3.900872
3.255342 0.2065668 0.6103892 -0.12927127 -1.7745048 -1.1525108 -1.5369232 0.04641236
-1.4810051 -1.1954216 -0.8923106 -1.4857652 0.0049438304 0.14382818 -0.11305496 0.23816274
-0.4352106 -1.0545578 -1.7619679 -0.3901284 -1.1020133 -1.5710664 1.9155502 0.1821136
1.8312418 22.25868 -26.81035 -1.5215721 0.12890564 -0.90029866 -0.5865683 1.2726651
-8.717305 -0.8180193 0.04672658 0.07697095 -2.0016127 2.057695 -7.416687 1.4352539
-2.3475623 -0.47519365 -1.0570109 -8.669927 -0.40037537 -0.109231055 -0.026932504 0.19060646
-0.83730745 -0.11604027 0.17321524 -1.0270776 0.23254408 0.92733985 -0.08344979 2.9588118
1.8326503 4.134569 -4.1435447 -0.29829434 -0.5414643 -0.23357128 3.4719253 1.4775356
0.78747 -1.2623241 -0.9314632 0.75791603 1.031444 0.5107313 1.7348356 -1.549715
-1.8549829 0.06441831 -2.7028878 -1.6307105 -0.046931084 -0.50179166 0.049860973 0.1434097
1.7523541 0.16675484 -0.1417839 2.054856 -0.18510884 -0.18939056 1.5827208 0.09681817
-0.3359842 -4.33464 3.931936 0.4977266 0.31032547 0.002597034 11.160114 11.380334
-8.500346 0.26439512 -0.07995473 0.811503 10.889841 11.01965 -7.752894 -1.0716791
0.38447696 -3.5853763 0.19662957 -1.0672133 -1.7054117e-05 0.0022168 0.021941723 -0.007943383
-0.70589405 0.3249748 -0.93808955 -0.782859 0.15129426 -0.32878676 0.08255702 -1.2234327
1.2588683 16.137333 -24.036829 0.0109939575 0.11542062 0.049887054 -8.601099 7.281759
3.742267 0.03372315 0.04350326 -0.14429493 -8.530908 7.737099 3.4252365 -1.5971088
-2.6077228 -0.055494677 0.58990514 -1.3601317 -0.08716664 0.017489636 -0.12826829 -0.044368263
-0.89556265 -1.3898233 -0.061622366 -2.7296288 -2.6806562 0.54766226 -3.1875424 0.86888343
1.0947667 1.8837029 -4.3752127 2.0866609 -1.2787981 1.1609639 -15.63748 -14.696047
5.96556 5.5091596 -2.4899325 -8.50072 -16.948355 -17.38024 5.6834884 4.674329
0.61167353 0.5495124 -0.6526794 -1.801087 -0.8591124 -0.3835466 0.34847212 0.06595209
00000000: 806a 7cbe 982a 33bf 55a8 62bf da3b 18be
00000010: 86a9 0ebf 7ead 413f b8f1 b03f f325 c53f
00000020: 2a0c 1740 fea7 26bf 92e9 473f dc08 cf3e
00000030: 828c 9d3f 69cd 0b3e d8e0 9dc0 e7c5 29c0
00000040: f938 c3c0 d4a1 e1bf fe9b bc3f db41 a83f
00000050: 8bfb 36c1 0ddd 1bc0 5964 c2bf 2a3e c6bf
00000060: 17f3 7bbf 96c9 b2bf 65b3 cebf 66c4 1ac0
00000070: 4120 7bbe 5f35 15bf e6c7 24bf a3ec 463f
00000080: 74d8 063e d9d9 8ebf ca7b f2bf 9690 173e
00000090: f39d 4fbf 79d4 39bf 684f 6cc0 a456 cc40
000000a0: f516 1841 6c01 9d3e a589 d7be 7507 0640
000000b0: 0f9e 1fc0 9892 203f 9f27 fcc0 2df4 83c0
000000c0: a51b ac40 37c8 11bf 83b4 7c40 ffff 073f
000000d0: 8cd7 43c0 8681 8ec0 abba a1c0 f9e3 a13f
000000e0: 478b b740 a1db a4bf eee2 253f 7489 15bf
000000f0: 21c1 193f c4db 883d 2265 cebe 7b61 9f3e
00000100: 4a45 25c0 9688 27bf c0ff 0f3f 64cb 62bf
00000110: cabd 2bbf 2c2a 4640 b3bc c43f 70fd de3f
00000120: 28ca 4840 8f6b 9540 bb52 c1c0 9f24 dd3d
00000130: ebfc 5cbe 0d12 aabe 7c92 7dbf e3a7 79c0
00000140: 8657 5040 3f86 533e 7742 1c3f b05f 04be
00000150: f922 e3bf 7985 93bf e6b9 c4bf e31a 3e3d
00000160: 9391 bdbf 9303 99bf 786e 64bf 8e2d bebf
00000170: dbff a13b b247 133e 5c89 e7bd efe0 733e
00000180: ecd3 debe c0fb 86bf 2a88 e1bf e9be c7be
00000190: c60e 8dbf b418 c9bf c030 f53f fd7b 3a3e
000001a0: 2266 ea3f c711 b241 997b d6c1 e0c2 c2bf
000001b0: d7ff 033e f979 66bf 5729 16bf b1e6 a23f
000001c0: 157a 0bc1 b669 51bf 5f64 3f3d f2a2 9d3d
000001d0: 6c1a 00c0 46b1 0340 8055 edc0 66b6 b73f
000001e0: 763e 16c0 954c f3be 224c 87bf 05b8 0ac1
000001f0: 00fe ccbe 88b4 dfbd 8ea1 dcbc 572e 433e
00000200: c859 56bf 85a6 edbd 565f 313e 4777 83bf
00000210: 0920 6e3e 2566 6d3f b9e7 aabd 2c5d 3d40
00000220: 4994 ea3f 644e 8440 eb97 84c0 09ba 98be
00000230: 689d 0abf 4f2d 6fbe 0634 5e40 e31f bd3f
00000240: a297 493f d693 a1bf 5f74 6ebf c906 423f
00000250: 5b06 843f 49bf 023f 180f de3f 105d c6bf
00000260: 1470 edbf bfed 833d 1dfc 2cc0 1fbb d0bf
00000270: cf3a 40bd 6b75 00bf 053b 4c3d fed9 123e
00000280: 244d e03f c8c1 2a3e cc2f 11be c382 0340
00000290: 2c8d 3dbe 99ef 41be 9896 ca3f 9b48 c63d
000002a0: 1f06 acbe 5fb5 8ac0 d7a4 7b40 05d6 fe3e
000002b0: fbe2 9e3e 0033 2a3b d48f 3241 d915 3641
000002c0: 6b01 08c1 cc5e 873e 4ebf a3bd a9be 4f3f
000002d0: ca3c 2e41 7d50 3041 b517 f8c0 c82c 89bf
000002e0: 2ada c43e ce76 65c0 4359 493e 729a 88bf
000002f0: 700f 8fb7 bc47 113b 21bf b33c f724 02bc
00000300: 79b5 34bf 1963 a63e a326 70bf 7369 48bf
00000310: e2ec 1a3e bd56 a8be a813 a93d 7199 9cbf
00000320: 9922 a13f 4219 8141 6d4b c0c1 0020 343c
00000330: a561 ec3d 5e56 4c3d 1a9e 09c1 2b04 e940
00000340: 4d81 6f40 4921 0a3d 7930 323d 0dc2 13be
00000350: 997e 08c1 5196 f740 1337 5b40 106e ccbf
00000360: eee4 26c0 634e 63bd 0604 173f cc18 aebf
00000370: 6c84 b2bd 6d46 8f3c c358 03be 7fbb 35bd
00000380: 9843 65bf bbe5 b1bf bc67 7cbd 3db2 2ec0
00000390: df8f 2bc0 9833 0c3f b200 4cc0 256f 5e3f
000003a0: 5121 8c3f 2d1d f13f be01 8cc0 da8b 0540
000003b0: a8af a3bf 779a 943f 1e33 7ac1 0223 6bc1
000003c0: dee5 be40 094b b040 0e5b 1fc0 f302 08c1
000003d0: 3b96 87c1 bb0a 8bc1 23df b540 1a94 9540
000003e0: a396 1c3f d8ac 0c3f ff15 27bf 058a e6bf
000003f0: caee 5bbf 3860 c4be f06a b23e e411 873d

bias f4 [64]
-1.4150081 -2.0042906 0.069486886 0.6107202 -0.6824191 0.46072817 -1.8208096 0.6355532
0.42214122 -0.16599487 -1.5404047 -0.9296311 -0.5044354 0.34541517 -0.6242432 -0.104948744
-0.7715986 0.111851335 -0.43774912 -0.5572213 -1.3791798 -1.8941351 -0.81027603 0.32897767
-1.2947481 0.7196977 -0.8181451 -1.0109333 -0.20356193 1.6415942 0.16025263 -1.2787714
-0.26183563 -0.47183645 -0.37712482 1.3973029 -0.57884836 -1.0272536 -0.42219463 -1.667009
1.5442988 -0.5362395 -0.79598325 -0.095507786 0.3676695 -1.146721 1.5237293 -2.0531187
-0.8969971 1.8481041 1.0132413 -1.1514629 -0.095940165 -3.16361 -0.15946369 -0.028287327
-0.69911283 -1.2765238 -0.29420543 -0.5688126 -0.19537853 -1.137183 -1.3548533 -0.05479053
00000000: fc1e b5bf 4c46 00c0 244f 8e3d 2958 1c3f
00000010: 05b3 2ebf 90e4 eb3e 4a10 e9bf 9db3 223f
00000020: e522 d83e 8ffa 29be fb2b c5bf 4efc 6dbf
00000030: ae22 01bf 42da b03e 67ce 1fbf 5eef d6bd
00000040: 7c87 45bf 5012 e53d a720 e0be 0ea6 0ebf
00000050: f788 b0bf 0573 f2bf 406e 4fbf c36f a83e
00000060: 4eba a5bf 1c3e 383f f571 51bf 4366 81bf
00000070: 8a72 50be c21f d23f 4419 243e c8ae a3bf
00000080: 520f 86be 8c94 f1be 8116 c1be d2da b23f
00000090: 682f 14bf 0c7d 83bf e529 d8be 8d60 d5bf
000000a0: 95ab c53f fe46 09bf 8fc5 4bbf 9699 c3bd
000000b0: 2d3f bc3e c1c7 92bf 9009 c33f 4c66 03c0
000000c0: 9aa1 65bf ad8e ec3f e4b1 813f 2363 93bf
000000d0: 477c c4bd 9678 4ac0 734a 23be d3ba e7bc
000000e0: 0ff9 32bf 2265 a3bf 18a2 96be b49d 11bf
000000f0: 4f11 48be 368f 91bf d56b adbf 096c 60bd

weight f4 [64, 64]
-1.4118643 -0.52489287 -1.64549 0.18128736 0.23033136 -3.342022 -0.9547162 -0.061390147
-2.0561287 1.6407001 0.18772738 -0.27814516 0.027079374 0.41469997 -1.2201437 -1.2184408
-0.11712003 0.52257234 0.8594911 -3.9156816 -1.8079361 0.015440278 -0.88024205 -1.9505402
-1.1847026 -0.3120094 -1.3880037 -1.1558123 -2.2156112 -0.6870063 -0.8840757 -0.7799101
-1.8006066 -0.23557986 0.44272357 -0.8608476 0.2732877 1.0758038 -1.3909054 0.52230155
-3.5100245 -2.8215249 -0.9637088 -0.4494394 0.3385823 -0.7684269 -0.48035246 -0.33696553
2.9384387 -0.67674243 -1.8201003 -1.214583 -2.8606942 -0.11143568 1.7985084 -0.72530603
1.093725 1.6959443 0.56693053 -0.18712987 -1.0023391 -1.1539865 0.4144846 -2.256378
0.03766534 -0.2541393 -0.9070785 -0.37259156 -2.2059908 -0.88120747 -1.3045344 -1.5933261
-0.037876133 0.95362055 -0.43359426 -3.3025196 -0.50465095 -0.85483235 -3.31443 -0.94828486
-0.5124926 0.016395096 -0.24464495 -2.8200178 -0.5645385 -0.6500901 -1.1333326 -0.7458098
-0.044962134 -1.8161777 -1.6266292 -0.17196093 -0.022593569 0.0909541 -0.18173884 -2.2056115
1.0680517 -2.4231448 0.29694888 0.2109245 0.007233513 -0.9569715 -3.1969829 0.17741057
0.00204281 -0.40331188 0.049783796 -1.3169379 0.44767305 -2.0184119 -0.7732485 -0.1235098
-2.5979857 -1.2484121 -1.4912649 -0.70057553 -2.0632935 -1.3786207 0.0039037955 0.05153377
0.6208655 -0.7773869 -0.026683684 -0.61603546 -0.8772472 -2.4926858 -0.8828782 -1.1074448
0.05674162 0.02497616 -0.0078076944 -0.09892012 0.033167206 -0.1826549 -0.035073042 0.05080243
-0.05820019 -0.0147708915 -0.07977788 -0.14910235 -0.066160135 -0.06246027 -0.10005686 -0.050112374
-0.012074506 -0.16537242 -0.039213814 -0.13407542 -0.031535055 -0.15826593 -0.0009510473 -0.034330864
0.01297823 -0.18621047 0.023821251 -0.068464674 -0.1908076 -0.0062222355 0.048287883 -0.0080111865
-0.10092844 -0.107586704 -0.02262345 0.0059595066 -0.16578229 -0.08840403 -0.079842456 -0.014740795
-0.06978133 -0.104696736 -0.10312704 0.0154410815 0.024364091 -0.034963403 -0.073457755 -0.055583827
-0.027955173 -0.0950226 0.009892891 0.037987147 -0.113194264 -0.16340256 -0.12872672 -0.23034859
-0.023932192 -0.0016652837 -0.084225796 0.09542778 -0.11523427 0.08776776 -0.17039661 -0.19692089
0.06425368 -0.12313205 -0.04420689 0.0076204636 -0.09203492 -0.057641193 0.027172163 0.11606898
-0.05297639 -0.06985265 -0.03541501 0.0018984154 0.0024568287 0.000684898 -0.11991344 -0.24171928
0.02769302 -0.19751061 -0.15388314 -0.09364397 -0.12992693 -0.15604502 -0.011363584 -0.07397189
0.0005471271 0.06312684 -0.06855929 -0.0038955645 -0.0022003616 -0.25243735 0.03703645 -0.05137967
0.048287194 0.032719143 -0.03835703 -0.111553 -0.05864101 -0.14215799 -0.093709305 -0.109160125
-0.09783134 0.013632059 -0.13107802 -0.21546617 -0.12502773 -0.08346926 0.05140803 -0.1876936
-0.02826793 -0.1560833 -0.095011644 -0.14171566 -0.11478889 -0.03588895 -0.035256796 -0.14484997
0.044373315 -0.05563714 -0.11866089 -0.0032716244 -0.103560485 -0.1065592 0.07745036 -0.15475048
00000000: f8b7 b4bf 615f 06bf 6b9f d2bf 65a3 393e
00000010: fcdb 6b3e b0e3 55c0 4868 74bf 3c74 7bbd
00000020: 9d97 03c0 7602 d23f 9b3b 403e 0b69 8ebe
00000030: 90d5 dd3c 8e53 d43e ab2d 9cbf def5 9bbf
00000040: a0dc efbd 4dc7 053f 9c07 5c3f 879a 7ac0
00000050: 736a e7bf 38f9 7c3c 8b57 61bf 4dab f9bf
00000060: 56a4 97bf b2bf 9fbe 1baa b1bf a8f1 93bf
00000070: 93cc 0dc0 a5df 2fbf c952 62bf 30a8 47bf
00000080: 477a e6bf d93b 71be aaac e23e 8260 5cbf
00000090: 5eec 8b3e f0b3 893f 3009 b2bf 8eb5 053f
000000a0: 3ea4 60c0 dd93 34c0 9fb5 76bf ec1c e6be
000000b0: a95a ad3e a0b7 44bf c2f0 f5be bf86 acbe
000000c0: 610f 3c40 fe3e 2dbf 0cf9 e8bf 7577 9bbf
000000d0: 9d15 37c0 6438 e4bd 8635 e63f a8ad 39bf
000000e0: 2eff 8b3f b414 d93f 5c22 113f f99e 3fbe
000000f0: a64c 80bf d4b5 93bf 5337 d43e 7f68 10c0
00000100: f946 1a3d 8c1e 82be 4c36 68bf 52c4 bebe
00000110: f42e 0dc0 d096 61bf fcfa a6bf 1cf2 cbbf
00000120: 0124 1bbd 7a20 743f 1100 debe 7b5c 53c0
00000130: ce30 01bf 4bd6 5abf 9f1f 54c0 ccc2 72bf
00000140: b732 03bf 024f 863c 3584 7abe 2c7b 34c0
00000150: 9885 10bf 4e6c 26bf 0b11 91bf 64ed 3ebf
00000160: 372a 38bd 8378 e8bf 6335 d0bf 8716 30be
00000170: 2616 b9bc 2546 ba3d bf19 3abe bd28 0dc0
00000180: ebb5 883f ce14 1bc0 af09 983e 98fc 573e
00000190: 1b07 ed3b 16fc 74bf 5e9b 4cc0 1eab 353e
000001a0: aae0 053b e57e cebe 18ea 4b3d 6c91 a8bf
000001b0: 6735 e53e a92d 01c0 9df3 45bf b5f2 fcbd
000001c0: 6645 26c0 f8cb 9fbf c5e1 bebf eb58 33bf
000001d0: 000d 04c0 a576 b0bf d2d6 7f3b 1315 533d
000001e0: 0bf1 1e3f d402 47bf be97 dabc 80b4 1dbf
000001f0: 4693 60bf 2a88 1fc0 4e04 62bf c0c0 8dbf
00000200: e769 683d ce9a cc3c b0d7 ffbb a296 cabd
00000210: 56da 073d e309 3bbe c0a8 0fbd 3516 503d
00000220: 5363 6ebd 9c01 72bc 9662 a3bd 49ae 18be
00000230: f77e 87bd 57d6 7fbd 9cea ccbd a242 4dbd
00000240: 26d4 45bc 6357 29be aa9e 20bd 114b 09be
00000250: e72a 01bd 7710 22be b44f 79ba 859e 0cbd
00000260: a4a2 543c f5ad 3ebe c924 c33c 3537 8cbd
00000270: 1163 43be e5e3 cbbb 84c9 453d 5a41 03bc
00000280: 92b3 cebd 6b56 dcbd d054 b9bc f747 c33b
00000290: d5c2 29be 2c0d b5bd 7184 a3bd 6083 71bc
000002a0: 84e9 8ebd 3e6b d6bd 4534 d3bd 97fc 7c3c
000002b0: 3497 c73c c935 0fbd 0571 96bd deab 63bd
000002c0: 3f02 e5bc 359b c2bd cb15 223c 6998 1b3d
000002d0: 65d2 e7bd 0053 27be f0d0 03be 80e0 6bbe
000002e0: 720d c4bc a645 daba 937e acbd a46f c33d
000002f0: f2ff ebbd 95bf b33d 737c 2ebe a1a5 49be
00000300: 6f97 833d a82c fcbd 4912 35bd 15b5 f93b
00000310: ce7c bcbd 2c19 6cbd 2898 de3c 93b5 ed3d
00000320: c5fd 58bd e80e 8fbd 540f 11bd 40d4 f83a
00000330: bf02 213b ba8a 333a 2d95 f5bd 4285 77be
00000340: 79dc e23c 3940 4abe 8b93 1dbe 69c8 bfbd
00000350: 910b 05be 44ca 1fbe 532e 3abc 937e 97bd
00000360: 146d 0f3a a548 813d d068 8cbd ba4c 7fbb
00000370: f133 10bb 783f 81be 88b3 173d 7d73 52bd
00000380: cbc8 453d 8204 063d 431c 1dbd e675 e4bd
00000390: 8e31 70bd dd91 11be aaea bfbd 588f dfbd
000003a0: cc5b c8bd 0059 5f3c 5139 06be 2aa3 5cbe
000003b0: 4507 00be eef1 aabd 3a91 523d c032 40be
000003c0: 2592 e7bc 4dd4 1fbe 7795 c2bd e91d 11be
000003d0: 7016 ebbd 4b00 13bd 6e69 10bd 8d53 14be
000003e0: cbc0 353d c5e3 63bd 7b04 f3bd c068 56bb
000003f0: 8517 d4bd b63b dabd 4b9e 9e3d e976 1ebe

bias f4 [64]
-0.9434264 0.058107182 -0.22716469 -0.30340123 0.03806054 -0.4605527 -0.19520047 0.02471253
-0.18664384 0.9207558 -0.6069254 -0.72950804 0.29776493 -1.4529512 -1.1247911 0.8774914
-0.5840335 0.36767396 0.9919169 -0.22997048 -0.47682443 -0.342732 -0.37895703 -0.48738214
-0.11262036 -0.27948263 0.52964133 -0.29103872 0.9053113 0.36383453 -0.13579725 -0.058507614
-0.24207899 -0.98200864 0.7463702 0.54815173 -0.94382674 0.04049041 -1.1003652 -0.054974142
-1.376744 0.37916583 -1.7336107 -0.035594057 0.99620396 -1.020474 -0.08018224 1.2102547
-0.23508099 0.6515695 -0.66044503 -0.5029041 0.6028945 0.42330936 0.24268895 -0.60211205
-1.0428977 -0.66325516 -0.9164125 -0.25519845 2.9136035 -0.15416864 -3.0636868 0.5074923
00000000: 6484 71bf cc01 6e3d dc9d 68be 6857 9bbe
00000010: 5ee5 1b3d 90cd ebbe a2e2 47be ef71 ca3c
00000020: 901f 3fbe a7b6 6b3f 775f 1bbf 0ac1 3abf
00000030: a574 983e 4efa b9bf 28f9 8fbf 47a3 603f
00000040: 3883 15bf c33f bc3e 44ee 7d3f 627d 6bbe
00000050: 5522 f4be 927a afbe a806 c2be 278a f9be
00000060: 81a5 e6bd 5918 8fbe 9396 073f 0703 95be
00000070: 7bc2 673f 8548 ba3e 6f0e 0bbe aea5 6fbd
00000080: 8ee3 77be eb64 7bbf 1e12 3f3f ac53 0c3f
00000090: a19e 71bf 46d9 253d c4d8 8cbf 912c 61bd
000000a0: 2639 b0bf 0622 c23e f5e6 ddbf 13cb 11bd
000000b0: 3907 7f3f e49e 82bf 9636 a4bd a0e9 9a3f
000000c0: 12b9 70be 42cd 263f ed12 29bf 53be 00bf
000000d0: 4b57 1a3f 01bc d83e 7483 783e 0424 1abf
000000e0: ac7d 85bf 17cb 29bf 029a 6abf 5fa9 82be
000000f0: 7b78 3a40 62de 1dbe 7213 44c0 04eb 013f

weight f4 [64, 64]
0.9167554 -0.70226896 -0.034429867 -0.10555567 0.84809804 0.64884216 -0.05117194 0.16558449
0.0058138375 -1.7652767 0.29372048 -0.3337952 0.14268883 -2.4540381 1.2439351 0.31413567
0.0123066595 1.7328638 0.6033759 0.5287201 0.31643158 -0.17763092 0.9685848 -1.0446342
0.09401439 0.3188444 -1.5380996 -0.014478077 -0.75567347 -1.4527454 0.121749125 0.20181374
0.6668656 1.5968472 0.7549076 -0.20862223 -0.7018439 -0.024124851 1.0177556 0.009332439
0.7105633 -1.3455095 -1.383702 0.13299401 -1.4226258 0.4364286 -2.6380885 0.85265684
-0.28500307 -1.0004324 0.7296316 0.5705988 1.3165319 -0.6604838 0.7315962 0.41939917
0.008101298 0.54016584 0.1033132 -0.011172186 0.03901645 0.26549408 -0.28392363 -0.26996157
0.63497704 -0.27336895 0.1167306 -0.05446219 0.08191251 0.76482487 -0.008445946 0.15288045
-0.11945331 -0.6805142 0.4899999 0.04523543 0.42822728 2.1362638 0.4195601 -0.56990135
0.5349984 0.79008657 -1.3937678 -0.038784582 -2.2161932 1.5853174 -0.07897815 0.02468201
-0.030860618 -0.79018635 -0.4106054 0.116967075 -0.04806196 0.76376194 0.0021842169 -0.09003425
0.50493354 0.826465 0.5385378 -0.016846843 -0.10570895 0.34183973 0.45236826 -0.012406867
0.6775669 -4.564576 0.3232861 -0.10216778 0.24020512 0.27370927 -0.3393105 -0.52968276
-0.22396255 -0.81193554 0.20568994 0.83308595 0.36604685 0.61244106 0.37081292 0.631999
0.6624422 0.4376208 1.2737573 -0.01836866 -0.15588063 0.41006184 0.29576126 -0.32003546
-0.15306596 -0.13986489 0.054913953 -0.047109768 -0.027650489 -0.07631503 -0.10104349 0.25756946
0.086336195 0.007921983 -0.15898153 -0.03678832 -0.040906888 -0.28997722 -4.2913904 -0.91071105
0.01664155 0.014337617 -0.5908783 -0.11396481 0.7544567 -0.11583996 0.0526198 0.05761017
-0.07022977 0.3362371 0.025124151 0.10372543 0.16694558 0.17474978 -0.13564777 -0.06785519
-0.11632901 0.27714 0.05379911 0.6333462 -0.82963187 -0.030122774 -0.06781679 -0.010706052
-0.5822111 -0.57248574 -0.16605248 -0.021267397 -1.4649475 0.46974227 0.11181804 0.062253617
-0.0024226606 -0.5546678 -0.20310906 -0.05989859 -0.033652168 -0.059223477 0.1012588 0.6070755
0.32767677 -0.09279335 -0.23485254 -0.070928164 -0.41574305 -0.22641823 -0.0075314776 0.023826469
-2.256093 0.42583907 0.12195718 -0.18912643 -1.62398 0.017865306 -0.063978314 -3.1826072
0.018573703 -0.9596525 -0.6608096 -0.092178084 -1.1925662 -0.18013734 1.4830319 -0.42829838
-1.225801 2.9696407 0.4983938 2.2563584 -0.25923565 0.19806933 0.42440027 -0.9555198
-0.056197762 0.17761071 1.6141462 0.0997152 0.27325323 -0.22320412 -0.015399873 0.08553097
-2.9172304 0.36519307 0.49074304 0.45320514 -0.33630815 -0.4394273 -2.087717 -0.10679488
-2.219009 -0.91746616 -1.6667867 1.7761021 -0.3541372 -0.40610233 -0.18502907 -0.08205491
-0.5854241 0.10882067 -1.129041 1.017817 0.35079047 -0.19907716 -4.1904125 -0.27045637
0.52517605 -0.15002555 0.3173352 0.045638233 -0.23382284 -0.6935536 0.033785682 0.6656093
00000000: 7bb0 6a3f e6c7 33bf 5506 0dbd 922d d8bd
00000010: f41c 593f 851a 263f ab99 51bd fb8e 293e
00000020: 0182 be3b 96f4 e1bf 8862 963e 34e7 aabe
00000030: 051d 123e f60e 1dc0 4439 9f3f 64d6 a03e
00000040: dfa1 493c 7bce dd3f d876 1a3f 335a 073f
00000050: 5203 a23e e1e4 35be 2cf5 773f 93b6 85bf
00000060: 9e8a c03d 933f a33e 73e0 c4bf 7535 6dbc
00000070: d173 41bf 90f3 b9bf 9b57 f93d 43a8 4e3e
00000080: b4b7 2a3f 7d65 cc3f a041 413f 11a1 55be
00000090: 0bac 33bf 7ba1 c5bc d145 823f 16e7 183c
000000a0: 7ae7 353f a839 acbf 261d b1bf 952f 083e
000000b0: 9a18 b6bf 9273 df3e 71d6 28c0 b847 5a3f
000000c0: eceb 91be 2b0e 80bf 23c9 3a3f c312 123f
000000d0: 1e84 a83f 7715 29bf e349 3b3f 7dbb d63e
000000e0: 4ebb 043c 4f48 0a3f df95 d33d 8b0b 37bc
000000f0: b7cf 1f3d d7ee 873e 705e 91be 6738 8abe
00000100: db8d 223f 04f7 8bbe 7410 ef3d bf13 5fbd
00000110: bfc1 a73d 90cb 433f dd60 0abc b18c 1c3e
00000120: f0a3 f4bd 2e36 2ebf 44e1 fa3e c948 393d
00000130: 9b40 db3e 8cb8 0840 95d0 d63e 0ee5 11bf
00000140: a8f5 083f 1d43 4a3f fc66 b2bf 95dc 1ebd
00000150: 1cd6 0dc0 aeeb ca3f 4cbf a1bd ed31 ca3c
00000160: 68cf fcbc a749 4abf df3a d2be 6f8c ef3d
00000170: 9edc 44bd e785 433f 1425 0f3b e063 b8bd
00000180: 5343 013f 3693 533f 9ddd 093f 6402 8abc
00000190: ef7d d8bd 9e05 af3e d09c e73e 2c46 4bbc
000001a0: 0675 2d3f 0211 92c0 c185 a53e 573d d1bd
000001b0: 55f8 753e 9f23 8c3e 1bba adbe 4a99 07bf
000001c0: 7056 65be 02db 4fbf 62a0 523e 1f45 553f
000001d0: 7e6a bb3e f0c8 1c3f 31db bd3e b0ca 213f
000001e0: d095 293f d50f e03e 7b0a a33f df79 96bc
000001f0: 2c9f 1fbe a0f3 d13e 056e 973e b0db a3be
00000200: 53bd 1cbe be38 0fbe 74ed 603d 2cf6 40bd
00000210: 4783 e2bc 0e4b 9cbd e4ef cebd 25e0 833e
00000220: 08d1 b03d 34cb 013c 0ecc 22be 59af 16bd
00000230: fb8d 27bd e577 94be 1253 89c0 5c24 69bf
00000240: dc53 883c 53e8 6a3c cd43 17bf 6266 e9bd
00000250: 1324 413f 803d edbd dc87 573d a4f8 6b3d
00000260: a0d4 8fbd 4527 ac3e 2ad1 cd3c 006e d43d
00000270: c8f3 2a3e 9bf1 323e 40e7 0abe a9f7 8abd
00000280: e73d eebd 4be5 8d3e 755c 5c3d fa22 223f
00000290: c162 54bf 09c4 f6bc 87e3 8abd 7068 2fbc
000002a0: c90b 15bf 6d8e 12bf a909 2abe f738 aebc
000002b0: 6683 bbbf 0f82 f03e db00 e53d a6fd 7e3d
000002c0: 80c5 1ebb b5fe 0dbf d2fb 4fbe 3958 75bd
000002d0: dbd6 09bd 5194 72bd c660 cf3d 4d69 1b3f
000002e0: 40c5 a73e 710a bebd 2f7d 70be c942 91bd
000002f0: 46dc d4be 2eda 67be 9dca f6bb ba2f c33c
00000300: d463 10c0 9407 da3e b0c4 f93d 5caa 41be
00000310: 94de cfbf 435a 923c 1007 83bd d6af 4bc0
00000320: e127 983c c9ab 75bf d12a 29bf ddc7 bcbd
00000330: 02a6 98bf ec75 38be fdd3 bd3f ed49 dbbe
00000340: 0ce7 9cbf 980e 3e40 792d ff3e 2d68 1040
00000350: 89ba 84be b0d2 4a3e fe4a d93e f29c 74bf
00000360: a02f 66bd 95df 353e 589c ce3f 7c37 cc3d
00000370: d9e7 8b3e 9f8f 64be c04f 7cbc dc2a af3d
00000380: e7b3 3ac0 96fa ba3e ac42 fb3e 810a e83e
00000390: 9530 acbe 9dfc e0be 289d 05c0 46b7 dabd
000003a0: 3e04 0ec0 10df 6abf 4459 d5bf 5057 e33f
000003b0: 7951 b5be a5ec cfbe 4378 3dbe 680c a8bd
000003c0: 5bde 15bf 5fdd de3d 6a84 90bf d447 823f
000003d0: cf9a b33e e2da 4bbe dc17 86c0 4279 8abe
000003e0: f071 063f 4ca0 19be c279 a23e 28ef 3a3d
000003f0: 416f 6fbe bb8c 31bf db62 0a3d 5f65 2a3f
