ddpg_her/models/slide_trained_agent.pt (torch, 92479 bytes, 15 tensors)

weight f4 [64, 28]
0	0xbf741805	-0.9534915
1	0x3ef043df	0.46926782
2	0xbf1873b8	-0.5955157
3	0xbf24ec49	-0.6442304
4	0x3ed9719d	0.42469493
5	0x3d5a45f5	0.053289372
6	0x3fae03f9	1.3594962
7	0x3fd0b7e4	1.6306119
8	0x3da83050	0.0821234
9	0x3ffd7b28	1.9803209
10	0xc0549397	-3.3215082
11	0x3fa7cc92	1.3109305
12	0x3e048e55	0.1294492
13	0x3f2a64eb	0.6656024
14	0xc07aeda4	-3.9207544
15	0x3f278227	0.6543297
16	0xbdcb3e88	-0.09924036
17	0x3e8957e8	0.2682488
18	0xbee2e3dd	-0.4431447
19	0x3ec2dc42	0.38058668
20	0xbf2e6c27	-0.6813378
21	0xbde7a864	-0.11311415
22	0xbff49705	-1.9108588
23	0x3f2be20b	0.6714179
24	0x3dd172b9	0.1022696
25	0xbec2b78c	-0.3803066
26	0x3f29e43c	0.66363883
27	0xbd885164	-0.06656149
28	0xbf5d427e	-0.86429584
29	0xbf073b45	-0.52824813
30	0xbe040828	-0.12893736
31	0xbee46f06	-0.44615954
32	0xbf958327	-1.168065
33	0xbf4680fa	-0.7754055
34	0x3f4f0392	0.8086482
35	0xc088c07b	-4.273496
36	0xc04a9ba4	-3.1657495
37	0xc0197401	-2.3977053
38	0x405015e0	3.2513351
39	0x3eb17684	0.34660733
40	0xbf6f4978	-0.9347148
41	0x3ecb407d	0.39697638
42	0xc085dedf	-4.183456
43	0xc06b9e8c	-3.681552
44	0xbeca4fa7	-0.39513895
45	0x3e4e19e8	0.2012707
46	0xbc8fc7f4	-0.0175514
47	0xbeac51d2	-0.33656174
48	0xc0ba5582	-5.822938
49	0xc0ad511d	-5.4161515
50	0xbfd1ecc5	-1.6400381
51	0x3ecc35d1	0.3988481
52	0xbf9613f7	-1.1724843
53	0x3fcd096d	1.6018502
54	0x400152b7	2.0206735
55	0xbe324411	-0.17408778
56	0x3e573bad	0.21018858
57	0xbfa02879	-1.2512351
58	0xbf47a42b	-0.77984875
59	0x3df5b9f2	0.11998357
60	0xbe86679d	-0.26250926
61	0x3e6ee9bf	0.23331355
62	0x3faf3f9e	1.369129
63	0x401a31ec	2.409297
64	0x404e4660	3.2230453
65	0x401261e5	2.287225
66	0xc071ceed	-3.7782547
67	0xbec91f14	-0.39281523
68	0x3e07cd8b	0.13262002
69	0x3f35ab1a	0.70964205
70	0x404c5a33	3.1930053
71	0xbf9cd609	-1.2252818
72	0x3f87ad43	1.059975
73	0xbf1d7d05	-0.6151889
74	0xbf88142b	-1.0631155
75	0x3fc83779	1.5641929
76	0x3f659087	0.89673656
77	0xbfa1d254	-1.2642312
78	0xbe0ada5c	-0.1355986
79	0x3debb238	0.11508602
80	0x3f1f831a	0.6230942
81	0xbfae3a8e	-1.361162
82	0xbe7ea1da	-0.24866429
83	0xbf05123e	-0.5198096
84	0xbdb42460	-0.087960005
85	0xbea3c5f2	-0.31986958
86	0xbf1130fc	-0.5671537
87	0xbe82b5a0	-0.25529194
88	0xbe001484	-0.12507826
89	0xbe94dee3	-0.290763
90	0x3d898959	0.0671565
91	0x3e108ac5	0.14115436
92	0x3f6d8a7a	0.92789423
93	0x3de50d39	0.11184163
94	0xbec9cfb1	-0.39416268
95	0xbd685f33	-0.056731414
96	0xbdf7841d	-0.120857455
97	0xbca2371c	-0.019801669
98	0x3e0ac1b3	0.13550453
99	0x3dfc5439	0.12320752
100	0x3f0dd77c	0.5540693
101	0x3d11cc1f	0.035595056
102	0xbd175040	-0.036941767
103	0xbed0642a	-0.4070142
104	0xbece936e	-0.40346855
105	0xbeac16da	-0.33611184
106	0xbe047dec	-0.1293866
107	0xbdd12668	-0.102124035
108	0xbdaf707b	-0.08566376
109	0xbc888fa3	-0.016670054
110	0xbe75bfe5	-0.23998983
111	0xbcf3ae70	-0.029746264
112	0xbf7347da	-0.9503151
113	0xbeb28377	-0.34865925
114	0xbf2bc8ff	-0.6710357
115	0xbf2bb48d	-0.67072374
116	0x3e839600	0.25700378
117	0xbf981b04	-1.1883245
118	0x401564dd	2.3342812
119	0x402ea3f6	2.7287574
120	0x3e90d479	0.28287104
121	0x3fc39fb9	1.5283118
122	0xc03b768f	-2.9291112
123	0x3f14732f	0.57988256
124	0xbf8f4e61	-1.1195794
125	0xbdef1c55	-0.11675326
126	0x40d0d3bf	6.525848
127	0x408112c4	4.0335407
128	0xbfd059fb	-1.627746
129	0x3d828825	0.06373624
130	0xbdafe02a	-0.08587678
131	0xbff5bb32	-1.9197752
132	0x40344db3	2.8172424
133	0x4045d015	3.0908253
134	0x3ed4df84	0.4157678
135	0xc0194fb0	-2.3954887
136	0x3ee78ee1	0.45226195
137	0xbf52173a	-0.8206669
138	0xbf3215f3	-0.6956474
139	0xbfe87ce5	-1.8163115
140	0x3f5ff416	0.8748182
141	0x3ef56dff	0.47935483
142	0x3f458924	0.77162385
143	0x3e7c3219	0.24628486
144	0x3ea36081	0.31909564
145	0x3f1f2bba	0.62176096
146	0xc0641a9b	-3.5641239
147	0x3fee0b5a	1.8597214
148	0xbf0465fa	-0.51718104
149	0x3f114738	0.56749296
150	0xbdc5ae7c	-0.09652421
151	0xbdcd5d93	-0.100276135
152	0x3f3409b4	0.70327306
153	0x3e81e2ee	0.25368446
154	0xbe7bacc5	-0.24577625
155	0xbda636a9	-0.08115894
156	0x3fc7e6be	1.5617292
157	0xbe82c135	-0.2553803
158	0x3edc7a36	0.4306199
159	0xbe15e2f7	-0.14637361
160	0xbf7c894d	-0.98647004
161	0xbef29056	-0.47375745
162	0xbfbf8371	-1.4961988
163	0x3fb96eb6	1.4486911
164	0xbf3f77b2	-0.74792016
165	0xbf8a05b6	-1.0782993
166	0x3e0f5c90	0.14000154
167	0xc0923a00	-4.56958
168	0xbe814299	-0.25246122
169	0x3f8e944d	1.1139008
170	0x3e9a3063	0.3011504
171	0x3aa8e3a0	0.001288522
172	0x3fd8d040	1.6938553
173	0xbe0af358	-0.13569391
174	0xbf8b4f4f	-1.0883578
175	0x40a50f61	5.1581273
176	0xc01c0e0c	-2.4383574
177	0xc01a0109	-2.4063132
178	0x4065a632	3.5882688
179	0xbf2a31ac	-0.66482043
180	0xbf426af4	-0.7594445
181	0x3cfef1fe	0.03112125
182	0x402265c2	2.5374608
183	0x41233f88	10.203011
184	0xbf4b92ff	-0.79521173
185	0x3e8c01ac	0.27345026
186	0x3def5b05	0.116872825
187	0xbe137525	-0.14400156
188	0x40b700a8	5.71883
189	0x4105ce27	8.36283
190	0x3f3f9444	0.7483561
191	0xc08b5d8c	-4.3551693
192	0x3f97646a	1.1827519
193	0x3b9e36f7	0.0048283297
194	0xbf40bc3d	-0.7528723
195	0xbf32dcd4	-0.69868207
196	0x3e951511	0.29117635
197	0xbe832909	-0.25617245
198	0xbeedf253	-0.4647394
199	0x3f48f559	0.7849937
200	0xbf50c5c4	-0.81551766
201	0x3e185e36	0.14879689
202	0x400529f3	2.0806854
203	0xc0ac92fc	-5.3929424
204	0x40991348	4.7836037
205	0x3f92f6fc	1.1481624
206	0xc01635fc	-2.347045
207	0xbe97c76f	-0.29644343
208	0xbdf47b87	-0.119376235
209	0xbec56163	-0.38550863
210	0x40540620	3.3128738
211	0xc0a2af13	-5.0838714
212	0x3f0beda5	0.5465949
213	0x3e896781	0.2683678
214	0xbd7d0b3f	-0.061778303
215	0x3fc43a42	1.5330279
216	0x40862b94	4.1928196
217	0xc06ad688	-3.669344
218	0xbf9623bd	-1.1729656
219	0x4085875e	4.1727743
220	0x3ed38b82	0.41317374
221	0x3fadd13e	1.3579481
222	0xbe583eed	-0.21117754
223	0xbf123281	-0.5710831
224	0xbe95eb40	-0.29281044
225	0xbc7dff8f	-0.015502824
226	0xbe705c28	-0.23472655
227	0xbdeddee1	-0.116147764
228	0xbdc7ba55	-0.09752337
229	0xbdff374a	-0.124617174
230	0x3d738a9e	0.059458368
231	0x3e03380c	0.12814349
232	0x3d884311	0.06653417
233	0x3e2d551f	0.16927002
234	0x3decc127	0.115602784
235	0xbda48db4	-0.0803484
236	0x3b9b1855	0.004733125
237	0xbc5c6e2e	-0.013454003
238	0xbdb0919c	-0.08621523
239	0x3da5f5bb	0.0810351
240	0x3d6b31b9	0.057420466
241	0x3cbbbfec	0.022918664
242	0xbdba87fc	-0.09107968
243	0x3dd7ba13	0.10533538
244	0x3dbedc72	0.0931939
245	0xbe2a283e	-0.16616914
246	0x3de1e860	0.1103065
247	0xbe3c2d5c	-0.18376678
248	0xbcc479c4	-0.023983844
249	0xbdaf1dc4	-0.08550599
250	0xbe0468cf	-0.12930606
251	0xbc3f4cb7	-0.011676005
252	0x3e439b3b	0.19102184
253	0xbe5bf6cf	-0.21480869
254	0x3ee33af9	0.4438093
255	0xbeaa0a23	-0.3321086

bias f4 [64]
0	0x3eb5dbc1	0.3551922
1	0xbf052225	-0.52005225
2	0x3d9210ed	0.071321346
3	0xbeae1e68	-0.34007573
4	0xbf8b4359	-1.0879928
5	0x3fa41c82	1.28212
6	0xbdab637f	-0.08368587
7	0xbe8bc8cf	-0.27301642
8	0xbddf2063	-0.10894849
9	0x3f332344	0.69975686
10	0x3effb28f	0.49940917
11	0xbf202da1	-0.62569624
12	0x3f6ef5ee	0.9334401
13	0x3ee1e58d	0.44120446
14	0x3e724f28	0.23663008
15	0xbf37e4c2	-0.7183343
16	0x3de3a9ae	0.11116348
17	0xbed93dbe	-0.42429918
18	0x3e98c9b4	0.29841387
19	0x3fbce58f	1.4757556
20	0xbe18dc21	-0.14927723
21	0x3faa3034	1.329596
22	0x3ec4d0ff	0.384407
23	0xbf3a1c76	-0.7269968
24	0xbf13c256	-0.5771841
25	0x3f138c78	0.57636213
26	0x3e56f0bd	0.20990272
27	0x3e263bb6	0.16233715
28	0xbef83e9a	-0.4848526
29	0x3f8ca8d0	1.0989017
30	0xbf84a4da	-1.0362809
31	0xbd0b071a	-0.03394232
32	0x3d74f815	0.059806902
33	0xbe5e47de	-0.21707103
34	0xbe1393ab	-0.144118
35	0x3f8cf645	1.1012655
36	0xbf98e9c1	-1.1946336
37	0x3edce7d2	0.43145615
38	0xbeff7b75	-0.49898878
39	0x3f397bd3	0.72454566
40	0x3f12e475	0.5737985
41	0xbdb2d295	-0.087315716
42	0xbdc27bb0	-0.09496248
43	0xbe836133	-0.25660095
44	0x3f2b5688	0.6692891
45	0x3f38ce6b	0.7218997
46	0x3f4a24a3	0.78962153
47	0xbf80080d	-1.0002457
48	0xbdcced27	-0.10006171
49	0xbdb16eec	-0.08663735
50	0xbe9d88b8	-0.3076837
51	0xbefb1b95	-0.4904448
52	0xbf05fcfa	-0.52339137
53	0xbeb9beb4	-0.36278307
54	0xbe1a5479	-0.15071286
55	0x3f008ba8	0.502131
56	0x3f169a2d	0.58829004
57	0x3e317d4c	0.17332953
58	0x3f24e110	0.6440592
59	0xbe384505	-0.17995079
60	0xbf3d40a2	-0.73926747
61	0xbeadcadb	-0.3394383
62	0xbea2e900	-0.3181839
63	0x3eee50e2	0.46546084

weight f4 [64, 64]
0	0xbefc1db2	-0.49241406
1	0x3f37642c	0.71637225
2	0x3d72bd4a	0.05926255
3	0x3da6a6e4	0.081373006
4	0xbf8fbebf	-1.1230086
5	0x3fb0e68f	1.3820361
6	0xbf797f62	-0.97459996
7	0x3e7754f8	0.24153507
8	0xbd7398a9	-0.05947176
9	0xbf5f18c8	-0.8714719
10	0x3f163856	0.5867971
11	0x3e25a613	0.16176634
12	0x3ef530d5	0.47888818
13	0x3fb03f04	1.3769231
14	0x3e97393c	0.29535854
15	0xbee39dc8	-0.44456315
16	0xbeef30fc	-0.4671706
17	0xbe2c615d	-0.16834016
18	0x3fcb2281	1.5869905
19	0x401ac345	2.4181683
20	0xbd840854	-0.06446901
21	0x4036e683	2.8578193
22	0x3f4e056c	0.80477023
23	0xc01661e1	-2.349724
24	0x3da9148f	0.08255874
25	0x3f96c796	1.1779659
26	0x3e4775cf	0.19478534
27	0xc00dd6c4	-2.2162333
28	0x3fa9a014	1.3251977
29	0xbe5d6fab	-0.21624629
30	0x3f52b881	0.8231278
31	0xbfc19f0b	-1.5126661
32	0xbfe108c3	-1.7580799
33	0xbe14e50f	-0.14540504
34	0xc031f049	-2.7802908
35	0x3fad26a3	1.3527416
36	0xbd840152	-0.06445564
37	0xbf4fe4a9	-0.8120828
38	0x3f82db1e	1.0223119
39	0x3e993281	0.29921344
40	0x3faa104a	1.3286221
41	0x3d68981a	0.05678568
42	0x3f04523b	0.51687974
43	0x3dd4ab23	0.10384204
44	0x3f25e3cf	0.64800733
45	0x3e173bda	0.14768925
46	0x3f92f3a4	1.1480603
47	0xbff912a2	-1.9458811
48	0x3e3157ae	0.17318603
49	0x3f8b7a63	1.0896724
50	0x3f7af769	0.9803377
51	0xbe7e0b1f	-0.2480893
52	0x3f78eb3a	0.9723393
53	0xbf339870	-0.70154476
54	0x3d2c85cf	0.042119797
55	0xc03c2ec9	-2.9403555
56	0x3f0ad097	0.5422453
57	0xbed0f273	-0.40809974
58	0x3fb90070	1.4453259
59	0x3dcc2197	0.09967344
60	0x3ef8c43b	0.48587212
61	0xbc837a86	-0.016049635
62	0xbfbe2c2f	-1.4857234
63	0x3f566731	0.8375121
64	0x3da2f9f3	0.0795783
65	0xbfb0f782	-1.3825533
66	0x3f08f744	0.535023
67	0x3ebf74a5	0.3739368
68	0xbfe51f51	-1.7900182
69	0x3fed500a	1.8540051
70	0xbed6177a	-0.41814786
71	0xbf0b32bb	-0.54374284
72	0x3d2324d3	0.03983004
73	0x3f2761cc	0.653836
74	0x3f61bf99	0.8818298
75	0x3e6462ea	0.22303358
76	0x3ff34714	1.9006066
77	0x3fda4981	1.7053682
78	0xbf10a7d7	-0.56506103
79	0xbf2ac83c	-0.66711783
80	0xbf61501a	-0.8801285
81	0xbfb7ca25	-1.4358565
82	0x406d79f6	3.710569
83	0x3e5dcb37	0.21659552
84	0x3ca917c5	0.020641217
85	0x3f45cdd1	0.77267176
86	0xbf21a84e	-0.6314744
87	0xc0312e3e	-2.7684474
88	0x3fed45c7	1.8536919
89	0xbe430a3a	-0.1904687
90	0xbd99672a	-0.0749038
91	0xbf7663ce	-0.9624604
92	0x3ea07fe0	0.3134756
93	0x3f16e03c	0.58935905
94	0xbeec033a	-0.46096212
95	0xbfa101d1	-1.2578679
96	0x3bac3f48	0.005256567
97	0x3d5947ee	0.053047113
98	0x3eb7f353	0.3592783
99	0x3f29e1cb	0.6636016
100	0xbf376644	-0.7164042
101	0xbe8bf51c	-0.2733544
102	0x3e88df47	0.26732847
103	0x3fe6addd	1.8021809
104	0x3ec94324	0.39309037
105	0xbe1e91f5	-0.15485366
106	0xbf169e46	-0.58835256
107	0x3d927e68	0.07153016
108	0x3f5c02de	0.85941875
109	0x3ebf38af	0.37347934
110	0x3fce61b8	1.6123571
111	0xbff0628a	-1.8780072
112	0xbf8e38b9	-1.111106
113	0xbe83cd58	-0.25742602
114	0x3f1b10a2	0.60572255
115	0x3ef331c9	0.4749892
116	0xbf11ce95	-0.56955844
117	0xbf103e8e	-0.5634545
118	0xbd65391f	-0.055962678
119	0x40033e66	2.0506835
120	0xbf18283b	-0.59436387
121	0x3f621817	0.8831801
122	0x402b3c7d	2.675567
123	0xbd4fa4c3	-0.05069424
124	0xc0011425	-2.0168545
125	0x3e3945b2	0.18092993
126	0xbf812ddb	-1.0092119
127	0x4006e009	2.107424
128	0x3d2bc718	0.041937917
129	0xbe31a7f2	-0.17349222
130	0xbe191f01	-0.14953233
131	0x3dd398b7	0.103318624
132	0x3b934d96	0.004495333
133	0x3e33de49	0.17565264
134	0xbf02b8e4	-0.5106337
135	0xbe17a876	-0.14810356
136	0x3da3e222	0.08002116
137	0xbdd28147	-0.10278564
138	0xbd881e0c	-0.06646356
139	0x3e61f26f	0.22065137
140	0xbd1c7de4	-0.038205996
141	0xbe678062	-0.22607568
142	0xbe55a22e	-0.20862648
143	0xbe13f103	-0.14447407
144	0x3cabddda	0.02097981
145	0xbe8a1f14	-0.26976836
146	0xbe78cf71	-0.24297883
147	0x3d853284	0.06503776
148	0x3d9f7d94	0.07787624
149	0xbe13177c	-0.14364427
150	0x3ca51424	0.020151205
151	0xbc836fe9	-0.016044574
152	0xbdd35fe1	-0.10321022
153	0xbdd1262e	-0.1021236
154	0xbe99289e	-0.299138
155	0x3cf957d1	0.030437382
156	0xbdb7e354	-0.08978906
157	0x3d2462d4	0.040133312
158	0x3d56f5bd	0.052480448
159	0x3dc59605	0.096477546
160	0x3db250e1	0.08706833
161	0x3da2cb3c	0.0794892
162	0xbd6c6c53	-0.057720494
163	0xbe7aad64	-0.24480206
164	0xbee09d8b	-0.43870196
165	0xbe15f2ae	-0.14643356
166	0x3b549e00	0.0032442808
167	0xbd682a0c	-0.056680724
168	0x3ce421c0	0.027848125
169	0xba498ade	-0.00076882343
170	0xbd44965c	-0.047994956
171	0xbd5e01e4	-0.05420102
172	0x3e0d00c5	0.13769825
173	0x3d525065	0.0513462
174	0xbe8810d8	-0.2657535
175	0x3de073b1	0.109595664
176	0xbeba522a	-0.3639081
177	0x3ca1c7d4	0.019748606
178	0xbe78a7f5	-0.2428282
179	0xbe6f5bf7	-0.23374926
180	0xbdd2cbe4	-0.10292795
181	0xbdb8b532	-0.09018935
182	0x3e5250f2	0.2053869
183	0xbda6ebaf	-0.08150422
184	0xbcc5a747	-0.024127616
185	0xbb253f00	-0.0025214553
186	0xbe2d6e77	-0.1693667
187	0x3dfc5ac7	0.12322002
188	0xbe774f87	-0.24151431
189	0x3cb715dc	0.02234929
190	0x3e02567b	0.12728302
191	0xbda872bc	-0.08225009
192	0x3f5b87e6	0.8575424
193	0x3e879378	0.26479697
194	0x3b0af824	0.0021205032
195	0x3e231fa6	0.15930042
196	0x3f081a08	0.5316472
197	0x40337a1f	2.8043287
198	0x3d9c338f	0.076270215
199	0xbed4a1ba	-0.41529638
200	0x3e114109	0.14184965
201	0x3f364790	0.71202946
202	0x400b6626	2.1781096
203	0xbf068b16	-0.5255598
204	0x3fb1870e	1.386934
205	0x3fa591f2	1.2935164
206	0x3fd94fca	1.6977475
207	0x3eed6436	0.46365517
208	0x3fa94ac8	1.3225946
209	0x3f11d509	0.5696569
210	0xc00781b7	-2.1172922
211	0x3f8dc33d	1.1075207
212	0xbdb3a58b	-0.08771809
213	0x4082b73c	4.0848675
214	0x403cbc1b	2.948981
215	0xbe9c7ebe	-0.30565447
216	0xbf1a7056	-0.6032766
217	0x3fb41b39	1.4070808
218	0x3fbde49a	1.4835389
219	0x3f664c83	0.899605
220	0x3fc8f99f	1.5701178
221	0x3fc0a81b	1.5051302
222	0x3f663854	0.899297
223	0x3ec9414d	0.39307633
224	0x3fbde4ea	1.4835484
225	0x3d603c3d	0.054744948
226	0xc00a443e	-2.1604152
227	0x3ffca0ff	1.9736632
228	0xbc8c0384	-0.01709152
229	0x3e2db6e1	0.16964294
230	0x3fb75037	1.4321355
231	0x3e82e0c9	0.25562122
232	0x3e022b1a	0.12711754
233	0x3ea41eae	0.32054657
234	0x3fa5d5fa	1.2955925
235	0xbddc8968	-0.10768396
236	0x3f73f231	0.9529143
237	0x3fd4eb47	1.6634301
238	0x40524d88	3.2859821
239	0x3fb199a9	1.3875018
240	0x3f7b0b91	0.98064524
241	0xbf5038c0	-0.81336594
242	0xbff328ca	-1.8996823
243	0xbc82ae5d	-0.015952284
244	0x3fbc3008	1.4702158
245	0xbd983c87	-0.0743342
246	0xbc4b5b84	-0.012411956
247	0x3f13c989	0.57729393
248	0xbf206ac1	-0.62662894
249	0x3f492a80	0.78580475
250	0x3ea75b7e	0.3268699
251	0xbd5d8093	-0.054077696
252	0xbf28029f	-0.65629
253	0x3e2a6c69	0.16642918
254	0x3f963ae9	1.1736728
255	0xbf91e9fc	-1.1399531

bias f4 [64]
0	0x3fd37bc1	1.6522142
1	0x3fd321ad	1.6494652
2	0xbe8cf6f3	-0.27532157
3	0xbce64250	-0.028107792
4	0x3f875cd3	1.0575203
5	0xbe36972d	-0.17831106
6	0xbf254f63	-0.6457426
7	0xbf1d99d1	-0.6156283
8	0xbf254110	-0.645524
9	0xbead4478	-0.338413
10	0xbe40430a	-0.18775573
11	0xbfd6b4f7	-1.6773976
12	0x3fa54582	1.2911837
13	0x3f15138a	0.5823294
14	0x3faa6a36	1.3313663
15	0xbcea5d97	-0.02860908
16	0x3eb2893f	0.34870335
17	0xbf43f147	-0.76540035
18	0xbec46be9	-0.3836358
19	0x3dd1017c	0.10205361
20	0x3f713bf1	0.9423209
21	0x3f4dc9f7	0.803863
22	0x3d985eab	0.074399315
23	0xbe263116	-0.16229662
24	0x3ff0c3ec	1.8809791
25	0xbc65bf0f	-0.014022603
26	0x3efde0f4	0.49585688
27	0x3eadfe5b	0.3398312
28	0xbf0f798a	-0.5604483
29	0x3f473627	0.77817005
30	0xbd598c54	-0.053112343
31	0x3f2fcc22	0.68670857
32	0xbef738a1	-0.48285392
33	0x3fa80854	1.3127542
34	0xbe423dad	-0.1896884
35	0xbf38b38d	-0.7214897
36	0xbef59d44	-0.47971547
37	0xbc9807f0	-0.018558472
38	0x3e86a7d7	0.26299927
39	0xbef61aef	-0.48067424
40	0x3fbf62f4	1.4952073
41	0x3f29492a	0.66127264
42	0xbd56f881	-0.052483086
43	0x3de13275	0.10995952
44	0xbe1205ca	-0.14260021
45	0x3e8f0af0	0.27938032
46	0x3e0e589d	0.13900991
47	0x3f1cc407	0.61236614
48	0x3f8b6a00	1.0891724
49	0xbe2a764f	-0.16646694
50	0xbe8aaae3	-0.270835
51	0x3efa419d	0.48878184
52	0xbf26aea1	-0.6511021
53	0xbf505fed	-0.8139637
54	0x4042ee89	3.045809
55	0xbef70a36	-0.48249978
56	0x3e2ea6d5	0.17055829
57	0xbd9ae460	-0.0756309
58	0x3fdec079	1.7402488
59	0x3fd43c12	1.6580832
60	0x3e629831	0.22128369
61	0xbc69494a	-0.014238665
62	0xbd454b5e	-0.04816758
63	0x3fb257c8	1.3933039

weight f4 [64, 64]
0	0xbf380787	-0.71886486
1	0xbfcedc91	-1.6161062
2	0x3d3fc8b3	0.04682226
3	0xbf74006b	-0.9531314
4	0x3fcde5d5	1.6085764
5	0x3e6c4029	0.2307135
6	0x3f535021	0.8254414
7	0xc0095f2e	-2.1464343
8	0xbe8d7903	-0.27631387
9	0x3eab91e1	0.33509734
10	0x3db9cc16	0.090721294
11	0x3f463ec8	0.77439547
12	0x3fac9de4	1.3485684
13	0xc008d854	-2.1382036
14	0x3f4b881e	0.79504573
15	0x3c82377d	0.0158956
16	0xbf6d2102	-0.9262849
17	0xbf4cd351	-0.80009943
18	0xbd7e2f8a	-0.062057056
19	0xbe0abbc6	-0.13548192
20	0x3fc555e8	1.5416842
21	0xbf7f258a	-0.99666655
22	0xbc5e0ef5	-0.013553371
23	0x3dea528d	0.114415266
24	0xbfd5b567	-1.6695985
25	0x3f8157f7	1.010497
26	0xbe1837a5	-0.14864977
27	0x4008fd88	2.1404743
28	0xbf9bd3c2	-1.2173998
29	0xbef4a9c3	-0.47785768
30	0xbfd317f7	-1.6491688
31	0x401f8b24	2.4928675
32	0xbba64588	-0.0050742067
33	0xbf9e2fda	-1.2358353
34	0xbdb728a2	-0.08943297
35	0xc0345fbf	-2.8183439
36	0x3e8425ea	0.25810176
37	0xbe7b0972	-0.24515322
38	0xc04665c6	-3.0999618
39	0xc06646b1	-3.5980647
40	0x3f8c151f	1.0943946
41	0x4008bbbb	2.1364582
42	0x3d49cade	0.049265735
43	0xbf574d46	-0.84102285
44	0xbda6784c	-0.081284136
45	0xbe2ea0d4	-0.17053539
46	0xbf8eba6f	-1.1150645
47	0xbf95a06a	-1.168958
48	0xbfd4949c	-1.6607852
49	0xbe913ae6	-0.28365248
50	0xbf800d5d	-1.0004078
51	0xbf3909fa	-0.7228085
52	0xbfb6b014	-1.4272485
53	0x401ac96f	2.4185445
54	0xbf5f8c61	-0.87323576
55	0xbe99d231	-0.30043176
56	0xbf8842e9	-1.0645419
57	0xc033e808	-2.811037
58	0xc0130981	-2.297455
59	0xbe8c86c0	-0.27446556
60	0xbf82ae60	-1.0209465
61	0x3d75db3b	0.060023528
62	0x3ff319dc	1.8992267
63	0xbc8d85ad	-0.017275656
64	0x3e709ba3	0.2349687
65	0x3fc0ae8d	1.5053269
66	0x3ddd49ad	0.10805068
67	0xbeeb87b9	-0.46001986
68	0x3f494f55	0.78636676
69	0xbf38c391	-0.7217341
70	0xbee9d30b	-0.45668826
71	0x3fea7587	1.8317116
72	0xbfa2e016	-1.2724636
73	0xbfbed57a	-1.4908898
74	0xbd11c92b	-0.03559224
75	0x3c296e0f	0.010341181
76	0xbe2fac3a	-0.17155543
77	0x3f8001ef	1.000059
78	0xbeaa96ec	-0.3331827
79	0x3c4caf26	0.0124929305
80	0xbe95397d	-0.29145423
81	0x40138f7e	2.305633
82	0x3e172aaf	0.14762376
83	0x3ff04f63	1.8774227
84	0xc04c226d	-3.1896012
85	0x3fa0ce06	1.2562873
86	0xbfa85b6b	-1.3152899
87	0x3e8348a7	0.25641367
88	0x3ffc55b0	1.971365
89	0xc01f3f69	-2.4882452
90	0xbf3e4228	-0.74319696
91	0xbfc5daa9	-1.5457355
92	0x3e0014a4	0.12507874
93	0xbd8b6772	-0.0680684
94	0xc02cd082	-2.7002263
95	0xbf9f8824	-1.2463422
96	0xbf43c814	-0.7647717
97	0x3f814e6c	1.0102057
98	0xbd85cc9a	-0.06533165
99	0xbea730dd	-0.32654467
100	0xbfcadf48	-1.584939
101	0xbf9e19b2	-1.2351592
102	0xbf1df9ca	-0.6170927
103	0xbf7852af	-0.97001165
104	0xbee69584	-0.45035946
105	0xbfbe0842	-1.484627
106	0xba4386cb	-0.00074587454
107	0xbfef4a42	-1.8694537
108	0x3d8effc4	0.06982377
109	0xbfa60818	-1.297122
110	0x3e5959e9	0.21225704
111	0xbe597e1e	-0.21239516
112	0x3ef48330	0.47756338
113	0x3df57fd5	0.11987273
114	0x40397f52	2.898396
115	0xbdd4430a	-0.10364349
116	0xc075d7d7	-3.8412988
117	0xbf91b7a0	-1.1384163
118	0xbf1bdb6c	-0.60881686
119	0xc00cffd4	-2.2031145
120	0x3ee2e11d	0.44312373
121	0x3e8c5c3d	0.27414122
122	0x3f23bb02	0.63957226
123	0x3eebaf3f	0.4603214
124	0x3fddccd5	1.7328135
125	0xbcba965c	-0.022776775
126	0xbf138127	-0.57618946
127	0x3fb0fcea	1.3827183
128	0xbf705132	-0.93873894
129	0xbfb1bef9	-1.3886405
130	0x3e9ae7b7	0.3025491
131	0xbf8ff8da	-1.1247818
132	0x3c30a419	0.010781311
133	0xbe4b2835	-0.19839557
134	0x3de0bebb	0.10973879
135	0xbf220ddb	-0.6330239
136	0xbe91ac16	-0.28451604
137	0xbf2fbf5c	-0.68651366
138	0xc005bd56	-2.0896811
139	0x405337ad	3.3002732
140	0x3f946086	1.1591957
141	0xc01ea25b	-2.4786594
142	0x3d1d4c81	0.038403038
143	0x3cfcae02	0.030844692
144	0xc03c6049	-2.9433768
145	0xbf596e03	-0.8493349
146	0xc0362cd9	-2.8464873
147	0xc00c86a4	-2.1957178
148	0x3e19ceef	0.15020345
149	0xc01ec60c	-2.4808378
150	0xbeb0cc64	-0.34530938
151	0xbdd39dfa	-0.10332866
152	0xbdd46d8d	-0.10372458
153	0x3ea5e055	0.32397714
154	0x3f4d9185	0.8030017
155	0xbe245b27	-0.16050397
156	0xbf930513	-1.1485924
157	0x3fa5404d	1.2910248
158	0xbfc2c0be	-1.521507
159	0xbf46f984	-0.7772448
160	0xbe552afe	-0.20817181
161	0x3f0a2b51	0.53972346
162	0xbdcfdf8d	-0.10150061
163	0xbe867f84	-0.26269162
164	0x3f06c5bd	0.52645475
165	0x3f07280e	0.52795494
166	0x3f832ad5	1.0247446
167	0x400730ff	2.1123655
168	0xbf653d5b	-0.89546746
169	0xbf23de00	-0.6401062
170	0x3d9274b7	0.07151168
171	0xbf366986	-0.71254766
172	0xbcc5cf74	-0.024146773
173	0xbe60f48a	-0.21968284
174	0x3e6961bb	0.22791187
175	0x3f47c35a	0.7803246
176	0xbfa3abfd	-1.2786862
177	0xbe699628	-0.22811186
178	0xc05435f8	-3.315794
179	0xbfa80027	-1.3125046
180	0xbba83cf1	-0.005134218
181	0xc0440b0c	-3.0631742
182	0xbf2ac2e6	-0.6670364
183	0x3f9e8132	1.2383177
184	0xbfe9301e	-1.8217809
185	0x3ec2e16e	0.38062614
186	0x3f593386	0.84844244
187	0xbe077201	-0.13227083
188	0xbf4367ea	-0.76330435
189	0x3e3c0fd0	0.18365407
190	0x3f5156b1	0.81772906
191	0xc000cff9	-2.0126936
192	0xbf2df35e	-0.67949474
193	0x3df3458c	0.118784994
194	0xbd65f824	-0.05614485
195	0x3d51d20b	0.051225703
196	0x3fbf8fd7	1.4965771
197	0x3f1bfa8b	0.60929173
198	0x3fd2f5af	1.6481227
199	0xbf120d93	-0.5705196
200	0x40143e88	2.3163166
201	0x3eaacc24	0.33358872
202	0x3f49ebd7	0.7887549
203	0x40341714	2.8139086
204	0x3f2aa079	0.6665111
205	0x3fa37e15	1.2772852
206	0xbdaf9247	-0.08572822
207	0x3c888db6	0.016669136
208	0x3ea6debf	0.32591817
209	0x3e7bcaf3	0.24589138
210	0xbe4f0e8d	-0.20220394
211	0x3edb27cd	0.42803803
212	0x40031b72	2.0485501
213	0xc04e0b43	-3.2194374
214	0xbecb61d2	-0.39723068
215	0x3d03c616	0.03217133
216	0xc02642f3	-2.5978363
217	0x3ed0336e	0.40664238
218	0x400c7080	2.1943665
219	0x3fcbdc49	1.5926601
220	0xbf6806d0	-0.90635395
221	0xbfb4ed51	-1.4134923
222	0x3d42bdc0	0.04754424
223	0x3f972a47	1.1809777
224	0xbf90c310	-1.1309528
225	0xbf07a878	-0.5299144
226	0x3df5bfc9	0.11999471
227	0xbdb41f5c	-0.08795044
228	0x3efcbe9e	0.4936418
229	0xbfd414bc	-1.6568828
230	0x3eac3bc4	0.33639348
231	0xbfc6ce26	-1.5531662
232	0x3ee781ae	0.45216125
233	0x4008c16c	2.1368055
234	0x3d9d57a0	0.07682729
235	0x3e156624	0.14589745
236	0x3b87b523	0.004141466
237	0xbfc37213	-1.5269188
238	0x4030e9de	2.7642741
239	0x3fa20651	1.2658178
240	0xbf93bfaf	-1.1542872
241	0xbdf528c0	-0.11970663
242	0xbea30416	-0.31839055
243	0x3f1d02e6	0.6133255
244	0x3f32515c	0.69655395
245	0x40117265	2.272607
246	0xbe9843ed	-0.29739323
247	0x403430a6	2.8154693
248	0x3f012d84	0.50460076
249	0xbfed8352	-1.8555701
250	0x3f1bbfc5	0.6083949
251	0x3f9f3b3f	1.2439955
252	0xbe5636b9	-0.20919313
253	0x3cfda61a	0.030962992
254	0x400ee3bd	2.23265
255	0x3e7dc55a	0.24782315

bias f4 [64]
0	0xbff9b3db	-1.9508013
1	0xbe9b63e9	-0.30349663
2	0xbf3aafbe	-0.7292441
3	0xbf9fb193	-1.2476066
4	0xbdd4843d	-0.10376785
5	0x3fcc8aae	1.5979822
6	0x3fd0c742	1.6310809
7	0xbe50ce4b	-0.20391195
8	0x3dbf65d5	0.09345595
9	0x3f9e5d63	1.2372249
10	0xbf84868b	-1.0353559
11	0xbe162ce5	-0.14665563
12	0xbfa902a6	-1.3203933
13	0x3f519a84	0.818764
14	0x3ebba243	0.36647233
15	0xbf134520	-0.5752735
16	0x3f177564	0.591635
17	0xbf50ecdf	-0.81611437
18	0xbed6e74d	-0.41973343
19	0xbf0961f6	-0.536651
20	0xbeee0fe2	-0.46496493
21	0xbe228b2d	-0.15873404
22	0x3f561e24	0.8363974
23	0x3e8ce536	0.27518624
24	0xc02c1f10	-2.689396
25	0x4002c490	2.0432472
26	0xbe9ee8aa	-0.31036884
27	0x3eb5354b	0.35392222
28	0x3f41eb74	0.757499
29	0xbfcc2fbd	-1.5952069
30	0xbefe3a1f	-0.49653718
31	0xbf2e2d3a	-0.6803776
32	0xbf656a22	-0.8961507
33	0xbe4e6b5e	-0.20158145
34	0x3fd9013e	1.6953504
35	0xbe04c967	-0.12967454
36	0xbe76fdd6	-0.24120268
37	0x3e4be998	0.19913328
38	0xbe706c06	-0.23478708
39	0xbec15b3a	-0.37764913
40	0x3fbd46d3	1.4787239
41	0x3fd2783f	1.6442946
42	0x3f461f23	0.7739126
43	0xbea6c440	-0.32571602
44	0xbe104fba	-0.14092913
45	0x3f45c192	0.7724849
46	0x3ef1c79e	0.47222608
47	0xbe1f9112	-0.15582684
48	0x3f6ed180	0.9328842
49	0xbed1bdb9	-0.4096506
50	0x3fb01ba8	1.375844
51	0x3f005458	0.501287
52	0x3feaae23	1.8334392
53	0xbf1a093e	-0.6017035
54	0x3fbcbe6e	1.4745615
55	0xbf226b22	-0.6344472
56	0xbf9011cf	-1.1255435
57	0x3f5fb133	0.8737976
58	0xbf42305b	-0.75855035
59	0xbe7c68c4	-0.2464934
60	0xbf454d02	-0.7707063
61	0x3f648f1a	0.89280856
62	0x3f39423b	0.72366685
63	0xbf76aec2	-0.9636041

weight f4 [4, 64]
0	0xc0011210	-2.0167274
1	0xbf820cca	-1.0160153
2	0xc0845993	-4.1359344
3	0xbf2e4f5d	-0.6808985
4	0xc0511aa4	-3.267251
5	0xbdfcae78	-0.12337965
6	0xc00156bc	-2.0209188
7	0x3cf89708	0.030345455
8	0x3f79f3cd	0.97637635
9	0xbdf448e6	-0.11927967
10	0x401c3809	2.44092
11	0x3f1caec2	0.6120416
12	0xbf3b2786	-0.7310718
13	0xc04c6f21	-3.1942828
14	0xbfe4426b	-1.7832769
15	0x3fb7fe76	1.437453
16	0x3fcd0760	1.6017876
17	0x3fc53926	1.5408065
18	0x3d53cb4a	0.051707543
19	0xc01f1ebd	-2.486251
20	0xbf801b7b	-1.0008386
21	0x3fbd632f	1.4795893
22	0xc07f48fd	-3.9888299
23	0xc03a382d	-2.9096787
24	0x3fa243be	1.2676923
25	0xbf6348eb	-0.8878314
26	0x3f55d241	0.83523947
27	0x3f1b411f	0.6064624
28	0xc0074b34	-2.113965
29	0x40497064	3.1474848
30	0x401251ab	2.2862346
31	0xbf66e1b6	-0.9018816
32	0xc00f6034	-2.2402468
33	0xbef0e8f9	-0.47052744
34	0xbffb842e	-1.9649713
35	0xbf26de9e	-0.65183437
36	0x3d5799c8	0.05263689
37	0x3e8fd72e	0.28093857
38	0x3cd1d28c	0.025613092
39	0xc028c4fe	-2.6370234
40	0xbf2e732b	-0.6814448
41	0x3fe0f29c	1.7574039
42	0x4049c4c7	3.1526353
43	0x3f74c354	0.9561055
44	0x4098accf	4.771095
45	0x3fe90598	1.8204832
46	0x3f96509d	1.1743351
47	0xbcbd4c8b	-0.023107788
48	0xbeb5f8a2	-0.35541254
49	0xbf2a80ea	-0.6660296
50	0xbe1cd173	-0.15314274
51	0xc0679aa4	-3.6188135
52	0x3d885277	0.06656354
53	0x3fba0f42	1.4535906
54	0xbf123b59	-0.5712181
55	0xbf84fec0	-1.0390244
56	0xbf6a3fc3	-0.9150354
57	0x400cc6ac	2.199626
58	0x408a4dc5	4.3219934
59	0x3ba5004d	0.0050354362
60	0x40008c76	2.008573
61	0xbf314b06	-0.692551
62	0xbef8e2a9	-0.48610428
63	0x3e05d968	0.13071215
64	0xc0348b09	-2.820986
65	0xbe930e99	-0.28722075
66	0x401aae26	2.4168792
67	0xc0850800	-4.1572266
68	0x3f9c71d8	1.2222242
69	0x3f6812cd	0.9065369
70	0xbf9d75df	-1.2301596
71	0xbca3508e	-0.019935872
72	0xbf4daf38	-0.8034549
73	0xc03e7d32	-2.9763913
74	0xbf4e5645	-0.80600387
75	0x3f737975	0.95107204
76	0x3f5663cf	0.83746046
77	0xbf1143ac	-0.56743884
78	0x3f13f33f	0.5779304
79	0xc023e761	-2.5609972
80	0xc084cf38	-4.1502953
81	0xbfa1a2e7	-1.2627839
82	0x404dcc7b	3.2156055
83	0xbf6d0d07	-0.92598003
84	0xc0876392	-4.2309046
85	0x3eb745a6	0.35795325
86	0xbf9116b2	-1.1335051
87	0xbea6c463	-0.32571706
88	0x3f7588aa	0.9591166
89	0xbfbde97f	-1.4836882
90	0x3e85f39b	0.2616242
91	0xc0237049	-2.5537283
92	0x4008eb2a	2.1393533
93	0x40130098	2.2969112
94	0x3e8785af	0.2646918
95	0x3ddf3c52	0.10900177
96	0xc078055e	-3.8753276
97	0x4067ee1c	3.623908
98	0x3effb2de	0.49941152
99	0xbfef00bb	-1.8672098
100	0x40221f35	2.5331547
101	0x402d4eeb	2.7079418
102	0x3dfeac51	0.124352105
103	0x3f113563	0.56722087
104	0x3f3cc25d	0.73734075
105	0xbe7d4ff9	-0.24737538
106	0xbe71f771	-0.23629548
107	0x4047724b	3.116351
108	0x3f364de4	0.712126
109	0x3f344cdb	0.7042977
110	0x3ed9fa7b	0.42573914
111	0xbd2349e7	-0.0398654
112	0xc066c7ce	-3.605945
113	0xbfef91de	-1.871639
114	0x40051353	2.0793045
115	0xc01dee02	-2.4676518
116	0x3ec3e76f	0.38262507
117	0x4044ceef	3.0751302
118	0xbefc3e97	-0.49266502
119	0xc016e5a5	-2.3577664
120	0x4067d95e	3.622642
121	0x3f35f089	0.7107015
122	0x3f6ddf4c	0.9291885
123	0x3cd99d17	0.026564164
124	0x40438e05	3.0555432
125	0x3f4de4ca	0.8042723
126	0x3f12c16e	0.573264
127	0x3fda699f	1.7063483
128	0xc052d390	-3.2941628
129	0x3eeb4761	0.45952895
130	0xbfcf275b	-1.6183885
131	0x3f9f7a48	1.2459192
132	0x3ebeeccd	0.3729004
133	0x40844e55	4.134562
134	0x3f50f5cc	0.81625056
135	0x3e279d7e	0.16368672
136	0xbfd47de7	-1.6600922
137	0xc013eb24	-2.3112268
138	0x3f014e1d	0.50509816
139	0x3f9528e2	1.1653101
140	0x3f658f64	0.8967192
141	0x3eca2def	0.3948817
142	0xc07aee9d	-3.9208138
143	0x3eb0b2fa	0.34511548
144	0x3f09038f	0.53521055
145	0xbfe127c4	-1.759026
146	0x3f0e9ea8	0.5571084
147	0xbf56b613	-0.83871573
148	0x3fbf39c2	1.4939501
149	0xbf1384fd	-0.576248
150	0x3f725774	0.9466469
151	0x3974d82f	0.00023350188
152	0x3f83e5af	1.0304469
153	0x401fe8c1	2.4985812
154	0x3f49d8f0	0.78846645
155	0xbe5f8ad0	-0.21830297
156	0xbe372f3a	-0.17889109
157	0x3fafbfbd	1.3730389
158	0x3d79dfb8	0.06100437
159	0x3f7ae548	0.98006105
160	0x3f8979da	1.0740311
161	0xbf28168f	-0.6565942
162	0xbfc99f3a	-1.5751717
163	0x3f8447fe	1.033447
164	0x3f23490d	0.6378334
165	0xc009c167	-2.1524293
166	0x3c40b238	0.011761241
167	0x3f59f1ad	0.8513439
168	0xbfce49b8	-1.6116247
169	0xbf99460d	-1.1974503
170	0x3f09fca8	0.5390115
171	0x3f9db074	1.2319474
172	0xbf71b3f3	-0.94415206
173	0xbe272a07	-0.16324626
174	0xbf291edf	-0.6606273
175	0xbb4658eb	-0.0030265402
176	0x3ce2ed90	0.02770117
177	0xc09763b9	-4.730923
178	0x3ea87d38	0.32908034
179	0x4055a1ec	3.338008
180	0xbff70739	-1.9299079
181	0xc0454db8	-3.0828686
182	0xc015fdc2	-2.3436131
183	0x3fdaa4bc	1.7081523
184	0xc006c165	-2.1055539
185	0xbdab6e5d	-0.083706595
186	0x3e060042	0.13086036
187	0xbdd6b67d	-0.104840256
188	0x4096afa4	4.7089405
189	0x400fa32b	2.244334
190	0xbfb296ee	-1.395231
191	0x401fe89d	2.4985726
192	0xbfa18b22	-1.2620585
193	0xbfbbbea6	-1.4667556
194	0xbfdb09b0	-1.7112331
195	0xbfe79ed6	-1.8095348
196	0xbec8f27e	-0.39247507
197	0x3f16531e	0.58720577
198	0xc01cfcb2	-2.4529233
199	0xbd142703	-0.036170017
200	0xc0107898	-2.2573605
201	0xbf723550	-0.946126
202	0xbe3ccf46	-0.18438444
203	0xbf902731	-1.126196
204	0x3f814a9b	1.0100893
205	0xbfc2040a	-1.5157483
206	0xc05a5dbb	-3.4119709
207	0x3fdded1a	1.7337983
208	0xbd4f0467	-0.050541308
209	0x3e8c590c	0.27411687
210	0xbf73c7c6	-0.95226705
211	0xbf73b1cd	-0.9519318
212	0xc006e6be	-2.1078334
213	0xbfb30887	-1.3986977
214	0x3e5a274d	0.21304055
215	0xbf3ea0b0	-0.7446394
216	0xbfa83b67	-1.3143128
217	0x3fbe3b1a	1.4861786
218	0x3f418358	0.7559104
219	0xbdb4e5b0	-0.08832872
220	0x3fa04b01	1.2522889
221	0xbf952f11	-1.1654989
222	0xc02d6a59	-2.709616
223	0x3ed10ebd	0.40831557
224	0xbf897317	-1.0738248
225	0xbff76c0d	-1.932985
226	0x3f24b66b	0.6434085
227	0xbf613394	-0.87969327
228	0xbe37fd08	-0.17967618
229	0xbf849d41	-1.036049
230	0xbde3159a	-0.110881045
231	0x3f8e6139	1.112342
232	0xbedd8809	-0.4326785
233	0xbf60f848	-0.8787885
234	0xbf4ea763	-0.8072416
235	0x3f8801b1	1.0625516
236	0xbf2c5aba	-0.6732594
237	0xbf947825	-1.1599165
238	0xbffb19db	-1.9617265
239	0xbd6b358e	-0.05742412
240	0xc01db5b4	-2.4642153
241	0x3ff5381b	1.9157747
242	0xbfc63c58	-1.5487165
243	0x3ddc1183	0.107455276
244	0xbf7f8374	-0.99809957
245	0x3e3893c0	0.18025112
246	0xbfc68444	-1.5509114
247	0x3f3fcfe5	0.74926597
248	0xbf1118eb	-0.56678647
249	0xc00d2f4b	-2.2060115
250	0xbfb38b26	-1.402684
251	0x3c865069	0.016395764
252	0xbfc34a00	-1.5256958
253	0xbf49c1fe	-0.78811634
254	0x3ec95ff5	0.39331022
255	0xbedf507b	-0.4361609

bias f4 [4]
0	0xbf360b56	-0.7111105
1	0x3db2f71f	0.08738541
2	0xbf8ce5e0	-1.1007652
3	0xbdec1325	-0.11527089

weight f4 [64, 32]
0	0xbe4e11bd	-0.20123954
1	0xbf0fb98a	-0.56142485
2	0xbea320b6	-0.31860894
3	0xbdac96b0	-0.08427179
4	0xbe2af7f4	-0.16696149
5	0x3dd799d5	0.10527388
6	0x3f28ad87	0.6588978
7	0x3fb976cc	1.4489379
8	0x3e041854	0.12899905
9	0x3edaf87d	0.42767707
10	0xbf161596	-0.5862669
11	0xbecc6202	-0.39918524
12	0xbeed3b52	-0.4633432
13	0x3d1ac5a7	0.037786152
14	0xc0bb37a7	-5.8505435
15	0xbff5cd44	-1.9203267
16	0xbffd3e47	-1.978463
17	0xbfab561b	-1.3385652
18	0x3e6991ad	0.22809477
19	0x3f79bd4a	0.9755446
20	0xc1061173	-8.37926
21	0xbf2db82e	-0.6785916
22	0xc01906da	-2.3910432
23	0xbfe9d083	-1.8266758
24	0xc007fdb1	-2.124859
25	0xbf7d62b9	-0.98978764
26	0xbf223130	-0.63356304
27	0x3eb642dc	0.35597885
28	0xbd7f17ca	-0.062278546
29	0xbec51815	-0.38494936
30	0xb9a9c41d	-0.00032380308
31	0x3e9f92de	0.31166738
32	0x3f64dd9d	0.89400655
33	0x3ddd6324	0.10809925
34	0xbe9babc6	-0.3040449
35	0x3f95c3f5	1.1700426
36	0x3df71f59	0.12066526
37	0xbe3c79b4	-0.18405801
38	0x3f0b5155	0.5442098
39	0x3ec59561	0.3859053
40	0x3ec21d63	0.37913045
41	0xbfef78fb	-1.8708795
42	0x4011ccf1	2.2781336
43	0xbd52c6f1	-0.051459257
44	0xbea9668c	-0.3308605
45	0xbe19b9bb	-0.15012257
46	0xc0c7deee	-6.245963
47	0xc06d8b33	-3.711621
48	0xc0934bad	-4.602988
49	0xbdca48af	-0.098771445
50	0x3c5f1052	0.013614731
51	0x3de1235c	0.109930724
52	0xc0c5450b	-6.164678
53	0xc07ca0f0	-3.9473228
54	0xc0914884	-4.540102
55	0x3efd80ca	0.4951232
56	0x3fc8357b	1.5641321
57	0x3e717808	0.23580945
58	0x3f3f878c	0.74816203
59	0x3f2c81fd	0.67385846
60	0x3ca5842e	0.02020463
61	0x3bea66b5	0.007153357
62	0xbd17f51f	-0.037099
63	0x3c05dc5f	0.008170216
64	0xbfb11f0d	-1.3837601
65	0x3d2110b1	0.03932256
66	0x3f9214c3	1.1412586
67	0xbeba1533	-0.363443
68	0xbe56ea59	-0.20987834
69	0x4060968f	3.5091894
70	0xbfa1d4d1	-1.2643071
71	0xbec9b5ec	-0.39396608
72	0x40462c39	3.0964491
73	0x3ffd0dd9	1.9769851
74	0xc00ee696	-2.2328238
75	0x3d7d6a75	0.061869103
76	0x3df78962	0.120867506
77	0x3d4ec419	0.050479982
78	0xbebfb859	-0.37445334
79	0xc039933a	-2.899611
80	0xbf5b9e83	-0.85788745
81	0x3e406826	0.1878973
82	0xbe81c325	-0.25344196
83	0x3d74ecb1	0.05979604
84	0xbf3dae3a	-0.74093974
85	0xc00e54e6	-2.2239318
86	0xbfbd2cf2	-1.4779341
87	0x3fe28e6d	1.7699715
88	0xbd6fb8f4	-0.058525994
89	0xbf9479f3	-1.1599716
90	0xbce2c4db	-0.027681759
91	0xbf8d9302	-1.1060488
92	0xbbdbf26b	-0.006712248
93	0x3cac0172	0.020996783
94	0x3c4ff440	0.012692511
95	0x3d4e18a6	0.050316475
96	0x3f0b7f39	0.54491
97	0xbe0c7719	-0.13717307
98	0xbeaaa404	-0.3332826
99	0x3eb42b96	0.35189503
100	0xbed15de2	-0.4089194
101	0xbf05faf8	-0.5233607
102	0x3f1afe88	0.60544634
103	0xbd6ac106	-0.057312988
104	0xbc9f0776	-0.019412737
105	0x40c57d2c	6.17153
106	0xc11fbabc	-9.983089
107	0x3c1b830a	0.009491691
108	0xbdd56620	-0.104198694
109	0xbd321a03	-0.043481838
110	0xc0e910a3	-7.283281
111	0xc024f7e3	-2.5776298
112	0xc0b6aa67	-5.708301
113	0xbd5a562d	-0.05330484
114	0x3d6c1859	0.057640407
115	0x3da8dd8a	0.0824538
116	0xc0e61a63	-7.190721
117	0xc025fdc5	-2.5936139
118	0xc0c36059	-6.105511
119	0x3d659ba2	0.056056626
120	0xbd724cd1	-0.05915529
121	0xbe837841	-0.25677684
122	0x3ec57d95	0.38572374
123	0xc07dd7f9	-3.966307
124	0x3c3c0ea1	0.011478097
125	0x3bb66afa	0.005566952
126	0xbc42a994	-0.011881251
127	0x3a432881	0.0007444695
128	0x3ed7016b	0.4199327
129	0xbe7246d3	-0.2365983
130	0x3f95a201	1.1690065
131	0x3c7451aa	0.014912048
132	0xbf0b497a	-0.5440899
133	0x3fdfb3e3	1.7476772
134	0xbf336cb9	-0.7008777
135	0x3ec90464	0.39261162
136	0x3fd0757c	1.6285853
137	0x402ef853	2.7339065
138	0xc0282b7b	-2.6276538
139	0x3f30959c	0.68978286
140	0x3f8722ec	1.0557532
141	0x3ed499be	0.41523546
142	0x4001f04b	2.0302913
143	0x3e5c74a5	0.21528871
144	0xbf44b696	-0.76841104
145	0xbd65c9b0	-0.056100547
146	0x3d4ee069	0.050506983
147	0x3e5b48e8	0.2141453
148	0x3ffa2767	1.9543275
149	0x3e834be1	0.2564383
150	0xbf554fb2	-0.8332473
151	0xbebf8f8f	-0.37414214
152	0xbf567954	-0.8377888
153	0x3f172b05	0.5905002
154	0xc027ef01	-2.6239626
155	0xbf3bd193	-0.7336666
156	0x3c7b0f03	0.015323403
157	0xbccdc437	-0.025117977
158	0xbc58aeab	-0.013225238
159	0xba9d66ef	-0.0012008826
160	0x3f65da59	0.897863
161	0x3db330d1	0.08749545
162	0xbed6b911	-0.4193807
163	0x3f8d5d43	1.1044086
164	0x3dc683f4	0.09693137
165	0xbf737969	-0.9510713
166	0x3f7c0e82	0.9845964
167	0x3f22422a	0.6338221
168	0xbf4ed05f	-0.807867
169	0xc014d522	-2.3255086
170	0x4005e8db	2.0923374
171	0x3de93b3d	0.11388252
172	0x3ce9b83c	0.028530233
173	0xbd9330a2	-0.0718701
174	0xc159a076	-13.601675
175	0x3f16fc2c	0.58978534
176	0xc086d720	-4.2137604
177	0x3b523402	0.0032074456
178	0x3dae9736	0.08524935
179	0x3d83cdfa	0.06435771
180	0xc15c8652	-13.782793
181	0x3f182896	0.5943693
182	0xc080f2bd	-4.029631
183	0xbdf030cf	-0.117280595
184	0x3eb383ed	0.3506159
185	0xbfd354ac	-1.6510215
186	0xbea752f4	-0.32680476
187	0xbe032a54	-0.12809116
188	0xbc0075d1	-0.00784059
189	0xbb8d0068	-0.004303027
190	0x3c29d3aa	0.010365406
191	0xbb1a187e	-0.0023513134
192	0xbf34b579	-0.70589405
193	0x3ea66319	0.3249748
194	0xbf7026a3	-0.93808955
195	0xbf486973	-0.782859
196	0x3e1aece2	0.15129426
197	0xbea856bd	-0.32878676
198	0x3da913a8	0.08255702
199	0xbf9c9971	-1.2234327
200	0x3fa12299	1.2588683
201	0x41811942	16.137333
202	0xc1c04b6d	-24.036829
203	0x3c342000	0.0109939575
204	0x3dec61a5	0.11542062
205	0x3d4c565e	0.049887054
206	0xc1099e1a	-8.601099
207	0x40e9042b	7.281759
208	0x406f814d	3.742267
209	0x3d0a2149	0.03372315
210	0x3d323079	0.04350326
211	0xbe13c20d	-0.14429493
212	0xc1087e99	-8.530908
213	0x40f79651	7.737099
214	0x405b3713	3.4252365
215	0xbfcc6e10	-1.5971088
216	0xc026e4ee	-2.6077228
217	0xbd634e63	-0.055494677
218	0x3f170406	0.58990514
219	0xbfae18cc	-1.3601317
220	0xbdb2846c	-0.08716664
221	0x3c8f466d	0.017489636
222	0xbe0358c3	-0.12826829
223	0xbd35bb7f	-0.044368263
224	0x3e230486	0.15919694
225	0xbf688167	-0.9082245
226	0x3ee4e2df	0.4470434
227	0xbf60be52	-0.87790406
228	0xbfdea32a	-1.7393544
229	0x3f602174	0.87551045
230	0xbef1ccda	-0.47226602
231	0xbfe69318	-1.801364
232	0x3f0dde47	0.55417293
233	0x40a0d2cb	5.0257316
234	0xc0af94cc	-5.4869137
235	0xbee739e6	-0.4516136
236	0x3f0484b7	0.51765007
237	0xbd384c47	-0.04499462
238	0xc136fc8a	-11.436655
239	0xc0cfdbb1	-6.495568
240	0x3f67c7ac	0.9053905
241	0x3d2297c6	0.039695524
242	0x3c23e7f2	0.010004031
243	0xbd8fb8aa	-0.07017644
244	0xc13f50ba	-11.957209
245	0xc0c741e7	-6.2267947
246	0x3f7086e6	0.9395584
247	0x3eb5bd5d	0.35496035
248	0x3e2f8c90	0.17143464
249	0x3f23684a	0.6383101
250	0xbf195df1	-0.5990897
251	0x3f79f955	0.97646075
252	0x3beb417f	0.0071794386
253	0x3c8faad6	0.017537516
254	0x3b07c35c	0.0020715808
255	0xba22d7b6	-0.0006211953

bias f4 [64]
0	0xbf9304dc	-1.1485858
1	0xbf8a1d78	-1.0790243
2	0x3f6a1d71	0.91451174
3	0x400c187c	2.1889944
4	0x3ed3a4f2	0.4133678
5	0x3f538aa6	0.82633436
6	0xbfe9104a	-1.8208096
7	0x3f894e11	1.0726949
8	0xbe5d0fab	-0.21588008
9	0x3e2c319f	0.16815804
10	0xbfaa25d2	-1.3292792
11	0xbf6dfc4e	-0.9296311
12	0xbd31bf66	-0.043395422
13	0xbc8071eb	-0.01567932
14	0xbac4cc26	-0.0015014454
15	0xbd4a612b	-0.049409073
16	0x3e7591e4	0.23981434
17	0xbe5b5eb8	-0.21422851
18	0x3d87cf5c	0.066313475
19	0x3eb56129	0.3542569
20	0xbea37a6a	-0.31929332
21	0x3e541597	0.20711361
22	0x3f0a5061	0.540289
23	0x3ebec053	0.37256107
24	0xbfa5ba4e	-1.2947481
25	0x3dab0528	0.08350593
26	0xbea1727a	-0.3153265
27	0x3e58479c	0.21121067
28	0x3f13c0ab	0.57715863
29	0xbec283fb	-0.37991318
30	0xbed1f149	-0.41004398
31	0xbe55d67a	-0.20882598
32	0x3f2a83c2	0.66607296
33	0x3efebdbd	0.49754134
34	0x3e78bddf	0.2429118
35	0x3dd74c3a	0.10512586
36	0x3e84f9c2	0.259718
37	0xbf1bb39f	-0.60820955
38	0x3f13d0d7	0.5774054
39	0xbfd5608d	-1.667009
40	0x3fe1dc17	1.7645291
41	0xbf0946fe	-0.5362395
42	0xbf2dc21e	-0.67874324
43	0x3f63cdd2	0.8898593
44	0x40165861	2.3491442
45	0xbeab738b	-0.3348659
46	0x3f2e65ba	0.6812397
47	0x3e1d8a3e	0.15384766
48	0xbdc7b5cc	-0.09751472
49	0x3ee199a7	0.4406254
50	0xbea232e7	-0.3167946
51	0x3dce14a3	0.1006253
52	0x3f96edd9	1.1791335
53	0xbdf625a7	-0.120189
54	0x3df4e402	0.119575515
55	0xbe206e84	-0.15667158
56	0xbf32f90f	-0.69911283
57	0xbe4c5988	-0.19956028
58	0x3e64fef4	0.22362882
59	0xbe942adc	-0.2893895
60	0x3effa52a	0.49930698
61	0xbf918f36	-1.137183
62	0xbf418d11	-0.75605875
63	0xbe895c43	-0.26828203

weight f4 [64, 64]
0	0xbfb77fa3	-1.4335827
1	0x3d0a49e7	0.033761885
2	0xbf8afedb	-1.0859026
3	0x3f623f54	0.8837788
4	0xbf541134	-0.8283875
5	0xc0171a5e	-2.3609843
6	0xbf746848	-0.9547162
7	0xbe12965c	-0.1431517
8	0xc0083f53	-2.128865
9	0x403c2eac	2.9403486
10	0x3dc13c78	0.094353616
11	0xbe8e690b	-0.27814516
12	0x3efe0f89	0.49621227
13	0x3f359952	0.70937073
14	0xbf73f63c	-0.952976
15	0xbe5ccd1d	-0.2156262
16	0x3e5e3a44	0.21701914
17	0x3f282eec	0.656966
18	0x3f215eee	0.63035476
19	0xc040573e	-3.0053248
20	0xbf9bc29a	-1.2168763
21	0x3d2415d8	0.040059894
22	0xbe49ace3	-0.19694857
23	0xbeff639c	-0.49880683
24	0xbf97a456	-1.1847026
25	0x3f026c48	0.50946474
26	0xbfb134d4	-1.3844247
27	0x3c1fc7cd	0.009752226
28	0xc00729dd	-2.1119301
29	0xbe31dd76	-0.17369637
30	0xbea26867	-0.31720278
31	0xbf08eb2b	-0.5348384
32	0xbedfc7ee	-0.43707222
33	0xbf155f9d	-0.5834902
34	0x3f99a686	1.2003944
35	0xbf18304d	-0.594487
36	0x3c5f7713	0.013639229
37	0x3da43532	0.08017959
38	0xbeb12bc9	-0.34603718
39	0x3f05b58e	0.52230155
40	0xc053ef53	-3.3114822
41	0xc03493dd	-2.8215249
42	0x3f80c3d6	1.0059764
43	0xbe71548a	-0.23567405
44	0x3fe8eba9	1.8196918
45	0xbf7d76b8	-0.99009275
46	0xbd883c5e	-0.06652139
47	0xbcc121b9	-0.02357565
48	0x4020d3b9	2.5129225
49	0xbdca5d04	-0.098810226
50	0xbfb27c27	-1.3944138
51	0xbf7210bb	-0.9455678
52	0xc03d0252	-2.9532666
53	0xbe9dc704	-0.308159
54	0x403c64ea	2.9436593
55	0x3dee3f3d	0.116331555
56	0x3f8bff2e	1.093725
57	0x3f409112	0.7522136
58	0x3f19430f	0.5986795
59	0x3e477e74	0.19481832
60	0xbf1ef577	-0.620933
61	0xbf93b5d4	-1.1539865
62	0x3e5896eb	0.2115132
63	0xbf88575e	-1.0651662
64	0x3d1a46f9	0.03766534
65	0xbe3302bd	-0.17481513
66	0xbf68364c	-0.9070785
67	0xbe975e8d	-0.29564324
68	0xc00b2691	-2.174229
69	0xbf6196d0	-0.88120747
70	0xbfa6fafc	-1.3045344
71	0xbfcbf21c	-1.5933261
72	0xbd227884	-0.039665714
73	0x3f835e0b	1.0263075
74	0xbede0011	-0.43359426
75	0xc0535c7b	-3.3025196
76	0xbed2648d	-0.4109234
77	0xbf463f47	-0.77440304
78	0xc0541f9f	-3.31443
79	0xbf72c2cc	-0.94828486
80	0xbf0332b7	-0.5124926
81	0x3dbecdaa	0.09316571
82	0xbe7a8435	-0.24464495
83	0xc0347b2c	-2.8200178
84	0xbf108598	-0.5645385
85	0xbf116ef1	-0.5680991
86	0xbf91110b	-1.1333326
87	0xbf23ea17	-0.6402907
88	0xbd382a37	-0.044962134
89	0xbfeda090	-1.8564625
90	0xbfd03563	-1.6266292
91	0xbdc084b8	-0.09400314
92	0xbcb91626	-0.022593569
93	0x3e447317	0.19184528
94	0xbdc4f587	-0.09617143
95	0xc00d28bd	-2.2056115
96	0x3f88b5eb	1.0680517
97	0xc01b14ce	-2.4231448
98	0x3ed5db48	0.4176886
99	0x3e92e04b	0.28686747
100	0x3bed071b	0.007233513
101	0xbf74fc16	-0.9569715
102	0xc04c9b5e	-3.1969829
103	0x3e35ab1e	0.17741057
104	0x3d996701	0.074903496
105	0xbece7ee5	-0.40331188
106	0x3e300794	0.17190391
107	0xbfa431bb	-1.2827677
108	0x3ee53567	0.44767305
109	0xc0012da9	-2.0184119
110	0xbf3777e1	-0.71667296
111	0xbcb8c4cf	-0.022554783
112	0xc0264566	-2.5979857
113	0xbf9405b2	-1.1564238
114	0xbfb7c5df	-1.435726
115	0xbf3358eb	-0.70057553
116	0xbffbec36	-1.9681461
117	0xbfb076a5	-1.3786207
118	0x3b7fd6d2	0.0039037955
119	0x3e172606	0.14760599
120	0x3f1ef10b	0.6208655
121	0xbf4702d4	-0.7773869
122	0xbcda97be	-0.026683684
123	0xbf1db480	-0.61603546
124	0xbf609346	-0.8772472
125	0xc01f882a	-2.4926858
126	0xbf62044e	-0.8828782
127	0xbf786e54	-0.9704335
128	0x3d6869e7	0.05674162
129	0x3ccc9ace	0.02497616
130	0xbbffd7b0	-0.0078076944
131	0xbdca96a2	-0.09892012
132	0x3d07da56	0.033167206
133	0xbe3b09e3	-0.1826549
134	0xbd0fa8c0	-0.035073042
135	0x3da91850	0.0825659
136	0xbd6e6353	-0.05820019
137	0xbc72019c	-0.0147708915
138	0xbda36296	-0.07977788
139	0xbe18ae49	-0.14910235
140	0xbd877ef7	-0.066160135
141	0xbd7fd657	-0.06246027
142	0xbdccea9c	-0.10005686
143	0xbc964fd2	-0.018348608
144	0xbc45d426	-0.012074506
145	0xbe295763	-0.16537242
146	0xbd209eaa	-0.039213814
147	0xbe094b11	-0.13407542
148	0xbd012ae7	-0.031535055
149	0xbe221077	-0.15826593
150	0xba794fb4	-0.0009510473
151	0xbb284f28	-0.0025681946
152	0x3c54a2a4	0.01297823
153	0xbe3eadf5	-0.18621047
154	0x3cc324c9	0.023821251
155	0xbd8c3735	-0.068464674
156	0xbe436311	-0.1908076
157	0xbbcbe3e5	-0.0062222355
158	0x3d45c984	0.048287883
159	0xbc03415a	-0.0080111865
160	0xbdceb392	-0.10092844
161	0xbddc566b	-0.107586704
162	0xbcb954d0	-0.02262345
163	0x3bc347f7	0.0059595066
164	0xbe29c2d5	-0.16578229
165	0xbdb50d2c	-0.08840403
166	0xbda38471	-0.079842456
167	0xbc718360	-0.014740795
168	0xbd8ee984	-0.06978133
169	0xbdd66b3e	-0.104696736
170	0xbd922823	-0.07136562
171	0x3c7cfc97	0.0154410815
172	0x3cc79734	0.024364091
173	0xbd0f35c9	-0.034963403
174	0xbd967105	-0.073457755
175	0xbd63abde	-0.055583827
176	0xbce5023f	-0.027955173
177	0xbdc29b35	-0.0950226
178	0x3c2215cb	0.009892891
179	0x3d8ed900	0.06974983
180	0xbde7d265	-0.113194264
181	0xbe275300	-0.16340256
182	0xbe03d0f0	-0.12872672
183	0xbe6be080	-0.23034859
184	0xbcc40d72	-0.023932192
185	0xbada45a6	-0.0016652837
186	0xbdac7e93	-0.084225796
187	0x3dc36fa4	0.09542778
188	0xbdebfff2	-0.11523427
189	0x3db3bf95	0.08776776
190	0xbe0e0d6c	-0.13872308
191	0xbe49a5a1	-0.19692089
192	0x3d83976f	0.06425368
193	0xbdb89976	-0.09013645
194	0xbd351249	-0.04420689
195	0x3d40a352	0.047030754
196	0xbd3bffc9	-0.045898233
197	0xbd401f2e	-0.046904735
198	0x3cde9828	0.027172163
199	0x3df37b90	0.11888802
200	0xbd58fdc5	-0.05297639
201	0xbcc66f8c	-0.024223112
202	0xbd110f54	-0.03541501
203	0x3af8d440	0.0018984154
204	0x3c3caabb	0.011515315
205	0x3cbf524d	0.023354674
206	0xbdf5952d	-0.11991344
207	0xbdce577e	-0.100752816
208	0x3ce2dc79	0.02769302
209	0xbe19ed7b	-0.15031998
210	0xbe1f30a4	-0.15545899
211	0xbdab71b7	-0.08371299
212	0xbdfaccad	-0.1224607
213	0xbe1fca44	-0.15604502
214	0xbc3a2e53	-0.011363584
215	0xbb22b86c	-0.0024829162
216	0x3a0f6d14	0.0005471271
217	0xbb708f17	-0.0036706382
218	0xbd16b50e	-0.03679376
219	0x3d57e134	0.052705005
220	0xbb1033f1	-0.0022003616
221	0xbe1b68fd	-0.15176769
222	0x3d9e1fad	0.077208854
223	0xbca0ad83	-0.019613987
224	0x3d45c8cb	0.048287194
225	0x3d060482	0.032719143
226	0xbd8d7966	-0.069079205
227	0xbd926477	-0.071480684
228	0xbd70318e	-0.05864101
229	0xbe1191dd	-0.14215799
230	0xbda6af61	-0.081389196
231	0xbddf8f58	-0.109160125
232	0xbb836f9d	-0.004011108
233	0x3c5f5900	0.013632059
234	0x3cca2656	0.024676483
235	0xbe371c56	-0.17881903
236	0xbb4a368c	-0.0030855266
237	0xbb527ea9	-0.0032118952
238	0xbd060857	-0.032722797
239	0xbe60a323	-0.21937232
240	0xbd1e29f9	-0.038614247
241	0xbd96ef35	-0.07369844
242	0xbd9cb80b	-0.07652291
243	0xbda581fa	-0.08081432
244	0xbdba83f0	-0.09107196
245	0xbd8a7cea	-0.06762107
246	0xbd10696e	-0.035256796
247	0xbdf1622a	-0.117863014
248	0x3d35c0cb	0.044373315
249	0xbdadd778	-0.08488363
250	0xbdf3047b	-0.11866089
251	0xbb5668c0	-0.0032716244
252	0xbd9aba37	-0.07555049
253	0xbdda3bb6	-0.1065592
254	0x3e072c85	0.13200577
255	0xbd892d21	-0.06698061

bias f4 [64]
0	0x3b8d1a6c	0.0043061282
1	0x3e2c892e	0.16849205
2	0xbe48185f	-0.19540547
3	0xbe3d414c	-0.1848194
4	0x3fd4c36d	1.6622139
5	0xbee25b23	-0.44210157
6	0xbe47e2a2	-0.19520047
7	0x3f9bf922	1.2185404
8	0xbe3f1f90	-0.18664384
9	0x3fc248fd	1.5178524
10	0xbe9671ce	-0.293837
11	0xbefdf8c9	-0.4960387
12	0x3f4aba2e	0.7919034
13	0x3f0b7f13	0.54490775
14	0xbe5e66a4	-0.21718842
15	0x3f01c5b6	0.5069231
16	0xbf158338	-0.5840335
17	0x3f5a4b86	0.8527149
18	0x3f563995	0.83681613
19	0x3f010cac	0.5040996
20	0xbda4ba37	-0.0804333
21	0x3d397803	0.045280468
22	0x3f5088f4	0.81458974
23	0xbed75e2a	-0.4206403
24	0xbde6a581	-0.11262036
25	0xbd820872	-0.06349267
26	0x3fd995a8	1.6998796
27	0xbe655159	-0.22394313
28	0x3f0c9fa1	0.54931074
29	0x3f39cd42	0.72578824
30	0xbdeb6a6d	-0.114949085
31	0xbd47694e	-0.04868441
32	0xbd96143b	-0.073280774
33	0xbeec05b3	-0.46098098
34	0x3f743a2b	0.9540126
35	0x3f161414	0.58624387
36	0x3dcc1721	0.09965349
37	0x3ea67cff	0.3251724
38	0xbe84c9c5	-0.25935188
39	0xbcbe26a9	-0.023211794
40	0x3e784ec4	0.24248797
41	0x3f1a2185	0.60207397
42	0xbf999a79	-1.2000266
43	0x3f5784e3	0.84187144
44	0xbefeca45	-0.49763694
45	0xbfa62716	-1.2980678
46	0x3d156487	0.036472823
47	0x40032aaf	2.0494802
48	0x3f007a74	0.5018685
49	0x3f28999b	0.65859383
50	0xbf0d2259	-0.55130535
51	0x3e9b48d9	0.30329016
52	0x3f6a1cd4	0.9145024
53	0x3f8bef63	1.093243
54	0x3ec1e8d2	0.3787294
55	0xbe5b2c40	-0.21403599
56	0xbec7fb9c	-0.3905915
57	0xbf2f5f78	-0.6850505
58	0xbcaeec33	-0.021352863
59	0xbe64cc12	-0.22343472
60	0x3fbb8386	1.4649513
61	0xbd6e5c00	-0.058193207
62	0xc03383d4	-2.8049212
63	0x3f78c3b3	0.97173613
