ddpg/models.pt (torch, 84799 bytes, 15 tensors)

weight f4 [64, 13]
000000 44 35 be 3e 79 9e 22 3f 33 9e f5 bd a6 cc 02 bf
       0.37150013 0.6352306 -0.11993065 -0.5109352
000010 47 38 d7 be 78 d6 86 3e 8d d1 e0 be 9a 8f 57 be
       -0.42035124 0.26335502 -0.43909875 -0.21050873
000020 35 9e 09 bf c3 4e 40 be ad c5 bb 3e 7f 4e ab bf
       -0.5375703 -0.18780045 0.36674252 -1.338333
000030 26 f8 1b bf a9 17 3c be e9 25 ea bd 70 54 28 3c
       -0.6092552 -0.183684 -0.11433012 0.010274038
000040 37 8e e0 3d 0e 69 2a 3e 28 8a 40 be 3b 59 f7 bd
       0.10964625 0.16641638 -0.18802702 -0.12077566
000050 e2 4f ce 3d e8 d5 6b 3e 5b cb 69 bd 81 86 54 3e
       0.1007383 0.23030818 -0.0570787 0.20754434
000060 c6 1b 37 bd 46 6a f0 3c 7a f7 dd 3e a8 de 99 be
       -0.04470422 0.02934755 0.43352872 -0.30052686
000070 93 5b 38 3e 11 ee ba be 13 31 13 be 9d d1 02 3f
       0.18003683 -0.36509755 -0.14374189 0.51101094
000080 02 75 a1 be 86 4a 79 be cb 3d af be 84 92 05 be
       -0.31534582 -0.24344835 -0.34226832 -0.13044173
000090 93 b0 99 3d df 45 52 be 43 fc 2c bc 27 44 6a 3d
       0.07504382 -0.20534466 -0.010558191 0.0571939
0000a0 d1 20 47 bc 25 a4 6a be 53 ef eb 3c 41 f8 d2 be
       -0.01215382 -0.22914179 0.028800642 -0.41205028
0000b0 93 37 92 be 52 ca 99 be 98 39 ba 3d c2 40 11 3e
       -0.28558025 -0.3003717 0.090930164 0.1418486
0000c0 97 f6 38 be ac 0f f2 3d f6 8f 2b 3f bf 1c 8e 3e
       -0.18062817 0.118193954 0.6701654 0.27756307
0000d0 6f a0 66 3b 32 d5 7d be b2 e2 ca 3d 23 ed 99 bd
       0.003519084 -0.24788359 0.0990652 -0.07515933
0000e0 1e 25 f9 3e 17 9f dd be 52 fe d1 be 8e 44 09 bf
       0.4866113 -0.43285438 -0.41014344 -0.5362023
0000f0 45 05 13 3f 19 b1 a3 3f c6 d5 89 bf 5f 8b 41 3f
       0.57429916 1.2788421 -1.0768363 0.7560329
000100 93 fe 93 3f b2 82 f1 bd 3f 42 3f 3c c0 98 90 be
       1.1562065 -0.11792506 0.011673509 -0.2824154
000110 4b dd cb 3d 9b bc 94 3e 64 09 b6 be d0 a2 9e 3e
       0.09954318 0.29050145 -0.3555404 0.3098359
000120 62 20 9c 3e fc 04 6e 3e d5 17 cd 3f f0 65 51 bf
       0.30493456 0.23244089 1.6022898 -0.8179617
000130 4d fe e1 be 33 1a 36 be d0 7f d8 3e 5d 58 9a be
       -0.4413933 -0.17783432 0.42285013 -0.3014554
000140 0c 60 be be 10 59 86 3e 96 bc 84 3e f3 3f 77 bf
       -0.37182653 0.26239824 0.2592513 -0.96581954
000150 79 59 21 be 7b df cd be 15 58 56 be 56 75 a1 bc
       -0.15756787 -0.40209565 -0.20932038 -0.01970927
000160 02 5b b0 3d b2 24 35 bf d6 a4 13 bf f8 ca c3 3c
       0.08611108 -0.7075912 -0.57673395 0.023900494
000170 ac cb 3e 3e 94 8c 5c 3e 77 61 c7 be 69 e2 67 bf
       0.18632382 0.21538001 -0.38941547 -0.9057985
000180 47 18 39 3f a4 45 98 bf e7 a2 99 bf ef 8d cd be
       0.7230267 -1.1896253 -1.2002839 -0.4014735
000190 30 0f 6c bf a8 f9 b0 3f 1c 54 03 c0 5d b5 5c 3f
       -0.92210674 1.3826189 -2.0520086 0.8621424
0001a0 a3 45 87 be 4b 5a a3 bb a6 df 55 be 00 12 5b be
       -0.26420316 -0.004985129 -0.20886096 -0.21393585
0001b0 db 60 7a bc 95 91 2a 3d 58 9e e8 bd e9 85 28 3e
       -0.015281881 0.041642744 -0.11358327 0.16457333
0001c0 3d d4 2c be 79 d9 80 3e 2f a1 42 3e 72 7f 6f be
       -0.16877837 0.25165918 0.19006799 -0.2338846
0001d0 99 5e 8d bd 5f fa cf be 8e 08 9c 3e 71 2d 02 3f
       -0.06902809 -0.40620705 0.30475277 0.5085059
0001e0 2a 78 d9 3e b1 ea ae be 39 05 2d bf 6d a0 fc 3f
       0.4247449 -0.3416343 -0.67586094 1.9736458
0001f0 ba 85 c5 3f 8e 5b 87 3d a6 fe 14 3f db a2 47 bf
       1.5431435 0.066092595 0.5820106 -0.7798287
000200 59 51 fb bf 91 be 0f be 48 e7 be bd b8 b9 cb 3c
       -1.96342 -0.14037539 -0.09321457 0.024868831
000210 5a 4e 5d be 5a 74 49 bd bc 8b 29 3e b8 ec 81 bd
       -0.2161192 -0.049183227 0.1655721 -0.06343979
000220 27 e8 37 3b b3 96 d4 bc 13 48 80 3d 89 6e 53 3e
       0.0028061958 -0.025950765 0.06263747 0.20647635
000230 d7 d5 7d 3e c6 ec f4 3d 28 e6 69 3e 8b e1 5f bd
       0.24788605 0.119592234 0.22841704 -0.054658454
000240 56 04 8f be 02 ba 28 be ec b4 1e 3e 4e 87 31 bd
       -0.27932996 -0.16477206 0.15498704 -0.043341927
000250 b6 e9 30 be df 3f 5a be 62 02 85 be a4 f6 52 be
       -0.17276654 -0.21313427 -0.2597838 -0.20601898
000260 52 eb 66 bc 79 12 0e 3e e9 27 e1 3d 3c c7 93 be
       -0.014094191 0.13874234 0.109939404 -0.2886294
000270 b6 35 12 3e d3 bf 7c be d0 58 b4 bd e0 08 12 be
       0.14278302 -0.2468255 -0.08806002 -0.14261198
000280 4f dd aa bd 62 0f ac bd 6d da 7e be d3 38 75 be
       -0.083429925 -0.084013715 -0.2488801 -0.23947458
000290 b2 a6 e8 bc 7b 78 51 bc f0 4d 0c be b0 9c d4 3d
       -0.028399799 -0.012785072 -0.13701606 0.10381448
0002a0 46 77 81 be e1 dd 9a be d1 a3 14 3f a8 d1 b6 be
       -0.2528631 -0.30247405 0.58062464 -0.3570683
0002b0 b4 3b c0 3e 97 4a 35 be 6b 56 1f bf 66 d1 54 3f
       0.3754555 -0.17704235 -0.6224124 0.83132017
0002c0 d8 df e8 3e 70 a6 3f 3f 3e c8 1b 3f d5 b7 02 bf
       0.4548328 0.7486334 0.6085242 -0.51061755
0002d0 08 e3 0d 3f da 96 01 bf a1 d2 59 3e a6 60 35 3d
       0.5542455 -0.50620806 0.21271755 0.044281624
0002e0 5b 5c 41 3e 53 47 dc 3d a9 ce 46 bf 4e 0e 23 bf
       0.18882887 0.107557915 -0.7765909 -0.636937
0002f0 74 1f bd bd 78 fe d4 3e 46 09 97 bf 8a c6 0b bf
       -0.09234515 0.41600394 -1.1799705 -0.5459982
000300 bc 1a 47 3f 8b d5 8e bf 18 ec 0a bf 51 57 1c be
       0.7777517 -1.1158918 -0.542665 -0.15267684
000310 fd 7d 25 be 99 1d c2 3d 43 3e 29 be 81 47 c6 bb
       -0.16161342 0.094783016 -0.16527657 -0.0060510044
000320 74 29 3f 3c bf 13 37 3e ab af 56 be 54 f9 42 be
       0.011667598 0.17878626 -0.2096545 -0.19040424
000330 62 e9 24 be 20 c9 46 3e 49 2e cc bd 68 8e 6f 3e
       -0.16104653 0.1941266 -0.09969766 0.23394167
000340 fb 75 f7 3d 35 15 f7 3d 91 90 04 3e 3c 72 a5 bd
       0.1208305 0.12064592 0.12945773 -0.08078429
000350 9d fa 97 be 0a 04 7d bf 82 24 6d 3f 7e 5c 68 3f
       -0.2968339 -0.9883429 0.9263383 0.9076613
000360 91 1e 22 bf 57 50 3c bf 05 4c 07 be bf de 33 c0
       -0.6332789 -0.7356009 -0.13212593 -2.8104703
000370 62 8e e0 be 51 b0 d4 3e f6 c2 be be c6 37 75 3e
       -0.4385863 0.4154077 -0.37258118 0.23947057
000380 47 24 e0 be 81 4c 63 3f 72 9f 15 bf 57 87 c4 bd
       -0.43777677 0.8878861 -0.5844642 -0.095961265
000390 11 c4 9b be e8 c6 91 bf 65 2a 1b 3f c5 34 19 bf
       -0.30423024 -1.1388826 0.60611564 -0.59846145
0003a0 d7 6b f6 3e 22 18 27 3e 73 6b f9 3d 85 d4 d1 be
       0.4812915 0.163178 0.121786974 -0.40982452
0003b0 18 d7 e6 3e 3f 21 bf bd 55 80 a7 bd b3 58 74 3e
       0.45085979 -0.09332513 -0.08178774 0.23861961
0003c0 7d c3 6c 3e 8d 33 9a 3e b3 92 49 bf 67 59 45 bf
       0.23121448 0.30117455 -0.7873947 -0.7708954
0003d0 e6 f5 dd 3f a7 2d 88 3f 5a 74 3c 3f ea 5c 30 be
       1.7340667 1.0638932 0.7361504 -0.17222944
0003e0 db 63 ea 3d a4 14 5e bc cf ef 2d bf 8d fb d9 be
       0.11444827 -0.013554726 -0.67944044 -0.4257473
0003f0 31 cc ab 3e c5 61 20 be 10 ed 6c be 6f e9 ca bd
       0.33554223 -0.15662296 -0.23137307 -0.09907805

bias f4 [64]
000000 e1 47 10 3e 9b 4b d3 bd 92 77 d6 bd e9 fe 3e 3d
       0.1408992 -0.10317155 -0.10472025 0.04662982
000010 87 93 77 bd 57 99 77 be 2c 33 92 bd 60 f5 19 3e
       -0.060443427 -0.24179588 -0.071386665 0.1503501
000020 a6 69 4d bd ce f0 18 3e 1d 76 99 bc 72 ec 93 3d
       -0.050149582 0.1493561 -0.018733079 0.07222833
000030 b9 d6 b9 3d 93 80 3a be 80 9c f8 3d ee 93 51 3e
       0.09074158 -0.1821311 0.12139225 0.20466587
000040 16 35 e9 3d ba cf 1f bc 2d 0d 9c bd 71 f9 49 3e
       0.113870785 -0.009754116 -0.076197006 0.1972406
000050 24 e1 3f be ff 57 35 be 73 54 e1 3d c4 2c 77 be
       -0.18738228 -0.17709349 0.110024355 -0.2413817
000060 ba 51 e2 bd 77 f3 2b be e6 d5 e1 3c 76 11 be be
       -0.11050744 -0.16792093 0.027567815 -0.37122697
000070 d8 7a 91 3e ba 43 85 3c dd 23 dd 3d eb 6e 39 be
       0.28414035 0.016267646 0.10797856 -0.18108718
000080 e5 b2 13 3e aa e3 7b be 26 c7 8f bd fd 36 b0 bd
       0.14423712 -0.24598566 -0.070204064 -0.08604238
000090 61 95 e1 bc 8e a4 ed 3c 9d 09 a4 bd 10 cb d2 bd
       -0.02753705 0.02900913 -0.08009646 -0.10292637
0000a0 0a fb 8d be 3c ad 68 3c f2 9a 06 bc 6b e6 2a 3d
       -0.2773059 0.014201459 -0.008215653 0.04172365
0000b0 0f 16 23 3e 3c 02 b0 3c 29 9f 5a be e5 3a 2b bd
       0.15926383 0.02148544 -0.21349777 -0.041804213
0000c0 7c 96 e3 bd 6e e0 82 be f0 a8 4e be 84 41 87 3e
       -0.11112687 -0.2556185 -0.20181632 0.26417172
0000d0 0c ba bd 3d e9 5b 31 bd 08 c1 01 3e 5d e7 8f be
       0.09264001 -0.043300543 0.12671292 -0.28106204
0000e0 eb fd cc bd fc 21 01 3e fd fb 39 be 0a 71 6d 3e
       -0.100093685 0.1261062 -0.18162532 0.23187652
0000f0 b1 4b 95 3d ca b9 25 3e 43 48 5d be 31 05 9d bc
       0.072898276 0.16184154 -0.21609597 -0.019167515

weight f4 [64, 64]
000000 41 02 a6 3d f0 09 02 bc 81 4a d2 3b a2 1e 01 3e
       0.08105899 -0.00793694 0.006417573 0.12609342
000010 49 65 69 3e bc 9a 74 3d 83 57 89 3f a3 02 b3 3e
       0.22792543 0.05971788 1.0729831 0.3496295
000020 e0 fb b3 3d c8 9b 27 3f 02 ab c6 bd 69 98 73 bd
       0.08788276 0.6547208 -0.09700586 -0.05947152
000030 f0 ea 65 bc 8f dc aa be 2d 88 68 3f d8 b9 33 3d
       -0.014033064 -0.33371398 0.9083279 0.043878406
000040 f7 2e 56 3f ee 8d d0 3e 49 c9 3d be 3a 00 03 3f
       0.8366541 0.40733284 -0.18533815 0.5117222
000050 a9 d3 19 be 52 d3 b9 bd 3a 49 4a be c8 8c 8b 3c
       -0.15022148 -0.09073509 -0.19754496 0.017034903
000060 e9 aa 2e bf 9c a8 4d 3f 29 e0 f2 3c 21 37 e8 3d
       -0.6822954 0.803354 0.029647904 0.1133864
000070 6a ec 90 3f a3 9e 07 bd af 85 d4 3d a9 fc a7 bd
       1.1322148 -0.033110272 0.103770606 -0.08202488
000080 b8 6f 90 3d 28 80 05 3c 24 21 fd 3d 65 ab 58 3f
       0.07052559 0.008148231 0.12359837 0.8463653
000090 0e 00 ee be 9c f6 9b bd 2e 0d cf 3d 98 d8 9c 3d
       -0.46484417 -0.076153964 0.10109936 0.076584995
0000a0 4a 32 aa 3d 18 9f d7 bd da 4b b9 3d a0 b3 f1 bd
       0.08310373 -0.105283916 0.09047671 -0.11801839
0000b0 68 c3 e4 3c ae 7f f0 bd 90 df 28 3e 87 5e 08 3e
       0.027925208 -0.11743103 0.16491532 0.1331731
0000c0 e4 4e 49 bd 30 05 a2 bc 9e a4 f2 bd c0 53 10 3f
       -0.0491475 -0.019777864 -0.118478045 0.5637779
0000d0 00 c8 56 3f f1 01 a8 3e 8e a2 9b bd 54 71 86 bf
       0.83898926 0.3281398 -0.07599364 -1.0503335
0000e0 83 68 ba bd a5 7b ce 3e db 30 f5 3d fb 41 a5 3d
       -0.09101965 0.40328708 0.11972209 0.080692254
0000f0 80 66 88 3c ac d7 8b bd d5 87 82 3d 6f 9e 4d bd
       0.016650438 -0.068282455 0.06373564 -0.050199922
000100 c8 d1 66 bf b8 5a dc 3c a1 2b 28 3e c2 42 22 be
       -0.9016385 0.026898727 0.16422893 -0.15845779
000110 77 19 93 3e 1e 6a 03 be 73 04 5b 3e a5 0b dd be
       0.28730366 -0.12833449 0.21388416 -0.43172947
000120 a0 6b e1 3c cb 21 94 3e fb 69 8b 3d 9b 44 fc 3c
       0.02751714 0.28932032 0.068073235 0.030794432
000130 c3 95 fe 3d a4 6a ef be 77 cd d1 be a0 05 31 3c
       0.124309085 -0.46761048 -0.4097707 0.010804564
000140 65 f4 49 bd c1 5c 93 3f 57 b8 c1 3e a8 d6 a0 bb
       -0.04930534 1.1512681 0.37835953 -0.0049084015
000150 1f 7b 1b be 15 98 d2 bd 3f bf f2 bc b2 5e 8b bd
       -0.15183686 -0.102829136 -0.029632209 -0.06805171
000160 11 b9 4a be 2c 1c 37 bf bf ae 94 be d1 9b 48 bd
       -0.1979716 -0.7152736 -0.2903957 -0.048976723
000170 05 73 fb 3e 37 f5 12 3e 0d 06 e6 be 8f 50 fb bb
       0.4911119 0.14351355 -0.4492649 -0.0076695154
000180 25 e4 54 be 7b 2d 39 3d ba e7 c3 3d b5 ca 6c 3e
       -0.20790155 0.04520939 0.09565683 0.23124202
000190 e9 40 8b 3d da d8 8a 3f aa 7d 41 be e1 dd 65 bc
       0.0679949 1.0847428 -0.18895593 -0.014029951
0001a0 90 1d 2e bc 2c a6 c7 bd 00 85 49 ba c8 7d d4 bd
       -0.010627165 -0.09748492 -0.000768736 -0.10375553
0001b0 0e 8b 1e bd 41 2b 8d 3d 69 7f a9 bf e0 35 ff be
       -0.03870683 0.06893016 -1.3242007 -0.4984579
0001c0 68 09 fa bc 4c 5b 0c bd b0 59 ad 3c 41 26 97 3f
       -0.030522063 -0.034266755 0.02116093 1.1808549
0001d0 95 f8 22 3f 3c 52 ba be b1 09 95 3c 83 cd 85 bf
       0.63660556 -0.36390865 0.018193098 -1.0453342
0001e0 77 10 c6 3d 1c 91 05 bf ca fd 8d bd 26 b4 e3 bc
       0.09671109 -0.52174544 -0.06933172 -0.027795862
0001f0 44 c9 91 3d 9c ef 9f bd 69 a0 8b bd a9 4e 4b 3b
       0.071184665 -0.07809374 -0.06817705 0.0031022227
000200 b4 ce 75 3e aa ca f1 bd e2 44 75 3d bc 0e 2b bd
       0.24004632 -0.11806233 0.059880145 -0.0417621
000210 fb ee 3a be e1 8d ec bc 40 58 0a bf 87 df bb be
       -0.18255226 -0.028876247 -0.5404091 -0.36693975
000220 f0 f1 21 bc 3d 55 0d bf 0f 32 ac 3d ea 5d 25 3d
       -0.009884343 -0.5520819 0.084079854 0.040372767
000230 be 8b c3 bd ee 9f 60 3e 1c 0e 18 bf 0a 1f 9d 3d
       -0.09548138 0.21936008 -0.5939653 0.07671936
000240 c7 c6 41 bf 66 31 18 3e 69 1e 0a 3f b2 2f 3e bf
       -0.75693935 0.14862594 0.5395265 -0.7429153
000250 44 ed c4 bc 30 a8 98 3c b2 39 8d 3e 98 be 55 3d
       -0.024038918 0.018634886 0.2758308 0.052183717
000260 c2 c1 eb 3d ed aa 2c 3f ac 87 f4 bd 0f 22 c9 bd
       0.11511566 0.6744831 -0.1193994 -0.09820949
000270 6c c9 70 3e 6d aa ae bc c8 be f8 bb 01 82 a0 3c
       0.23514336 -0.0213215 -0.0075911023 0.01959324
000280 27 c4 84 3d 66 55 55 3d a1 85 eb 3d 42 c2 f1 be
       0.064827256 0.052083395 0.11500097 -0.4721852
000290 31 c3 5a 3e 55 b4 83 3e c8 d8 36 bd 9a 15 04 3e
       0.21363522 0.2572352 -0.044640332 0.12898865
0002a0 54 dc 55 bd 7e 5e a4 bd 50 0d 70 bc 62 0b f1 bd
       -0.052212074 -0.080258355 -0.014651611 -0.11769749
0002b0 82 09 e8 3c 9e ec fa 3d 17 22 0e bf 3b a5 48 bc
       0.028324846 0.122521624 -0.55520767 -0.012246425
0002c0 54 da 7d 3d 10 7f a2 bd 24 6e fa 3d 74 ee e6 be
       0.061975792 -0.079343915 0.12228039 -0.451038
0002d0 1a 14 6f bf 8c 35 98 3e 83 88 ca 3d 3f f5 80 3f
       -0.9339005 0.29728353 0.09889319 1.0074843
0002e0 6f ab 8b 3c 7f df e1 bc cd 29 1f 3d 80 14 9c be
       0.01704952 -0.027572392 0.038858224 -0.3048439
0002f0 c0 38 4d 3d 50 cc b4 3d 25 84 9b 3d ca 35 95 bd
       0.05010295 0.08828032 0.07593564 -0.0728565
000300 60 4f fc bb e2 8e a0 bd 04 31 39 bd ca 5b a6 3d
       -0.007699892 -0.07839753 -0.04521276 0.08122976
000310 6c 4f 4d bd 76 fc 9e 3d 3c 06 4b bd 08 7d ee bc
       -0.05012457 0.07762997 -0.049566492 -0.029112354
000320 00 58 2e 3b 20 ec ea bd 00 98 a3 ba 00 6e 4e bc
       0.0026602745 -0.114708185 -0.0012481213 -0.012599468
000330 20 fc 37 bc b0 b3 cc bc 18 d3 c9 3d ba ec bc 3d
       -0.011229545 -0.024988025 0.09854716 0.092248395
000340 80 81 ad bd 74 d6 6d 3d 4c cd c8 bd 32 f0 d9 bd
       -0.08471966 0.058065847 -0.09804782 -0.10641517
000350 58 82 1c 3d 80 c9 f0 3a ec d9 6e bd b8 e9 f6 bd
       0.038210243 0.0018370599 -0.058313295 -0.12056297
000360 b4 36 46 bd fc 01 2b 3d 38 f4 ec bd f6 b1 f8 bd
       -0.048392013 0.04174994 -0.115700185 -0.12143318
000370 e0 ea 81 3c 68 6c b8 bd cc 46 e0 bd 3c 44 45 bd
       0.015859067 -0.09005052 -0.109510034 -0.048160776
000380 68 dd a4 bc e8 a0 e8 bd 34 f0 aa bd 70 48 06 3c
       -0.020125106 -0.113588154 -0.08346596 0.008195981
000390 98 66 f1 bd 80 ed 8f bc c6 4c a5 bd 00 78 b1 bd
       -0.11787146 -0.017569304 -0.08071284 -0.08665466
0003a0 5c 3b 49 3d 62 0a c5 bd 6c 01 c2 bd f8 fd 91 3d
       0.049128875 -0.09621121 -0.094729275 0.07128519
0003b0 18 74 bf 3c 7a 24 e9 3d f4 da 08 bd c0 4d 77 bd
       0.023370788 0.113839105 -0.033411935 -0.060376883
0003c0 00 89 3d bc 00 c9 25 3a a8 3c c3 3d 18 ff fe bd
       -0.011568308 0.0006324202 0.09533054 -0.12450999
0003d0 b0 d1 11 bc fc 7b 62 3d 90 f9 8c bd 84 15 82 bd
       -0.008900091 0.055294022 -0.06883538 -0.0635176
0003e0 e0 6e 77 3d a0 4b f5 bd 88 a4 f2 3c 16 31 c6 bd
       0.060408473 -0.11977315 0.02961947 -0.09677331
0003f0 e4 7e 7e 3d ee e3 da bd d8 63 9d 3d 84 56 f2 bd
       0.06213273 -0.106880054 0.07685059 -0.11832908

bias f4 [64]
000000 27 7f f7 bc ef 17 26 3e 2e 2e 31 3e 28 9c f8 bc
       -0.030211998 0.16220067 0.17302772 -0.030347899
000010 9b ba 15 be b8 9d d1 bd 92 72 9e bc 62 6e b8 3d
       -0.14621966 -0.102351606 -0.01934174 0.09005429
000020 63 75 42 3e d2 02 04 bd 21 ad 82 3d d2 48 bd bd
       0.18990092 -0.032229252 0.06380678 -0.09242405
000030 a9 fc 1e 3e 07 6e d2 bc 1f bb 06 bd 11 ab cb be
       0.1552607 -0.02568723 -0.032893296 -0.3977895
000040 62 53 68 bd 8f fd 6c bd de df 8c bd f8 1e 23 3d
       -0.056720145 -0.057859 -0.06878637 0.039824456
000050 f2 de e4 3d d0 d1 a2 bd 98 78 4c 3e 7b 6d 1c be
       0.11175336 -0.07950175 0.19967878 -0.15276138
000060 b3 a2 2f be 4e 1c 86 3e 85 ce d1 bc b7 e8 26 3e
       -0.17151909 0.2619347 -0.025611171 0.16299711
000070 9a 1a 40 bd 97 72 8e bd 03 ab 87 3e 12 ef 03 3e
       -0.04690037 -0.0695545 0.2649766 0.12884167
000080 14 dd 77 3d 9f b4 23 3d 9b f1 83 3d ac 25 84 bd
       0.06051357 0.039967176 0.06442567 -0.06452498
000090 a4 e9 0e bc c0 24 81 bd ba 5c d1 bd 1f 4a 0f be
       -0.008722696 -0.06305838 -0.10222764 -0.13993119
0000a0 fa 6a 85 bd c6 43 8a bd 8b 58 0c be 86 84 a5 bd
       -0.06514545 -0.06751208 -0.13705651 -0.080819175
0000b0 5e f4 57 3e 54 a8 d4 bd d3 02 3c be 2b 3c 83 bb
       0.21089312 -0.103836685 -0.18360452 -0.0040049753
0000c0 99 80 0b be 6f 1b 38 bd 0f ce 80 be 42 37 33 bd
       -0.13623275 -0.044948038 -0.2515721 -0.04375387
0000d0 04 f7 85 3c 86 85 21 be ea ba 05 3c 63 58 bd bd
       0.016353138 -0.15773591 0.00816224 -0.09245374
0000e0 8a 7e 11 be 5c 4e f6 bd b4 52 1c be 9b a4 07 bd
       -0.14208427 -0.120266646 -0.15265924 -0.033115964
0000f0 d7 e5 cd bd 8e d2 90 bd 99 a1 85 3b e2 34 e1 3b
       -0.10053604 -0.0707141 0.004078102 0.006872759

weight f4 [64, 64]
000000 8b d4 06 3c 1c f5 ff 3e 62 c9 d4 be 3a 3f ef 3d
       0.008229385 0.4999169 -0.41559893 0.116819814
000010 71 64 11 3e fe 23 08 3e de 72 51 bd 11 b3 57 be
       0.14198472 0.1329498 -0.051134937 -0.21064402
000020 02 6f 26 bd 9a b8 a6 bd 51 50 39 3e 2c e6 89 3e
       -0.04063321 -0.08140679 0.18097045 0.2693342
000030 75 99 a1 be 9e 98 87 bf 1b 28 ee bb e0 79 4b 3e
       -0.3156239 -1.059345 -0.0072679645 0.1987071
000040 5a 6e 86 3b a5 a3 cd 3d 91 8d a5 bd c5 d1 a0 3e
       0.0041025104 0.10040978 -0.08083642 0.3141004
000050 62 af 02 bf 70 e8 56 bc 2b 19 a9 bd a0 66 1a bd
       -0.5104886 -0.013116941 -0.082567535 -0.037695527
000060 2c a8 d5 3d 3d 42 13 be 56 56 86 be f8 be 4f 3e
       0.10432467 -0.14380737 -0.26237744 0.20287693
000070 98 ce ad 3c a7 16 f7 bd 59 7c ad 3c 80 e1 e5 be
       0.021216676 -0.120648675 0.021177458 -0.44898605
000080 2d 5a db bd 75 41 d7 bd 95 bc 0f bf 10 07 60 bc
       -0.10710559 -0.10510532 -0.5614713 -0.013673559
000090 9a 1a d7 3d 16 a1 d0 3d c4 70 59 3d e1 a9 66 3d
       0.10503121 0.10186975 0.053086057 0.056314353
0000a0 c0 6e ca bb cb 49 78 bd 38 13 c7 3c 6b 19 5b bd
       -0.006177753 -0.06061725 0.024301156 -0.053491037
0000b0 f2 5a 93 bd 6f c6 e8 bd a6 3a 9d bd 8f 5d b6 bc
       -0.07195081 -0.11365973 -0.07677202 -0.02226141
0000c0 eb a3 d1 bd 2e fa 22 bf 8a 12 95 be 30 c2 ab bd
       -0.10236343 -0.63662994 -0.29115707 -0.08386648
0000d0 2a f0 c1 bd 7b eb ca 3d bc 83 a6 3d e7 5f a4 bd
       -0.09469636 0.099081956 0.08130595 -0.080261044
0000e0 a1 65 1a 3c 5a f3 15 3e 54 0d 74 3d fd 0b 02 3d
       0.009423644 0.14643613 0.059583023 0.031749714
0000f0 0e 7d ab 3c d0 f6 30 bd 95 06 f8 b9 16 2f bf bf
       0.020933654 -0.04320413 -0.0004730715 -1.4936244
000100 b4 2e f3 bd 6b ed 1b be 99 2a bf 3b f6 b7 e9 3d
       -0.11874142 -0.15227287 0.0058339355 0.11412041
000110 3c 95 1a bd 82 c6 e4 bd 42 9c c0 bc 96 a9 d8 bd
       -0.037739977 -0.11170675 -0.02351201 -0.10579221
000120 56 fa e7 bd 08 ee 18 3b c0 7b 42 bc 2d 4e 82 bd
       -0.11327045 0.0023335237 -0.011870325 -0.06362567
000130 0c fe 7a 3d a8 9c b3 bc fb aa 35 3d 42 12 c3 bd
       0.061277434 -0.021925285 0.044352513 -0.09524967
000140 9c 7d be 3d 62 bc 74 bc 02 1f e4 3d af 43 4d bc
       0.09301302 -0.014937492 0.11138727 -0.012528344
000150 af d8 c7 bd 3c 28 5f 3d a0 27 6f 3d 00 15 c2 3c
       -0.09758126 0.05448173 0.0583874 0.023691654
000160 f4 0b 6c 3d 96 1d f5 bd b6 fc 08 3c 60 1d 3a be
       0.057628587 -0.11968534 0.008361032 -0.18175268
000170 3c 4f e2 3d d8 77 53 3d 90 c6 06 3c a2 9a ef bd
       0.11050269 0.051627964 0.008226052 -0.11699416
000180 17 d8 71 3d c9 9f 95 3d 05 18 ab 3d d4 45 49 3d
       0.05904397 0.07305867 0.08354191 0.04913886
000190 1c 6e 2c 3d 08 a0 04 bd 88 d1 51 bd 54 f5 4a 3d
       0.042097196 -0.03237918 -0.051225215 0.04955037
0001a0 78 90 31 3d e0 ca 84 bb 40 e0 a2 3c fc d5 93 bc
       0.043350667 -0.004052505 0.019882321 -0.018046372
0001b0 26 37 31 be 56 64 e2 bd 62 07 b0 bd f2 59 ae 3d
       -0.17306194 -0.11054294 -0.08595158 0.085132495
0001c0 8f 1c cf 3c 9e 57 f4 bd 30 ba 19 bd fd ef 34 bd
       0.025282172 -0.11930774 -0.037531078 -0.044174183
0001d0 6c 29 28 3d 64 70 d1 3d 00 2c 33 3b 80 48 15 be
       0.041055128 0.10226515 0.0027339458 -0.14578438
0001e0 84 3c 2c 3d 10 c6 cd bd cc 73 9c bd d2 0e a3 3c
       0.0420499 -0.10047543 -0.07639274 0.019904528
0001f0 90 93 89 bc e4 ed 71 3d c2 7a 92 3d e0 47 49 3c
       -0.016793996 0.05906476 0.071523204 0.012285203
000200 bd c1 53 bf 5d e9 3c bf c1 e7 22 3f e0 a2 a3 3b
       -0.82717496 -0.73793584 0.6363488 0.0049937814
000210 9a 1e aa 3d 50 c0 f4 3d 3d 65 d9 be 21 88 ab bf
       0.08306618 0.11950743 -0.4246005 -1.3400918
000220 d4 19 e7 3e 6a 3f 74 3e 13 5b 7e be 6b 07 b7 3c
       0.45136893 0.23852316 -0.2483943 0.022342404
000230 19 9c 0a bd 5e d7 78 bf f7 7e f1 bc 25 a0 8f 3f
       -0.033840273 -0.97203624 -0.029479487 1.1220747
000240 70 c0 08 bd 68 5a b2 3f 2c 13 0e 3e 18 2d 05 c0
       -0.033386648 1.393384 0.13874501 -2.0808773
000250 2d 1d 3d bf 93 be 62 3c 6a ef 10 3f c0 15 3d bc
       -0.73872644 0.013839382 0.56615317 -0.01154083
000260 00 15 fd 3c 7b 53 f9 3e 1a 3d 38 3d 93 d9 21 bf
       0.030893803 0.48696503 0.044980146 -0.63222617
000270 5c c6 a5 bd 20 17 94 3d d1 7b de be a5 37 5a bf
       -0.08094475 0.07230973 -0.4345384 -0.85241157
000280 9c 33 19 bf f3 24 86 3d f1 ec 3e bf c0 40 b5 bb
       -0.59844375 0.06550016 -0.74580294 -0.0055314004
000290 23 17 71 bd 54 18 98 3d 74 74 d0 3d 71 20 79 bd
       -0.058859956 0.07426515 0.10178462 -0.060821954
0002a0 fe 02 ee bd 01 40 32 bd 38 2c 09 3b 35 ef 7a bc
       -0.116216645 -0.04351807 0.0020930897 -0.01531582
0002b0 2c 55 16 3f 3e 46 9f bd d2 d5 b2 be e5 6d b9 bd
       0.5872371 -0.077770695 -0.34928757 -0.09054164
0002c0 21 3b 1a be 59 57 ea 3e 1c cf b4 be c5 c6 c9 3d
       -0.15061618 0.45769766 -0.35314262 0.098523654
0002d0 77 ac cb bd 23 2d 91 3d de 3c 85 3d 61 2d ca 3d
       -0.099450044 0.07088687 0.0650575 0.098719366
0002e0 f2 7a f9 3c be 1c 05 3e b5 33 a2 bc 7b 4a 11 3d
       0.030454133 0.12999246 -0.019800046 0.03547142
0002f0 8d 36 ca 3d 3b dd 4b be 80 46 57 be c2 3d 65 3e
       0.09873686 -0.19908611 -0.21022987 0.2238684
000300 98 ab 74 bf 73 57 38 be c8 ad a6 bc 7c 71 09 bd
       -0.9557433 -0.18002109 -0.020346537 -0.033555493
000310 e9 d1 af bd b9 28 23 3c a2 55 bf bd 84 65 cc bc
       -0.08584959 0.0099584395 -0.09342505 -0.02495075
000320 e2 15 ce 3e 63 49 9f be 41 e9 32 3e e3 b0 0e 3f
       0.4025107 -0.31110677 0.17471792 0.5573866
000330 6c 2b 2c 3e 6a d6 56 bb 09 a6 b6 3e 87 54 10 3e
       0.16813439 -0.003278161 0.3567355 0.14094745
000340 f4 ab 51 bd 16 7b 7e 3e 8f b3 8d 3b e8 5c e8 bf
       -0.051189378 0.24851641 0.0043243836 -1.8153353
000350 28 b8 3c 3e 4d 5b ce 3d cf b1 28 be 74 71 b3 bd
       0.18429625 0.10076008 -0.16474079 -0.08761874
000360 6e 67 c6 bd 14 e5 ac 3e a1 a7 10 bd 87 29 95 bd
       -0.096876964 0.33768523 -0.035316113 -0.07283311
000370 f1 84 b2 3d 06 b4 73 3c 67 06 ad 3e a4 4e 87 be
       0.08716763 0.014874464 0.33793947 -0.26427186
000380 db 64 fc 3c 62 15 ea bd 42 a8 cb 3e 19 b5 8e bd
       0.03080981 -0.1142986 0.39776808 -0.069681354
000390 29 1a 92 bd 8a c1 71 3c 38 16 92 3d 08 3a 0b bd
       -0.07133896 0.014755616 0.07133144 -0.03399089
0003a0 b0 05 a1 3c e8 c3 05 bd 74 91 be 3d cb 48 35 3e
       0.019656032 -0.032657534 0.09305087 0.1770355
0003b0 07 20 21 3f 89 95 17 3e 59 6f 09 be ab a7 cf 3d
       0.62939495 0.14803137 -0.13421382 0.10139402
0003c0 d0 8c 5c bf cf 4b af bd 90 c3 1e bb 9c 2d 0e 3c
       -0.8615236 -0.08559381 -0.002422545 0.008677866
0003d0 a6 a1 2a 3d 2f 24 00 3d f9 f5 52 bd 9d 75 31 bd
       0.041658066 0.031284507 -0.05150411 -0.043325055
0003e0 00 7c cc 3b d0 37 c8 bd a0 a9 84 3d f4 4b 5a bd
       0.006240368 -0.097762704 0.06477666 -0.05329509
0003f0 88 b1 1f bd 44 04 06 be ab 49 5a 3e 68 1a 53 be
       -0.038987666 -0.13087565 0.21317165 -0.20615542

bias f4 [64]
000000 a8 4e 3d be 6d 2f 27 be 0f 2e f4 3d db 24 c3 3d
       -0.18487036 -0.16326685 0.119228475 0.09528514
000010 4b 10 77 3e 32 1e 07 3f cd 87 47 3d 82 0d 93 3e
       0.24127309 0.5278045 0.048713494 0.28721243
000020 4f c6 09 3e 40 0e 08 3e c0 6b be 3d 84 ba 41 bd
       0.13454555 0.13286686 0.092978954 -0.047297016
000030 de a2 53 be 5e 90 46 be dc 64 1d be d8 6e f1 bd
       -0.20667598 -0.19391009 -0.15370506 -0.1178872
000040 5d 14 e6 3d f3 d6 a6 bd ae ea 08 bd 6e ad da 3d
       0.11234353 -0.08146467 -0.033426933 0.1067761
000050 99 40 1c be 19 3b 80 3d 1e d1 cd 3d 2f 3c e2 3e
       -0.15259017 0.06261272 0.100496516 0.4418654
000060 01 0d 90 3e 3d 00 ea be a5 64 51 3c 0b ab 9e 3e
       0.2813492 -0.45703307 0.012780343 0.3098987
000070 4f b2 64 be 7c e1 98 3e e1 7e 04 be bf f8 45 3d
       -0.22333644 0.2985953 -0.12939025 0.048332926
000080 eb f8 4f 3e 68 f8 48 3e 49 61 6b bf 45 1f d9 3d
       0.20309798 0.1962601 -0.9194532 0.10601667
000090 77 01 21 be d2 a3 fd bc 5d 3d 6a bd a4 7e ca bd
       -0.15723215 -0.030961905 -0.057187427 -0.09887436
0000a0 6e 5a 83 bd c2 14 02 be 63 a3 fe bb 7a fa f7 3c
       -0.064137325 -0.12703231 -0.007770942 0.030270804
0000b0 43 18 48 3e 34 7f 46 bd ae de c3 bd 5b 40 81 3e
       0.19540505 -0.048461154 -0.09563957 0.25244412
0000c0 bc 97 b3 be 20 7a 9b bd fd ac 77 bd 18 57 f0 3d
       -0.35076702 -0.07591653 -0.06046771 0.11735362
0000d0 24 4b ac bd 88 e1 5e 3d 09 ef a4 3e 21 0c f3 3d
       -0.084127694 0.054414302 0.3221362 0.11867548
0000e0 98 77 f2 bd d7 dc 1d be 3d 7c 23 be 6f 6c 81 bc
       -0.11839217 -0.15416275 -0.15965362 -0.015798775
0000f0 7e dd 12 3e 1a 20 27 3e 2b e4 48 3d 2e 5c fe 3e
       0.14342305 0.1632084 0.049045723 0.49679703

weight f4 [4, 64]
000000 bb ba 3f 3e 07 1e 8f 3c 86 5b a9 3f e9 56 b2 3d
       0.18723576 0.017470373 1.3231056 0.08707983
000010 c4 da a0 be c5 d3 a3 be c9 4e be bf c9 90 18 bf
       -0.31416905 -0.31997505 -1.4867793 -0.59595925
000020 2b 49 ab 3e 6a 28 46 be 65 da 9f bf c5 01 f9 bc
       0.3345426 -0.19351354 -1.2488524 -0.030396352
000030 69 ff 10 be d6 c3 ef bf d6 c8 1d 3e 92 ed b1 bf
       -0.14159931 -1.8731639 0.15408644 -1.3900626
000040 dd 04 ac bf 8c 1d e6 bd 89 0a 94 3d db 2b 95 3f
       -1.3438984 -0.11236104 0.07228572 1.1654009
000050 96 fb 36 bf c9 f2 08 3e 55 5c 11 bf 17 fb 94 be
       -0.7147764 0.13373865 -0.5678151 -0.29097816
000060 40 bf 05 bf 26 0d 18 c0 59 cf 81 3f 81 24 ae 3f
       -0.5224495 -2.3758025 1.0141402 1.360489
000070 28 9e f5 3e 73 d2 4c bf f4 11 08 3b 4a fe 4f 3f
       0.47972226 -0.8000862 0.0020762654 0.8124739
000080 8a 86 de be b0 c0 99 bf 17 95 d8 bf 63 09 98 3f
       -0.4346202 -1.2011929 -1.6920499 1.1877865
000090 da 3f b2 bd 88 f3 71 3f fc 56 b1 3d 95 b8 f1 3e
       -0.08703585 0.94512224 0.08659169 0.47211137
0000a0 4b 79 80 bd dd e2 5e 3f a8 b6 e0 3d fe a3 da be
       -0.06273135 0.87064916 0.10972339 -0.4270324
0000b0 bc 26 be 3e d9 69 d8 3e 43 df be bc 6a 06 e3 3e
       0.37138927 0.42268255 -0.023299819 0.4434083
0000c0 01 1a 58 3f 57 9e 39 bd fd c0 39 bd ba ce b4 3d
       0.8441468 -0.04531702 -0.045350064 0.088284925
0000d0 45 38 c2 3d ee 4e 53 bf 9b d7 46 be 98 14 b5 3f
       0.09483389 -0.8254231 -0.19418184 1.414691
0000e0 1d 9f 13 bf 81 8a aa 3d 47 8e 6e 3d c2 37 83 3f
       -0.5766466 0.08327199 0.058241155 1.0251391
0000f0 ab a7 12 be d6 96 59 be cd 92 6c be b5 00 05 3c
       -0.14321773 -0.21248946 -0.23102875 0.008117844
000100 08 be 3c be b2 9d 7e 3b 21 e6 44 3f f8 cb e3 be
       -0.18431866 0.0038851318 0.7691365 -0.44491553
000110 34 c9 0e bf 88 74 4c 3e c3 dd 0e 3d 74 f3 9e bd
       -0.5577576 0.19966328 0.034879457 -0.07761279
000120 39 ea c2 3f f0 9a 21 be b8 0b 28 bf 4c bd 62 bc
       1.5227729 -0.1578176 -0.6564288 -0.013839077
000130 25 f7 c4 bd 93 41 6a bf 9f 71 5e bd 2c 83 cd 3d
       -0.096174516 -0.9150631 -0.054307576 0.10034785
000140 70 92 eb be ba cf c8 bc 6b 1e c7 bc e4 ce 1b 3d
       -0.4601016 -0.024513114 -0.024306497 0.038039103
000150 cb 53 0b bf 23 f5 88 bd f7 b5 68 be 5b 7e 9a 3d
       -0.5442473 -0.06687381 -0.22725664 0.07543632
000160 fc 22 0f be 58 05 51 be 0a d5 ac be 5c 6f 4d 3e
       -0.13978189 -0.20412195 -0.33756286 0.20062011
000170 3c a9 ee 3f 04 b5 41 3e cd 3c 95 3c dc b4 94 3d
       1.8645396 0.18916708 0.018217469 0.07261059
000180 3d b3 ca 3e fd 4a 33 3f 4b 83 48 3f 55 8a 08 3e
       0.39589873 0.700363 0.7832534 0.1333402
000190 91 be a9 3d 61 b8 e4 be d5 3a 84 be 7b f9 16 bf
       0.08288301 -0.4467192 -0.25826135 -0.58974427
0001a0 e8 b8 d0 3d 5e f0 54 3e f3 cd d1 3d 06 68 ab be
       0.10191518 0.20794818 0.1024436 -0.334778
0001b0 1b 20 0a 3e 55 7b 06 3f 53 86 95 bd ad 54 d9 bc
       0.1348881 0.5253194 -0.07301011 -0.026529634
0001c0 77 0c 47 3f 50 a6 b8 bd 47 74 6f 3f 51 93 3f 3e
       0.77753395 -0.090160966 0.935368 0.1870854
0001d0 fd 3c 24 3d e7 bd e5 bd 72 11 dd 3c 37 4e 31 be
       0.040097225 -0.112178616 0.026985858 -0.17314993
0001e0 7c 58 e1 3d c1 0a 4a 3d c4 92 a2 bd 71 6a 03 bd
       0.11003205 0.049326662 -0.079381496 -0.032083932
0001f0 96 35 96 bf 05 8b 4d 3f 8f ec fd bd 86 4a 2f 3f
       -1.1735103 0.8029025 -0.123986356 0.6847309
000200 6b 1b ac 3e 03 a4 5c bd 8e 41 c9 bf 94 4c a7 bf
       0.33614668 -0.05386735 -1.5723131 -1.3070245
000210 74 0c 9a bd e9 9d 1a bf ed bf b5 be 93 b7 97 bf
       -0.075219065 -0.603972 -0.3549799 -1.1852897
000220 97 31 62 3f 2e ff d1 3f 32 c6 df bc 7d 93 7c bc
       0.8835692 1.6406 -0.027316187 -0.015416023
000230 19 35 1e 3e 7d e4 ad be 1f a4 cf bc c1 d1 d6 3e
       0.15449943 -0.33963385 -0.025346814 0.41956905
000240 bc 15 08 3e 68 77 29 be 89 f0 c3 3d 14 a2 0b 3e
       0.13289541 -0.16549456 0.09567363 0.13636047
000250 86 eb 4c 3e 28 e7 86 3f fb ba 51 3e 57 cc 2b bf
       0.2001172 1.0539293 0.20481484 -0.6710867
000260 82 7d 00 bd 8f 1a 02 40 a6 45 3b bf f5 8d 05 3f
       -0.031369694 2.032871 -0.7315315 0.52169734
000270 07 6a e6 3f 7e f2 15 3f 9a ba 50 b9 8b 4a 84 bf
       1.8001107 0.5857314 -0.0001990594 -1.0335249
000280 82 e8 ae 3f 68 18 80 be bf 3f 59 be f5 d9 1b bf
       1.3664706 -0.2501862 -0.21215723 -0.6087945
000290 ff 3b 4d bd 89 89 d6 bf 99 21 e3 3d fc 61 22 3e
       -0.050106045 -1.6760722 0.110903926 0.1585769
0002a0 98 ca ff bc c4 98 cc bd e5 d3 71 bd af 7d 46 3f
       -0.031224534 -0.09990075 -0.05903997 0.7753553
0002b0 b7 a6 a4 bf 3d 46 54 3e d8 30 af 3d ea c8 f7 bd
       -1.2863377 0.20729919 0.08554238 -0.12098868
0002c0 5d 95 64 3f f9 46 b8 bc ec 41 5b 3f 44 1a 84 be
       0.8929041 -0.02249478 0.85647464 -0.2580129
0002d0 97 54 b2 bb b8 11 f1 be 97 d9 30 bf a0 96 68 be
       -0.005442213 -0.4708383 -0.69082016 -0.22713709
0002e0 69 87 8e 3e 75 57 e6 3c a4 94 d8 bc 04 8e 16 3e
       0.27837685 0.028117875 -0.026438065 0.14702612
0002f0 03 4a 09 be bf 21 38 bf 5c 7f 5d 3f 52 26 6c 3f
       -0.1340714 -0.7192649 0.8652246 0.9224597
000300 ae ef 0e 3e 16 36 92 3d a1 d9 fc bf 44 27 9e 3d
       0.13958618 0.07139222 -1.9753915 0.07722333
000310 84 bf 3b bd 32 d0 63 bf 44 ba 6d 3f 54 1e 81 3e
       -0.04583694 -0.88989556 0.92862344 0.2521845
000320 35 c7 aa 3f ff 09 dc 3f c9 70 d1 3d ab 0c 4e bd
       1.3342043 1.719055 0.1022659 -0.05030505
000330 91 83 5e bd 20 83 8f 3e c2 b3 ae 3d df 9e 17 bf
       -0.05432469 0.28029728 0.0853038 -0.59226793
000340 16 3e f8 3e 81 6e 25 3d 23 86 31 bb 2b 52 9e be
       0.48484868 0.040388588 -0.0027088008 -0.30922064
000350 bd 8b dc 3e 0a 26 7e 3e 44 1b 92 be 33 f6 aa bd
       0.43075362 0.24819198 -0.28536427 -0.0834774
000360 4f 88 81 3e c6 73 9f bd cd 25 97 3e 0f 52 9c be
       0.25299308 -0.07785754 0.29521027 -0.30531356
000370 ea b4 ed 3f fd b8 00 c0 ab e3 c8 3d 9b 16 c6 be
       1.8570836 -2.0112908 0.09809049 -0.38689122
000380 99 94 17 3f 4b e1 e6 3d 3f 2f 0d bf b1 b0 4b 3e
       0.5921112 0.1127344 -0.55150217 0.19891621
000390 f5 8c bf bd 3c 49 ed 3e 57 cc 00 3d 9a bc ac 3c
       -0.09353057 0.46344936 0.031444874 0.021086026
0003a0 15 72 c6 3c d8 e3 7d bd fc 91 d1 3d c3 53 63 bf
       0.02422432 -0.061984867 0.102329224 -0.88799685
0003b0 c7 91 69 3e 46 9b ab bd ea fc d6 bc 21 c9 f1 bd
       0.22809516 -0.083792254 -0.026243646 -0.118059404
0003c0 f5 2d 8f 3d 65 c2 05 bd 70 b6 c7 bd 1d c6 f2 3e
       0.069911875 -0.032656092 -0.09751594 0.47416773
0003d0 1a c4 14 bd 59 a6 ec 3e 42 08 67 bd 42 90 50 3f
       -0.03631983 0.46220663 -0.05640436 0.8147012
0003e0 ae cd c3 bf ba ad 00 3d ad 55 e8 3c d5 5f 80 bc
       -1.5297143 0.03141568 0.028361166 -0.015670696
0003f0 1b 83 08 3d 6c c3 e4 be 72 97 7e 3f b0 09 e7 be
       0.033328157 -0.44680345 0.9944984 -0.45124578

bias f4 [4]
000000 e8 ab b0 bd 8e 64 71 3e 53 1e b1 be 54 8c 9c bd
       -0.086265385 0.23573515 -0.34593448 -0.07643953

weight f4 [64, 17]
000000 ab 4b 01 3d 85 fd 0c 3d fc 9f 60 be e9 3f f6 bd
       0.031566303 0.034421463 -0.21936029 -0.12023909
000010 5e a6 71 be 58 76 72 be 86 bf 36 3e a2 97 2e 3e
       -0.2359862 -0.23677957 0.17846498 0.17050031
000020 ab d6 08 be a9 e0 4f be 2c 76 29 be 88 03 b2 3d
       -0.1336314 -0.20300545 -0.16548985 0.0869208
000030 de 60 39 3e 8d b0 95 bb 30 32 54 bd 0a 6a 27 be
       0.18103358 -0.0045681656 -0.051805675 -0.16349044
000040 d0 50 bb 3c e9 9c 1d 3e 1f 01 bc 3d dd 0b 96 be
       0.022865683 0.15391888 0.09179901 -0.29305926
000050 68 5e 87 be 8e 00 31 be 4f 05 57 3e a2 7a 8e 40
       -0.26439214 -0.17285368 0.20998119 4.45247
000060 ae 2f 8a 40 8f d9 20 bf 8b 0c 40 bc 32 3b 83 3e
       4.3183203 -0.6283197 -0.0117217405 0.256311
000070 de 1b b2 3f 3c 1e 75 3f f2 7c 35 bc 10 c1 88 ba
       1.3914754 0.9574926 -0.011077153 -0.0010433514
000080 36 ad 00 3c 1f 4a e5 3b 1b d3 82 be 2d 13 8f 3e
       0.007853797 0.0069973613 -0.25551686 0.27944317
000090 4f a7 8f be ff 50 45 38 65 ca 5e bc 3d 73 c8 3d
       -0.28057334 4.7043894e-05 -0.013598059 0.09787605
0000a0 ab 82 d4 3f 61 e1 e2 3f 23 8b 9e bd 2b bf e5 3e
       1.6602377 1.772503 -0.07741382 0.44872412
0000b0 bb 1b 9a be 25 c5 39 3e fc 8b 7f 3f 53 ec 38 3d
       -0.30099282 0.18141611 0.99822974 0.04514725
0000c0 c1 f6 5b 3d e0 78 81 bd 72 56 68 bc a7 4e b2 be
       0.05370212 -0.06321883 -0.014180766 -0.34825632
0000d0 e7 ed 27 bd ee 56 2c be 21 26 ca 3c 09 b2 6b bc
       -0.040998366 -0.16830036 0.024676384 -0.014385709
0000e0 e5 2c c6 3d 8d 34 7d be 02 47 bd 3d 00 84 ce 3e
       0.09676532 -0.24727078 0.09242059 0.40335083
0000f0 03 ab 1a 3f d0 8c f8 bd 4c 5f 36 be e6 dd 95 bc
       0.60417193 -0.12136233 -0.1780979 -0.018294286
000100 86 5c 37 be 46 d3 8c bd 23 19 f0 bd 9b f4 22 3e
       -0.17906389 -0.06876235 -0.117235444 0.15913622
000110 89 ef a3 be 77 c9 2f 3e 21 51 64 3d 04 db 82 be
       -0.32018688 0.17166696 0.055741433 -0.2555772
000120 b4 43 78 3e 06 77 cc 3e f1 d2 92 c0 78 53 85 c0
       0.24244577 0.39934558 -4.5882497 -4.166439
000130 62 b3 98 be 1b 4d 2f 3d fe cc 09 be 6c 8b c9 3f
       -0.29824358 0.042798143 -0.13457105 1.5745673
000140 80 fa 71 bf 57 f5 de bc 86 15 58 bc 2e 16 2c 3d
       -0.9452286 -0.027216597 -0.013188725 0.04201334
000150 00 ec 17 bd a0 91 09 3e 83 97 c8 3e 74 bd b2 be
       -0.0370903 0.13434458 0.39178094 -0.34910166
000160 61 71 76 3d b8 df b3 3e 0d 3e e1 bc 2e 5b c0 3f
       0.06016672 0.3513162 -0.027495408 1.5027826
000170 26 b0 b8 3f a0 09 51 3e 49 ac a4 bc 55 0d ff 3e
       1.4428756 0.20413828 -0.020101683 0.4981486
000180 a4 6c 21 3f fa 01 37 bf f5 d4 65 3d ec bc 1e 3b
       0.630564 -0.7148739 0.056111295 0.0024221493
000190 f7 e9 74 3c e2 2a fe 3c 6c 7f 1b 3e 1d 41 a8 be
       0.01494836 0.031026307 0.15185326 -0.32862177
0001a0 4c 0d ce be 97 e8 52 3e 81 c6 b6 3e ce 03 35 3e
       -0.4024452 0.20596538 0.3569832 0.17677233
0001b0 2c ba 19 bf 7a 29 69 bf 74 89 e7 3e d6 7d be 3e
       -0.600497 -0.91078913 0.45222056 0.3720538
0001c0 dd 57 2b be ac e9 54 3e 05 fe 5f bf 1f 9d cf 3c
       -0.16732736 0.20792264 -0.8749698 0.025343476
0001d0 3f 9f d7 bb c0 47 2a bd 59 fc 08 3d fe 17 32 be
       -0.006580263 -0.041572332 0.033443782 -0.17391965
0001e0 62 3b de be 6b 5d ad be b5 6c 63 3e 83 8e d6 3e
       -0.4340468 -0.33860335 0.22209437 0.41905603
0001f0 57 d3 0e 3e bf 69 85 bf 71 3f a3 bf b3 ff 9b bd
       0.13947807 -1.0422896 -1.2753736 -0.0761713
000200 15 7e 5c 3e 7a df 12 be 5a 8c 6a 3e f2 f9 1a bf
       0.21532471 -0.14343062 0.22905102 -0.60537636
000210 8b 0c 89 3b 5c 9d 6f 3c 81 45 33 3b 63 a0 33 3b
       0.0041824034 0.01462492 0.002735466 0.002740883
000220 0d 70 70 3d be 77 c7 3d 25 75 2d 3e 6d fc 08 bf
       0.05870061 0.09739636 0.16939218 -0.5351017
000230 92 46 d1 bd ff ed 85 be 53 c7 bb bd f0 02 20 3e
       -0.10218538 -0.2615814 -0.091688775 0.1562612
000240 d2 88 e9 3e 00 fb 25 bf a3 76 e9 be 59 99 6b bf
       0.45612198 -0.6483612 -0.45598325 -0.92030865
000250 60 e7 36 bf c0 c1 3d bb 3d 28 f4 bb 4f 29 81 bb
       -0.714468 -0.0028954595 -0.007451086 -0.003941692
000260 75 92 1f bc 50 c9 cb be fd 24 55 3e 3b fe 7a 3d
       -0.009739508 -0.39802027 0.20814891 0.06127761
000270 2d be 15 3e 07 f6 34 3e 4a f2 ea 3d d1 db aa 3f
       0.14623328 0.17671977 0.11471994 1.3348333
000280 11 31 d9 3f 5c 6f 1e 3f cd 04 28 3e 9d 35 0c 3f
       1.6968099 0.6188867 0.16408081 0.5476931
000290 66 b5 3f 3f a7 8a e5 3e d9 36 95 3d 23 c1 49 3b
       0.7488617 0.44832346 0.07285852 0.0030785284
0002a0 a7 39 b9 ba 30 af 41 3c 76 85 7d 3d 86 d5 88 3d
       -0.0014131562 0.011821553 0.061894856 0.06681351
0002b0 43 a5 f9 3e 7b c6 b3 be 9e 99 8a 3e 33 6e e1 be
       0.48758897 -0.35112366 0.27070326 -0.44029388
0002c0 c9 29 28 c0 64 f8 38 c0 8d b7 d8 be ac 66 00 be
       -2.6275504 -2.8901606 -0.42327538 -0.12539166
0002d0 eb 2b 1d be 45 1c 18 bd 91 35 ac be c8 33 ba bc
       -0.15348785 -0.037136335 -0.33634618 -0.02272977
0002e0 51 75 67 3b d6 d8 ab bb cf 82 89 3b ec b0 24 3d
       0.0035317729 -0.0052443547 0.004196502 0.04020779
0002f0 cc 79 c0 bd b5 f6 a5 3e 9c 2e 26 3e 53 aa 0d bf
       -0.09398231 0.32414785 0.16228718 -0.5533802
000300 b0 c0 38 3e 19 0b 99 bf d1 bd a0 bf 64 2d e9 bf
       0.18042254 -1.1956512 -1.2557927 -1.8216977
000310 74 9f b3 be 56 53 d0 bf 3e 09 7f 3f 7d 8c 02 bf
       -0.3508259 -1.6275432 0.9962348 -0.5099562
000320 86 f9 47 bd b5 51 94 bd 4d 68 94 3c b8 86 4c 3c
       -0.04882195 -0.07242147 0.01811614 0.012483291
000330 8f 42 a6 3e b5 c5 d7 3d 56 23 1f be 36 28 d0 be
       0.32472655 0.105357565 -0.15540823 -0.4065568
000340 ce 2a 8e 3e f9 33 21 be a8 8d 0c c0 6f 1f 2b c0
       0.27767032 -0.15742482 -2.196146 -2.6737936
000350 88 99 44 3f e9 fd c0 3e a9 39 8b 3e 55 f7 93 3f
       0.7679677 0.37693718 0.2719243 1.1559855
000360 b8 38 66 bd a0 fc 19 3c 6a 07 a2 3c 06 25 1c 3c
       -0.056206435 0.009398609 0.019778926 0.009530311
000370 c5 9d e3 bb db 80 20 be 90 2e 05 be a0 f9 6c be
       -0.006946298 -0.15674154 -0.13006043 -0.231421
000380 71 73 3a 3e f0 4f ca be f1 61 ed 3d da 30 84 40
       0.182081 -0.39514112 0.115909465 4.1309633
000390 ab 0b 86 40 6b da 22 3d c7 f7 51 3d fa 5e 9b be
       4.1889243 0.03975908 0.05126169 -0.303459
0003a0 30 45 51 bf 83 55 8b 3f 10 fc 7a 3c d7 56 9e 3c
       -0.81746197 1.0885471 0.015318885 0.019328518
0003b0 88 42 33 bc 20 86 1f be 9f 7f 81 be 7c 95 5c bd
       -0.010941155 -0.15578508 -0.2529268 -0.053853497
0003c0 81 1c 7c be 8d a2 aa bd c9 9a a5 bc 11 ab 29 3e
       -0.24620248 -0.08331785 -0.020215409 0.16569163
0003d0 c0 83 86 3e cb 06 52 3e ca b7 f6 3b 55 c5 63 be
       0.26272392 0.20510404 0.0075292336 -0.22243245
0003e0 e1 6c c9 bb 2c 03 f3 3d 49 cd f6 bc 3f 6c e5 bd
       -0.0061470126 0.11865839 -0.030127184 -0.11202287
0003f0 05 08 c1 bd c0 af 8b 3d 3e 3b 44 3e 57 b0 0d be
       -0.09425358 0.06820631 0.19163224 -0.138368

bias f4 [64]
000000 03 cd 58 be e7 4a 2f 3e 9c 05 0f bb be 48 3d bd
       -0.21171956 0.17118417 -0.0021823412 -0.04621195
000010 f5 b7 0c bd 01 a8 34 be 63 f6 5f 3c 7f 80 61 3d
       -0.034355123 -0.17642213 0.013669583 0.055054184
000020 f7 23 a0 3e c4 e1 3a 3d 7d 2e 0c 3e 55 4e b8 be
       0.3127744 0.045625463 0.13689609 -0.35997263
000030 ad 2f 46 3e 4a 38 27 3e b7 b7 1a be b3 e0 6b be
       0.19354124 0.16330066 -0.15109144 -0.23034935
000040 c5 80 46 3e e7 db 2f be d6 61 34 be 99 aa 72 be
       0.19385059 -0.1717373 -0.17615446 -0.2369789
000050 c3 89 7a 3d d1 f1 50 bd 8f fd 59 be 1e 07 28 3c
       0.061166536 -0.051011864 -0.21288131 0.010255603
000060 92 2d 99 3d 05 0e b6 3c a9 3d 69 be 66 a5 86 be
       0.07479395 0.022223482 -0.22777428 -0.26298064
000070 76 74 6c be 77 c5 10 3c 78 ab 3b be 7e a7 84 3e
       -0.23091301 0.008836142 -0.18327129 0.25909036
000080 12 ea c4 3d a4 32 46 bd f9 fe 47 3e 94 96 9a 3d
       0.09614958 -0.04838814 0.19530858 0.07548252
000090 3b 2e 8f bc 3e d8 45 be 00 cc 0d be ee 3a 6d be
       -0.0174781 -0.19320771 -0.13847351 -0.23167011
0000a0 66 f1 90 be 28 b5 a0 3e 68 ae 9f be ce 7c 12 3e
       -0.28309172 0.3138821 -0.3118775 0.14305422
0000b0 a6 4d 92 3d 0c 3a aa bc d5 e2 02 3e 82 70 8c 3e
       0.071437165 -0.020779632 0.12781842 0.27429587
0000c0 be 76 66 3e fc 25 31 bd 91 e7 28 be f8 7e 3d be
       0.22506234 -0.043249115 -0.16494586 -0.18505466
0000d0 b7 a3 bc 3d da f5 12 3d 86 44 ca bd 21 9f 3d be
       0.09210914 0.035878994 -0.09876351 -0.18517734
0000e0 82 5c b9 3e 40 e5 33 bd c5 59 3d 3d d8 73 48 3e
       0.3620339 -0.0439198 0.04622819 0.19575441
0000f0 f6 43 40 3d d1 29 1e be f5 db b4 bd ab 68 12 be
       0.046939813 -0.15445639 -0.08831016 -0.1429774

weight f4 [64, 64]
000000 40 08 b4 3d d6 36 5e 3e 0c bf e0 3c 78 23 81 3c
       0.08790636 0.21700606 0.027434848 0.015763983
000010 ad 61 92 bd 26 08 25 be 2c c9 da be e9 97 6b be
       -0.071475364 -0.1611639 -0.42731607 -0.23007168
000020 c3 87 1a 3d b1 68 29 bf 6b 5b a0 bd 29 c3 0c 3e
       0.03772713 -0.6617537 -0.078299366 0.13746323
000030 85 b7 43 be 67 52 a2 bd 7c f4 da 3d d0 45 81 be
       -0.19112976 -0.07925873 0.10691163 -0.25248575
000040 8e 75 33 be b0 b5 ac be 30 19 3c bd b4 d0 35 bd
       -0.17525312 -0.33732367 -0.04592246 -0.044388488
000050 fe 34 66 bd c4 c5 06 be f0 11 6b 3c 91 4a e4 3d
       -0.05620288 -0.13161379 0.014347538 0.11147035
000060 bf 42 b1 be e8 9b fd 3e 8a cf d2 bd 00 ae 26 3e
       -0.34621236 0.4953301 -0.10293491 0.16277313
000070 e6 9b 94 bd 08 1d 17 bd a3 57 ab be c1 61 3f bc
       -0.07256298 -0.03689292 -0.334653 -0.011681021
000080 56 4f cb bd 28 8e 7a be 5d 3d f4 bb 39 f0 cf be
       -0.099272415 -0.24468291 -0.007453604 -0.40612963
000090 a8 51 89 3e ee 0d 35 3e d3 00 aa bd e4 27 80 3d
       0.2682011 0.17681095 -0.083009385 0.062576085
0000a0 5f 7c de 3d 13 5f 65 bb 0b 25 78 be 8e 38 0d bf
       0.10863566 -0.0034999296 -0.24232881 -0.5516442
0000b0 a7 07 99 be 6d 9d 37 be e1 49 9a 3e fa 61 4f be
       -0.2988865 -0.17931147 0.3013449 -0.20252219
0000c0 08 60 9a be 57 ea 6d 3b d1 7e 76 3e b9 3b 31 3d
       -0.3015139 0.0036303008 0.24071814 0.043269847
0000d0 40 9a 2a be e5 c3 1c 3d 47 4b ab 3d 43 d8 65 be
       -0.16660404 0.038272757 0.083639674 -0.22445779
0000e0 f6 f0 85 3d 76 f0 a0 3d 71 3a 51 bf 4b e6 32 3e
       0.065401 0.07858364 -0.817298 0.17470662
0000f0 a5 b0 90 be d3 1d 20 3e 48 be 07 3d 90 e7 c4 bd
       -0.2825977 0.15636377 0.03314045 -0.096144795
000100 40 8e 64 bc 56 e9 53 3e 51 26 23 3e fc 94 4f 3e
       -0.013949931 0.2069448 0.15932585 0.20271677
000110 7e 4a 49 be c3 04 44 3e 40 44 5d bd c3 54 5a 3e
       -0.19657323 0.19142441 -0.054020166 0.21321397
000120 20 7d 5c 3e e6 b6 a5 3c ae 4e 8a be 94 15 f7 bb
       0.21532106 0.020228814 -0.27013153 -0.007540414
000130 a8 76 99 be 58 0b 50 3e d9 64 b1 bd 21 d1 73 3d
       -0.2997334 0.20316827 -0.08661813 0.059525613
000140 91 ab 5d 3e ba b4 10 be 80 b9 36 3d 9a 65 93 3d
       0.21647479 -0.14131442 0.0446105 0.07197113
000150 95 61 75 3e a2 1e 91 be 34 e3 53 bd 91 e3 d5 bd
       0.23963006 -0.28343683 -0.05173035 -0.104437955
000160 eb cc bd 3d 6a d2 95 3d 89 59 20 3e a9 51 aa 3e
       0.092676006 0.07315524 0.15659155 0.33265427
000170 f6 3d d6 bd a0 62 05 3f 52 7b 61 be 9f 4d 27 3b
       -0.10461037 0.52103615 -0.22019699 0.0025528444
000180 3f 09 12 3e c1 2f a1 3d 4d 4b 86 3e b6 a4 e2 3d
       0.1426134 0.078704365 0.26229325 0.11066572
000190 ec f4 85 be 71 65 34 3e b6 f5 b9 bd 20 72 a1 bb
       -0.26163423 0.17616822 -0.09080069 -0.004926935
0001a0 21 9f 24 bd 26 d9 83 3d 01 bf a8 be e1 ed 12 3e
       -0.04019082 0.06437902 -0.32958224 0.14348556
0001b0 20 0a 77 be 6a d6 bc 3e 6d 2a 43 be ec 04 d9 3d
       -0.24124956 0.36882335 -0.19059153 0.10596642
0001c0 93 70 2a be 2f 37 1d be ec ed 94 be 6a af 90 3e
       -0.16644506 -0.15353082 -0.2908777 0.2825883
0001d0 74 5a 89 3e ce 1e 8e bc 17 5a 97 3d fe ae e0 bd
       0.26826823 -0.017348673 0.0739023 -0.10970877
0001e0 d3 23 ed bc 1f b0 76 bd 59 cf 23 3f 38 33 63 be
       -0.028947746 -0.060226556 0.6398826 -0.22187507
0001f0 c6 32 80 be 91 7a 28 3e 14 14 2e 3d 24 eb 52 3d
       -0.25038737 0.16453005 0.042499617 0.05149378
000200 de ec f9 bd 8b af b9 bc 99 0a 33 3e 89 da ab bd
       -0.12203382 -0.022666713 0.17484511 -0.08391292
000210 23 65 65 3e 79 3f fa bb 6d 77 5b 3d b7 3d 5a bd
       0.22401862 -0.007636961 0.05358069 -0.053281512
000220 13 4b 04 bf fc 4c 16 3e 75 6f 3c be b7 24 c5 be
       -0.51677054 0.14677805 -0.18401892 -0.38504574
000230 12 ba 87 be c7 b6 e9 bd 96 33 b4 3d fd 5e cb 3d
       -0.26509148 -0.11411815 0.08798902 0.09930227
000240 ac f9 32 be 68 54 ce bd 0a 49 86 bd e0 c0 9d bc
       -0.17478055 -0.10074693 -0.065569 -0.019257009
000250 62 63 ad be 81 e7 70 3e 00 36 78 3d 24 fe c0 be
       -0.33864886 0.23525812 0.060598373 -0.37693894
000260 09 43 ab be e4 bc dc 3e ca d0 f7 bc a1 05 84 bb
       -0.3344958 0.43112862 -0.030250926 -0.0040289913
000270 70 24 3b 3c 98 63 75 3d 10 92 9c 3d 9d 3f 03 3e
       0.011422262 0.059909433 0.07645047 0.12817235
000280 52 48 92 be 0e b5 0b bd 0f 7c 19 3e 92 49 6e 3e
       -0.285708 -0.034108214 0.14988731 0.23270252
000290 a0 7c 60 be 64 01 e7 bd 7e df 89 be 4e 5d da bd
       -0.2192254 -0.11279562 -0.26928324 -0.10662328
0002a0 1e 27 cc 3a cf f6 d3 3d f7 5e 41 be 43 28 89 bc
       0.0015575623 0.103498094 -0.18883882 -0.016742831
0002b0 56 9d ce 3c 99 63 cf 3e 47 d9 47 be 82 e3 d4 38
       0.025221508 0.40505674 -0.19516478 0.000101513244
0002c0 fb 7d 25 be e5 1b ff be 76 1c 57 3e 8c a6 c3 3c
       -0.16161339 -0.4982597 0.2100695 0.023883127
0002d0 6e 58 0b 3e a2 5d 38 bd d3 ea 8e bc 25 dd 13 be
       0.13607952 -0.04501117 -0.017445957 -0.14439829
0002e0 c3 6a 76 bd 46 68 4b bb a5 38 80 be 85 d3 75 be
       -0.06016041 -0.0031037494 -0.25043216 -0.2400647
0002f0 3a 91 bc bd 26 9a 04 3f 80 26 a5 bd 20 cf 6a 3c
       -0.09207387 0.5179771 -0.08063984 0.014331609
000300 fc 7b 87 bd 65 dc 85 bb b8 73 9b 3c 4c 7c 04 3e
       -0.06615445 -0.004085111 0.018976077 0.1293804
000310 db 3e 83 be 72 a4 12 3c 7d d1 d8 3d 69 7a 9d 3d
       -0.25633892 0.00895034 0.10586832 0.076893635
000320 7a 64 29 be 23 ae 30 bf 5d 5d 73 be 31 6b ac 3e
       -0.16542235 -0.6901571 -0.23766084 0.3367553
000330 bf 72 e0 3d de 78 cb bd cc 02 e1 bd b4 c7 87 3d
       0.10959386 -0.09935163 -0.109868616 0.06629887
000340 e9 d7 1d bf 04 cc e4 be 94 31 11 3d e2 77 e6 bd
       -0.6165758 -0.44686902 0.035447672 -0.112533346
000350 46 00 67 3e 3c f5 da be 8c 61 34 bd 3a 03 ab bd
       0.22558698 -0.42765224 -0.04403834 -0.08350225
000360 a6 99 06 bc d9 14 0e 3f 4e 04 29 3e 55 2f 45 3e
       -0.008215344 0.5550056 0.16505548 0.19256337
000370 0c 40 49 3d 6b 45 41 3e fe 7d 1a bc 8f d6 88 bf
       0.049133345 0.18874137 -0.009429453 -1.0690478
000380 3a 95 1a be e4 b7 d6 bd 48 75 7e 3e 6b f4 9b bd
       -0.15095988 -0.10484293 0.24849427 -0.076149784
000390 72 88 76 3d e4 6b cf 3c b8 3e e4 bd 58 45 a1 bd
       0.06018872 0.025320001 -0.11144775 -0.078745544
0003a0 0f 68 44 bf bd 33 a4 be b7 91 76 be ac aa 3f 3e
       -0.7672128 -0.32070723 -0.24079023 0.1871745
0003b0 5d 47 b2 be 4d 6b 16 bf d9 55 12 bf 5b f5 ce bc
       -0.3482007 -0.5875748 -0.57162243 -0.025263479
0003c0 39 bb 76 bf 9e e2 1f 3d 66 79 29 bf 00 a0 ab bd
       -0.9637943 0.03903448 -0.66200864 -0.08380127
0003d0 6c 9c 74 3e 9c 1b f6 be 7e a5 8a 3c 23 c0 4d be
       0.23887795 -0.4806794 0.016924616 -0.20092826
0003e0 0c b9 13 bf b3 22 b2 3e ec c3 15 3f a4 30 04 bd
       -0.57704234 0.34792098 0.5850208 -0.03227295
0003f0 e6 19 99 be ea 49 79 be b5 51 55 3d 54 19 01 3d
       -0.2990257 -0.24344602 0.052079875 0.031518295
