ddpg/reach_trained_agent.pt (torch, 84799 bytes, 15 tensors)

weight f4 [64, 13]
0	0xbb081564	-0.0020764703
1	0x3e185a7d	0.14878269
2	0xbe69c00b	-0.22827165
3	0xbe5102f0	-0.20411277
4	0xbddac5cf	-0.1068226
5	0x3d98511e	0.07437347
6	0xbbb410f9	-0.0054951874
7	0x3e612f8e	0.21990797
8	0xbcc9a18f	-0.02461317
9	0x3d964daa	0.07339032
10	0xbdaba934	-0.08381882
11	0xbd5f4dab	-0.05451743
12	0xbe87a9a0	-0.264966
13	0xbe3c17a9	-0.183684
14	0xbdea25e9	-0.11433012
15	0x3c285470	0.010274038
16	0x3de08e37	0.10964625
17	0x3e2a690e	0.16641638
18	0xbe408a28	-0.18802702
19	0xbdf7593b	-0.12077566
20	0x3dce4fe2	0.1007383
21	0x3e6bd5e8	0.23030818
22	0xbd69cb5b	-0.0570787
23	0x3e548681	0.20754434
24	0xbd371bc6	-0.04470422
25	0x3cf06a46	0.02934755
26	0x3e8094a0	0.25113392
27	0xbe83bb72	-0.25728947
28	0xbe32caf9	-0.1746024
29	0xbd8fcd18	-0.070215404
30	0xbddd6954	-0.10811105
31	0x3e7561c0	0.2396307
32	0xbe381655	-0.17977269
33	0xbe02bccf	-0.12767337
34	0xbe466b1e	-0.193768
35	0xbe84fea5	-0.25975528
36	0xbe25c93d	-0.16190048
37	0x3e7421a5	0.2384096
38	0x3dfd7535	0.12375871
39	0x3df4dd63	0.11956289
40	0xbc27be40	-0.01023823
41	0xbe1b668e	-0.1517584
42	0x3ce7b43a	0.02828418
43	0xbe983aad	-0.29732266
44	0xbe5b2870	-0.21402144
45	0xbe13d338	-0.14436042
46	0x3e32aa54	0.17447788
47	0x3d8711c2	0.06595184
48	0xbe100db7	-0.14067732
49	0x3cbc2ab6	0.022969585
50	0x3e11600d	0.14196797
51	0x3e761b68	0.24033892
52	0x3d746272	0.059664197
53	0xbc4c8e98	-0.012485169
54	0x3e0a67d7	0.13516174
55	0xbe5a453c	-0.21315473
56	0xbaa5ef94	-0.0012659901
57	0xbe8740d8	-0.2641666
58	0xbe45889d	-0.19290395
59	0xbe12f958	-0.1435293
60	0x3e2dd10f	0.16974281
61	0x3de2f941	0.11082698
62	0xbdd0e2bc	-0.10199496
63	0x3d433a97	0.047663298
64	0x3df89227	0.12137251
65	0xbc032e4f	-0.008006646
66	0xbe34aef2	-0.17644861
67	0x3eac32b9	0.33632448
68	0x3da4e3f2	0.080512896
69	0x3f011160	0.5041714
70	0xbef24c91	-0.4732404
71	0xbf35f02c	-0.710696
72	0xbeac601c	-0.33667076
73	0xbd6d6c1f	-0.05796444
74	0xbee4b2be	-0.4466762
75	0xbf46f496	-0.7771696
76	0x3ef501c4	0.4785291
77	0x3d5fe6ea	0.054663576
78	0x3e14b1b6	0.14520916
79	0xbe8644c0	-0.26224327
80	0xbebc417c	-0.3676871
81	0x3e062494	0.13099891
82	0x3e99772c	0.29973733
83	0xbef6dfe1	-0.4821768
84	0xbe513cd0	-0.20433354
85	0xbe695723	-0.22787146
86	0xbe2f4d97	-0.17119442
87	0xbcfa9f1a	-0.030593444
88	0x3dcb37a3	0.09922721
89	0x3ebd4ae5	0.36971202
90	0x3e81bb76	0.25338334
91	0x3de6b044	0.11264089
92	0x3e2a5191	0.16632678
93	0x3d9cf0f3	0.07663145
94	0xbe9a594b	-0.3014625
95	0xbe57b1c8	-0.21063912
96	0x3de2b6b3	0.11070003
97	0x3d6c7b21	0.057734612
98	0xbe5daaec	-0.21647233
99	0xbe157334	-0.14594728
100	0x3e7fc606	0.24977884
101	0x3e20f5eb	0.1571881
102	0xbe0daca1	-0.13835384
103	0xbdb4d37d	-0.08829401
104	0xbe8745a3	-0.26420316
105	0xbba35a4b	-0.004985129
106	0xbe55dfa6	-0.20886096
107	0xbe5b1200	-0.21393585
108	0xbc7a60db	-0.015281881
109	0x3d2a9195	0.041642744
110	0xbde89e58	-0.11358327
111	0x3e2885e9	0.16457333
112	0xbe2cd43d	-0.16877837
113	0x3e80d979	0.25165918
114	0x3e42a12f	0.19006799
115	0xbe6f7f72	-0.2338846
116	0xbd8d5e99	-0.06902809
117	0x3d11eae0	0.035624385
118	0xbdead9ba	-0.11467309
119	0xbd795e8e	-0.06088119
120	0x3cfb0c6d	0.030645574
121	0xbd706ede	-0.05869948
122	0xbe92d7a0	-0.28680134
123	0x3df23fdd	0.11828587
124	0xbe8b142e	-0.27163833
125	0xbf1f6024	-0.62256074
126	0xbea60b25	-0.32430378
127	0xbc6a7ad2	-0.014311509
128	0x3db7ee0c	0.08980951
129	0xbd013fe8	-0.031555086
130	0xbdd3f23a	-0.103489354
131	0x3c70f495	0.01470675
132	0xbe666029	-0.2249762
133	0xbd705638	-0.058675975
134	0x3e1d7d4d	0.1537983
135	0xbd947c49	-0.07250268
136	0x3bfa9ce0	0.0076480955
137	0xbcc42fb3	-0.023948526
138	0x3cb7b1a8	0.02242358
139	0x3e0ed3c4	0.1394797
140	0x3e68a54a	0.22719303
141	0x3e1c1ed4	0.15246135
142	0x3e80f6ef	0.25188395
143	0x3d7d9bd1	0.061916176
144	0xbeba66a8	-0.36406446
145	0xbe422906	-0.18960962
146	0x3e147afe	0.14500043
147	0xb9bc33e2	-0.0003589681
148	0xbe910d9c	-0.28330696
149	0xbe8810a8	-0.26575208
150	0xbe955b53	-0.29171237
151	0xbf35b2a7	-0.70975727
152	0xbd180301	-0.03711224
153	0x3e9fa0da	0.31177408
154	0x3efb6823	0.49102888
155	0x3d321cde	0.04348456
156	0x3e27f7f3	0.16403179
157	0xbe6767c4	-0.22598177
158	0xbd8a3ca3	-0.06749847
159	0xbdf8be27	-0.12145644
160	0xbd80649b	-0.06269189
161	0xbd8217f6	-0.063522264
162	0xbe7eda6d	-0.2488801
163	0xbe7538d3	-0.23947458
164	0xbd2a3b04	-0.041560188
165	0x3bf112c2	0.0073569724
166	0xbe047f7a	-0.12939253
167	0x3dd4184a	0.10356195
168	0xbe8074e3	-0.25089177
169	0x3c22cafa	0.009936089
170	0x3e33183d	0.17489715
171	0xbe4e16d2	-0.20125893
172	0x3d01d299	0.031694982
173	0x3e60ba31	0.21946026
174	0xbef69f3c	-0.4816836
175	0xbd5e6e2a	-0.05430428
176	0xbe310a12	-0.17288998
177	0xbec1e6a7	-0.37871286
178	0x3ebedca5	0.37277713
179	0xbf12050e	-0.5703896
180	0x3ee6faf8	0.4511335
181	0xbdd8870b	-0.105726324
182	0x3e83051a	0.2558983
183	0xbe19b381	-0.15009882
184	0x3eb8f39e	0.36123365
185	0xbd91b65b	-0.0711486
186	0x3d14bb4e	0.03631144
187	0xbea71793	-0.32635173
188	0xbf2710f8	-0.6526027
189	0xbd9b7517	-0.075906925
190	0x3ec17201	0.3778229
191	0x3ecce290	0.40016603
192	0x3e0564b1	0.13026692
193	0x3e125a98	0.14292371
194	0xbe6bd0bf	-0.23028849
195	0xbe1c5751	-0.15267684
196	0xbe257dfd	-0.16161342
197	0x3dc21d99	0.094783016
198	0xbe293e43	-0.16527657
199	0xbbc64781	-0.0060510044
200	0x3c3f2974	0.011667598
201	0x3e3713bf	0.17878626
202	0xbe56afab	-0.2096545
203	0xbe42f954	-0.19040424
204	0xbe24e962	-0.16104653
205	0x3e46c920	0.1941266
206	0xbdcc2e49	-0.09969766
207	0x3e6f8e68	0.23394167
208	0x3e2a213a	0.16614237
209	0x3e0b1614	0.13582641
210	0xbd4c678c	-0.049903437
211	0xbe7bcda5	-0.24590166
212	0x3dff81f0	0.124759555
213	0xbe3b0543	-0.18263726
214	0xbe10a5d9	-0.14125766
215	0xbc9c3754	-0.019069351
216	0x3dd8c450	0.10584319
217	0xbe366989	-0.17813696
218	0x3ecccf95	0.40002123
219	0xbe27cb65	-0.16386183
220	0xbf35a04b	-0.7094771
221	0x3ef818f1	0.4845653
222	0x3dba624b	0.09100779
223	0xbb5fc90a	-0.0034146928
224	0xbebb57fb	-0.3659056
225	0x3e7667cf	0.24063037
226	0xbebbf297	-0.3670852
227	0xbe5eaa76	-0.21744713
228	0xbe2f9be9	-0.17149319
229	0xbdcb3079	-0.09921355
230	0xbbeedad8	-0.007289272
231	0x3dde30b5	0.10849134
232	0x3e3cd547	0.18440734
233	0xbe2eb01e	-0.17059371
234	0x3e2dbaf6	0.16965851
235	0xbe338d89	-0.1753446
236	0x3dfec193	0.12439265
237	0xbe48c359	-0.19605769
238	0xbdf0bcfa	-0.117547944
239	0x3da710c6	0.08157496
240	0x3dbb8dac	0.09157881
241	0x3e5511d4	0.20807582
242	0xbdb6da37	-0.0892834
243	0x39e8c88d	0.0004439991
244	0x3e123697	0.14278637
245	0xbe89548a	-0.2682231
246	0x3e4d54c9	0.20051874
247	0xbe6ad9f2	-0.22934702
248	0x3b7a8438	0.0038225781
249	0xbd4124ba	-0.047154166
250	0xbe15941b	-0.14607279
251	0x3d162655	0.03665765
252	0x3e6ad9ad	0.22934599
253	0xbda60a92	-0.08107485
254	0xbe289cec	-0.16466111
255	0xbdd212c2	-0.10257484

bias f4 [64]
0	0x3ce3d77d	0.027812714
1	0xbdd34b9b	-0.10317155
2	0xbe6dd7a1	-0.23226787
3	0x3dbb8f38	0.09158176
4	0xbc752609	-0.014962682
5	0xbe2258dd	-0.15854211
6	0xbdf1ca7f	-0.11806201
7	0x3d319b7a	0.043361165
8	0xbd4d69a6	-0.050149582
9	0x3e08ded5	0.13366254
10	0xbcec4e3f	-0.028845904
11	0x3de25747	0.11051803
12	0x3de51223	0.111851
13	0xbe1416fa	-0.1446189
14	0xbc955fc6	-0.018234145
15	0x3e5193ee	0.20466587
16	0xbd8e36c8	-0.069440424
17	0x3d02f530	0.03197211
18	0x3c251cd9	0.010077679
19	0x3e44a309	0.19202818
20	0xbde2fab9	-0.11082978
21	0xbe16f823	-0.14743094
22	0x3db886e9	0.09010107
23	0xbe772cc4	-0.2413817
24	0xbd4f9054	-0.05067475
25	0xbe236e5f	-0.15960072
26	0x3dabb631	0.0838436
27	0xbe93ca41	-0.28865245
28	0x3e22a6bf	0.15883921
29	0x3e022840	0.12710667
30	0x3d65dd18	0.056119055
31	0xbe21c730	-0.1579864
32	0x3e55c70a	0.20876709
33	0xbe28244d	-0.16420098
34	0xbd9a7a2c	-0.07542834
35	0xbdf8bc57	-0.12145298
36	0xbb82e857	-0.003994982
37	0x3d2ceb1f	0.042216416
38	0x3ce55ed0	0.027999312
39	0xbe04a299	-0.12952651
40	0xbe8dfb0a	-0.2773059
41	0x3c68ad3c	0.014201459
42	0xbc069af2	-0.008215653
43	0x3d2ae66b	0.04172365
44	0x3e54d66b	0.20784919
45	0x3e46307d	0.19354434
46	0xbe639186	-0.22223482
47	0xbd05e085	-0.03268482
48	0xbde3967c	-0.11112687
49	0xbe82e06e	-0.2556185
50	0xbe4ea8f0	-0.20181632
51	0x3ea0ff8b	0.31444964
52	0x3db6744e	0.08908902
53	0x3dec08af	0.11525094
54	0x3ea0fb9d	0.31441966
55	0xbe720a91	-0.23636843
56	0xbd135318	-0.035967916
57	0x3dcd0af4	0.10011855
58	0xbe23b350	-0.15986371
59	0x3e6220af	0.2208278
60	0x3d954bb1	0.072898276
61	0x3e47cf9a	0.19512787
62	0xbdfc266e	-0.123120174
63	0x3bbb36db	0.0057133264

weight f4 [64, 64]
0	0xbde2f0dc	-0.110810965
1	0xbc0209f0	-0.00793694
2	0x3d2ac738	0.041693896
3	0x3d198bc4	0.037486807
4	0x3d96a62e	0.07355915
5	0x3f125a81	0.5716935
6	0x3d9701c3	0.07373383
7	0x3dabe05c	0.083924025
8	0x3db3fbe0	0.08788276
9	0x3c25e1a1	0.010124595
10	0xbdc51e48	-0.09624916
11	0xbd3e117c	-0.046403393
12	0xbc65eaf0	-0.014033064
13	0xbebfaf0b	-0.37438235
14	0x3eac18b2	0.3361259
15	0x3d33b9d8	0.043878406
16	0xbe0576e9	-0.13033642
17	0x3ea90233	0.3300949
18	0x3de0e240	0.10980654
19	0x3d3a7c88	0.04552892
20	0xbd3fc8ec	-0.046822473
21	0xbdb9d352	-0.09073509
22	0x3d61a9f0	0.055093706
23	0x3c8b8cc8	0.017034903
24	0xbe41933a	-0.18903819
25	0x3e9bebe0	0.30453396
26	0xbca36331	-0.01994476
27	0x3ce0fe92	0.027465139
28	0x3ebb68cb	0.36603388
29	0xbe331d22	-0.17491582
30	0x3d425900	0.04744816
31	0xbbc03405	-0.005865576
32	0x3dbd94f7	0.092569284
33	0x3d20a924	0.039223805
34	0x3dfd2124	0.12359837
35	0xbdfc69f8	-0.123248994
36	0xbdd5e0b4	-0.10443249
37	0x3dad1506	0.084512755
38	0xbb3ac43a	-0.0028498308
39	0x3f184e2e	0.5949429
40	0x3daa324a	0.08310373
41	0xbdd79f18	-0.105283916
42	0x3db94bda	0.09047671
43	0xbdf1b3a0	-0.11801839
44	0x3ce4c368	0.027925208
45	0xbd5d500c	-0.054031417
46	0x3d968093	0.07348742
47	0xbd631106	-0.055436157
48	0xbd494ee4	-0.0491475
49	0xbca20530	-0.019777864
50	0xbdf2a49e	-0.118478045
51	0xbdfb1f67	-0.12261849
52	0x3f0ebabf	0.557537
53	0xbd674336	-0.05646058
54	0x3e526967	0.2054802
55	0xbd111ee9	-0.03542987
56	0xbdd14c2c	-0.10219607
57	0xbe5942a0	-0.21216822
58	0x3d992eee	0.07479654
59	0xbda5778d	-0.08079443
60	0x3c886680	0.016650438
61	0xbd8bd7ac	-0.068282455
62	0x3d2a57c8	0.04158762
63	0xbddd6ddc	-0.1081197
64	0xbdb6f4cc	-0.0893341
65	0x3cdc5ab8	0.026898727
66	0x3de91968	0.11381799
67	0xbdd2be6a	-0.10290225
68	0xbd9c6348	-0.07636124
69	0x3d426c89	0.04746679
70	0x3e45acaf	0.19304155
71	0xbdae2a56	-0.08504169
72	0x3ce16ba0	0.02751714
73	0x3e1a47a4	0.15066391
74	0x3d28995f	0.04116189
75	0x3e7a558b	0.24446695
76	0x3e078a75	0.13236411
77	0x3b4187d7	0.002953043
78	0x3c9eaf99	0.01937084
79	0x3c3105a0	0.010804564
80	0x3de8c0ec	0.11364922
81	0x3f324b89	0.6964651
82	0xbdfeb3ec	-0.12436661
83	0x3d8aa018	0.06768817
84	0xbe8875e6	-0.2665245
85	0xbdfaae3e	-0.12240265
86	0x3c1e4be0	0.009661645
87	0xbd8b5eb2	-0.06805171
88	0xbcb05431	-0.02152452
89	0x3de55db5	0.11199514
90	0x3c62d866	0.013845539
91	0x3e6514e0	0.22371244
92	0x3efdd0ce	0.49573368
93	0x3dfb7d62	0.12279774
94	0x3c309320	0.010777265
95	0x3e076fc5	0.1322623
96	0x3dc0b507	0.09409528
97	0xbd4106e8	-0.047125727
98	0xbd903e5c	-0.07043144
99	0x3bdfd380	0.0068306327
100	0xbdcb6dfa	-0.09933086
101	0xbcf01e08	-0.029311195
102	0x3dfa985f	0.12236094
103	0x3d9a6c45	0.07540182
104	0xbc2e1d90	-0.010627165
105	0xbdc7a62c	-0.09748492
106	0xba498500	-0.000768736
107	0xbdd47dc8	-0.10375553
108	0x3e488566	0.19582137
109	0x3d99cfc9	0.07510335
110	0x3deb4e2f	0.11489522
111	0xbd9bacd1	-0.076013215
112	0xbcfa0968	-0.030522063
113	0xbd0c5b4c	-0.034266755
114	0x3cad59b0	0.02116093
115	0x3e1adc7d	0.15123172
116	0x3e1d65de	0.1537089
117	0x3bc14ee4	0.005899297
118	0xbdd08803	-0.10182192
119	0x3de85bdc	0.11345646
120	0x3dd825c3	0.105540775
121	0x3d18e752	0.03732998
122	0xbd93435a	-0.07190581
123	0xbd638fda	-0.05555711
124	0x3d91c944	0.071184665
125	0xbd9fef9c	-0.07809374
126	0x3e5ac021	0.21362354
127	0x3d9850aa	0.074372604
128	0xbc0f7ec0	-0.008758247
129	0xbdf1caaa	-0.11806233
130	0xbd939b14	-0.07207313
131	0x3d926ba5	0.07149438
132	0x3bd8e4f3	0.0066190897
133	0xbe081ec1	-0.13292982
134	0x3eac1751	0.3361154
135	0x3d00342f	0.031299766
136	0xbc21f1f0	-0.009884343
137	0xbd441857	-0.047874775
138	0x3b845a59	0.0040390906
139	0x3d2c286b	0.042030733
140	0xbda053e9	-0.078285046
141	0x3d8b2d7a	0.06795783
142	0xbc7c49dd	-0.01539847
143	0x3d9d1f0a	0.07671936
144	0x3ee0cd2f	0.43906543
145	0x3f49d24b	0.78836507
146	0xbd03fbd8	-0.0322226
147	0xbd92a7f4	-0.07160941
148	0x3d348583	0.04407264
149	0x3c98a830	0.018634886
150	0x3d8c29ce	0.06843911
151	0x3d55be98	0.052183717
152	0x3c04dbd7	0.0081090545
153	0x3f06d304	0.52665734
154	0x3e3bb9b5	0.1833256
155	0xbd255475	-0.040363748
156	0x3f291842	0.6605264
157	0x3d8840f6	0.06653015
158	0xbde1019a	-0.109866336
159	0x3cff2b05	0.031148443
160	0x3dbfa381	0.09357358
161	0x3d41bfac	0.047301933
162	0x3ded30e6	0.11581592
163	0xbd2f7634	-0.042837337
164	0xbe5d2383	-0.21595578
165	0x3dfb4b3f	0.122702114
166	0x3ef152ae	0.47133392
167	0x3e3c9912	0.18417767
168	0xbd55dc54	-0.052212074
169	0xbda45e7e	-0.080258355
170	0xbc700d50	-0.014651611
171	0xbdf10b62	-0.11769749
172	0x3d190216	0.037355505
173	0x3c335dcc	0.010947656
174	0x3ec6766b	0.3876222
175	0xbe028d86	-0.127493
176	0x3d7dda54	0.061975792
177	0xbda27f10	-0.079343915
178	0x3dfa6e24	0.12228039
179	0xbdb6e3c5	-0.08930162
180	0xbe398cf2	-0.18120173
181	0x3be50616	0.006989251
182	0x3cc72a47	0.024312152
183	0xbd812f42	-0.06307842
184	0x3dfc41d3	0.123172425
185	0xbd91928f	-0.07108032
186	0x3d3dafce	0.04631024
187	0xbe027d0d	-0.12743016
188	0x3d4d38c0	0.05010295
189	0x3db4cc50	0.08828032
190	0x3d7aad44	0.061200395
191	0x3cc0af03	0.023520952
192	0xbbfc4f60	-0.007699892
193	0xbda08ee2	-0.07839753
194	0xbd393104	-0.04521276
195	0x3da65bca	0.08122976
196	0xbd4d4f6c	-0.05012457
197	0x3d9efc76	0.07762997
198	0xbd4b063c	-0.049566492
199	0xbcee7d08	-0.029112354
200	0x3b2e5800	0.0026602745
201	0xbdeaec20	-0.114708185
202	0xbaa39800	-0.0012481213
203	0xbc4e6e00	-0.012599468
204	0xbc37fc20	-0.011229545
205	0xbcccb3b0	-0.024988025
206	0x3dc9d318	0.09854716
207	0x3dbcecba	0.092248395
208	0xbdad8180	-0.08471966
209	0x3d6dd674	0.058065847
210	0xbdc8cd4c	-0.09804782
211	0xbdd9f032	-0.10641517
212	0x3d1c8258	0.038210243
213	0x3af0c980	0.0018370599
214	0xbd6ed9ec	-0.058313295
215	0xbdf6e9b8	-0.12056297
216	0xbd4636b4	-0.048392013
217	0x3d2b01fc	0.04174994
218	0xbdecf438	-0.115700185
219	0xbdf8b1f6	-0.12143318
220	0x3c81eae0	0.015859067
221	0xbdb86c68	-0.09005052
222	0xbde046cc	-0.109510034
223	0xbd45443c	-0.048160776
224	0xbca4dd68	-0.020125106
225	0xbde8a0e8	-0.113588154
226	0xbdaaf034	-0.08346596
227	0x3c064870	0.008195981
228	0xbdf16698	-0.11787146
229	0xbc8fed80	-0.017569304
230	0xbda54cc6	-0.08071284
231	0xbdb17800	-0.08665466
232	0x3d493b5c	0.049128875
233	0xbdc50a62	-0.09621121
234	0xbdc2016c	-0.094729275
235	0x3d91fdf8	0.07128519
236	0x3cbf7418	0.023370788
237	0x3de9247a	0.113839105
238	0xbd08daf4	-0.033411935
239	0xbd774dc0	-0.060376883
240	0xbc3d8900	-0.011568308
241	0x3a25c900	0.0006324202
242	0x3dc33ca8	0.09533054
243	0xbdfeff18	-0.12450999
244	0xbc11d1b0	-0.008900091
245	0x3d627bfc	0.055294022
246	0xbd8cf990	-0.06883538
247	0xbd821584	-0.0635176
248	0x3d776ee0	0.060408473
249	0xbdf54ba0	-0.11977315
250	0x3cf2a488	0.02961947
251	0xbdc63116	-0.09677331
252	0x3d7e7ee4	0.06213273
253	0xbddae3ee	-0.106880054
254	0x3d9d63d8	0.07685059
255	0xbdf25684	-0.11832908

bias f4 [64]
0	0x3d7229aa	0.059121765
1	0x3dfa1627	0.122112565
2	0x3db00d4b	0.085962854
3	0xbcf89c28	-0.030347899
4	0xbdea6776	-0.11445515
5	0xbdadd400	-0.084877014
6	0xbc3359c6	-0.010946697
7	0xbe17b2f4	-0.14814359
8	0x3e8bbf29	0.2729428
9	0xbcdfb5cc	-0.027308367
10	0x3d993fc0	0.074828625
11	0xbda7c366	-0.08191566
12	0xbd6dce0e	-0.058057837
13	0xbcaab7d7	-0.020839615
14	0xbda55d3f	-0.08074426
15	0xbdd64830	-0.104629874
16	0xbd0222af	-0.031771358
17	0x3dbbddfc	0.091731995
18	0x3e64b427	0.22334348
19	0xbd0f56cb	-0.03499488
20	0xbd8d9df2	-0.06914891
21	0xbd639bf6	-0.055568658
22	0x3d2f6a90	0.042826235
23	0xbd885318	-0.06656474
24	0xbdecd3b0	-0.11563814
25	0xbcce3c9b	-0.025175383
26	0x3d8cff48	0.068846285
27	0xbdef51fc	-0.11685559
28	0x3dbb26e3	0.091382764
29	0xbdc7b61d	-0.09751532
30	0xbc787da0	-0.01516667
31	0xbce2bb68	-0.027677253
32	0xbd599e9f	-0.05312979
33	0xbe083e28	-0.1330496
34	0xbc484305	-0.01222301
35	0xbd8a0932	-0.06740035
36	0x3e06bb62	0.13157418
37	0xbb20a5aa	-0.0024512806
38	0xbe088d8d	-0.13335247
39	0xbdc2c0ca	-0.09509428
40	0xbd856afa	-0.06514545
41	0xbc83d19c	-0.01609116
42	0xbda54908	-0.0807057
43	0xbd8a94a1	-0.0676663
44	0xbd15021b	-0.03637896
45	0xbc98fa94	-0.018674172
46	0xbde34397	-0.11096876
47	0x3e2db51f	0.16963623
48	0xbde41399	-0.111365505
49	0x3d91c612	0.07117857
50	0x3c8879a7	0.01665957
51	0xbe4062ff	-0.18787764
52	0x3c9126cd	0.017718697
53	0xbe1ea753	-0.15493517
54	0x3cb77bbd	0.02239787
55	0x3d8f4f3f	0.06997537
56	0xbdf2ff38	-0.11865085
57	0xbdb614aa	-0.0889066
58	0xbdf79f48	-0.12090927
59	0x3d7204a3	0.059086453
60	0x3c09f13b	0.00841933
61	0xbd971452	-0.07376923
62	0x3e2e5b34	0.17026979
63	0x3a24a438	0.0006280574

weight f4 [64, 64]
0	0x3e1735c3	0.14766602
1	0x3e2a9d0e	0.16661474
2	0x3e48f494	0.19624549
3	0x3def3f3a	0.116819814
4	0x3de5412a	0.1119407
5	0x3dd00ba0	0.10158467
6	0x3d20c379	0.039248917
7	0x3d4de86e	0.05027049
8	0x3e91da68	0.28486943
9	0xbdb5d8dc	-0.08879253
10	0x3ededbd5	0.43527094
11	0xbe91eff6	-0.28503388
12	0x3dbf5aaa	0.09343465
13	0xbda087f6	-0.078384325
14	0xbd40c858	-0.047066063
15	0x3dbfec84	0.09371284
16	0x3e393beb	0.18089263
17	0xbf55f91b	-0.8358323
18	0xbda5b7c3	-0.080916904
19	0xbdc8cc10	-0.09804547
20	0xbf0b9d9a	-0.54537356
21	0xbc56e870	-0.013116941
22	0x3dba10c2	0.090852275
23	0xbd1a8388	-0.037723094
24	0x3dd5a82c	0.10432467
25	0x3dbd2459	0.092354484
26	0xbdd133fd	-0.10214994
27	0xbdb43b2e	-0.0880035
28	0x3dbd3f05	0.09240536
29	0xbdf5ca29	-0.120014496
30	0xbddba524	-0.107248574
31	0xbda3d762	-0.080000654
32	0x3c9f36c2	0.01943529
33	0x3ad00e5a	0.0015873418
34	0xbb6fcba2	-0.003658988
35	0x3ce0cc87	0.027441276
36	0x3dd0b58f	0.101908796
37	0x3e3af970	0.18259215
38	0x3d5970c4	0.053086057
39	0x3dcb95d4	0.09940687
40	0xbbca6ec0	-0.006177753
41	0xbd81ec9a	-0.06343956
42	0x3cc71338	0.024301156
43	0x3d795512	0.060872145
44	0xbd16f411	-0.036853854
45	0xbdb476ff	-0.08811759
46	0x3e2a1fbf	0.16613673
47	0xbd75d1bd	-0.060014475
48	0xbda0c099	-0.07849235
49	0x3d95ae81	0.073086746
50	0xbd732c4f	-0.059368428
51	0xbf03b0af	-0.5144147
52	0x3c234ebc	0.009967502
53	0x3d6a7e0e	0.05724912
54	0x3daea0ef	0.085267894
55	0xbea5f15f	-0.32410714
56	0x3c4a8848	0.012361594
57	0xbb313b40	-0.0027043372
58	0x3d740d54	0.059583023
59	0xbda9e037	-0.08294719
60	0x3d37ad44	0.044842973
61	0xbe994997	-0.29938957
62	0xbea06d45	-0.31333366
63	0x3bdf633c	0.0068172496
64	0x3e626078	0.22107112
65	0x3ec82cbe	0.39096636
66	0x3f277571	0.65413576
67	0x3de9b7f6	0.11412041
68	0xbd1a953c	-0.037739977
69	0xbde4c682	-0.11170675
70	0x3d15cdd0	0.03657323
71	0xbe12dde6	-0.1434246
72	0x3f49ffea	0.7890612
73	0x3f0d8ffb	0.5529782
74	0x3e8a05af	0.2695746
75	0x3e92ea21	0.2869425
76	0x3ee40e12	0.44541985
77	0x3ee320e0	0.4436102
78	0x3d9bd46c	0.07608876
79	0xbd1f58ac	-0.038902923
80	0x3eed52ac	0.46352136
81	0xbf5e6132	-0.8686706
82	0x3f029b97	0.5101866
83	0x3e549f2a	0.20763841
84	0x3ee6d04e	0.450808
85	0x3d5f283c	0.05448173
86	0x3dda1b42	0.1064973
87	0x3cc21500	0.023691654
88	0x3d6c0bf4	0.057628587
89	0xbdb41a1a	-0.08794041
90	0x3f556495	0.833566
91	0xbdbec5a0	-0.09315038
92	0x3e8e8060	0.27832317
93	0x3d5377d8	0.051627964
94	0x3c06c690	0.008226052
95	0xbdef9aa2	-0.11699416
96	0x3de8cbe4	0.11367014
97	0x3da33c74	0.07970515
98	0x3dd6798d	0.10472403
99	0x3dc456ee	0.09586893
100	0x3f0f523a	0.5598484
101	0x3e89504d	0.26819077
102	0xbd1fadf6	-0.03898426
103	0x3d4af554	0.04955037
104	0x3d319078	0.043350667
105	0xbb84cae0	-0.004052505
106	0x3ca2e040	0.019882321
107	0x3d2fe104	0.0429392
108	0xbdf76326	-0.12079458
109	0xbe0145fa	-0.1262435
110	0x3ea69707	0.325371
111	0x3cdd4ac7	0.027013196
112	0x3dfbbc67	0.12291794
113	0xbe82aee5	-0.2552406
114	0x3dafd78f	0.085860364
115	0x3e085849	0.13314928
116	0x3e020994	0.12698966
117	0xbc8b9423	-0.01703841
118	0x3c261e77	0.010139099
119	0x3f2196af	0.6312055
120	0x3bfb53a0	0.007669881
121	0xbd45b6e4	-0.04827012
122	0xbd9c73cc	-0.07639274
123	0x3d8dcbbe	0.06923626
124	0x3f1effd9	0.6210914
125	0x3ee80c84	0.4532205
126	0xbde1ea15	-0.11030976
127	0x3c4947e0	0.012285203
128	0x3eb66d2e	0.35630172
129	0x3e7045f9	0.23464192
130	0x3e0fd49a	0.14045945
131	0x3ba3a2e0	0.0049937814
132	0x3daa1e9a	0.08306618
133	0x3df4c050	0.11950743
134	0xbdc1a6fe	-0.09455679
135	0x3df306b2	0.118665114
136	0x3ea56ae3	0.3230811
137	0xbe8d4253	-0.27589664
138	0xbe6800c6	-0.22656545
139	0x3e92f0a7	0.28699228
140	0xbe974a89	-0.29549053
141	0x3f38d81f	0.72204775
142	0xbdf4616a	-0.11932643
143	0x3d39dd9c	0.04537736
144	0x3f141d00	0.5785675
145	0x3f84742b	1.0347952
146	0x3ebf303a	0.3734148
147	0x3ee66f25	0.45006672
148	0x3f1d0e54	0.6134999
149	0x3d38ecac	0.045147583
150	0x3df23376	0.11826222
151	0xbc3d15c0	-0.01154083
152	0x3cfd1500	0.030893803
153	0xbca925b8	-0.020647869
154	0x3f22a200	0.6352844
155	0xbd775be8	-0.060390383
156	0x3da4f3e4	0.08054331
157	0x3d941720	0.07230973
158	0x3d5bb68c	0.053640887
159	0xbd620424	-0.05517973
160	0xbde19cfa	-0.11016269
161	0x3d7a589c	0.06111966
162	0xbdd8b839	-0.10582013
163	0xbd4514cb	-0.048115533
164	0xbe1edb3a	-0.15513316
165	0x3e7381b9	0.23779954
166	0x3dbaef4e	0.09127675
167	0xbdd2643a	-0.10273023
168	0xbdee02fe	-0.116216645
169	0xbd975bfa	-0.0739059
170	0x3d0d482c	0.034492657
171	0xbd8004fa	-0.06250949
172	0xbcf3dc90	-0.029768258
173	0x3e9f3219	0.3109291
174	0x3edb7056	0.42859143
175	0xbee0e97a	-0.43928128
176	0xbbb82477	-0.0056195813
177	0x3e5d4910	0.21609902
178	0x3f02a8f0	0.5103903
179	0x3f2e2f22	0.6804067
180	0x3e89960d	0.26872292
181	0x3e91f251	0.28505185
182	0x3d676bb9	0.056499217
183	0x3f045eb8	0.5170703
184	0x3d318b1c	0.043345556
185	0xbdacf28a	-0.08444698
186	0x3c24d410	0.010060325
187	0x3d110788	0.035407573
188	0x3d146038	0.036224574
189	0x3e0ccbfa	0.13749686
190	0xbdfc8a89	-0.12331111
191	0xbd7f8aac	-0.062388107
192	0xbe224c12	-0.15849331
193	0xbbefabcb	-0.0073141805
194	0xbe016a35	-0.12638171
195	0xbd09717c	-0.033555493
196	0xbd6471e8	-0.055772692
197	0x3b45a49e	0.0030157934
198	0x3cccdbb3	0.025007105
199	0xbdba0812	-0.090835705
200	0xbd2479be	-0.040155165
201	0xbda49b8f	-0.08037483
202	0xbd93fd34	-0.07226029
203	0x3b8c178f	0.0042752693
204	0x3c865a3c	0.016400449
205	0xbe274777	-0.16335855
206	0x3dc94c0a	0.098289564
207	0x3db5e9e0	0.08882499
208	0xbd53760f	-0.05162626
209	0xbb9d812d	-0.0048066587
210	0xba9a0f93	-0.0011753909
211	0xbd285fe1	-0.041107062
212	0xbde179cb	-0.11009558
213	0x3dc9e6ac	0.0985845
214	0x3d309ee3	0.043120276
215	0xbdd5ee64	-0.1044586
216	0xbdc6676e	-0.096876964
217	0x3d77cde4	0.060499087
218	0xbcd89416	-0.0264378
219	0xbceb4270	-0.028718203
220	0x3d30de0d	0.043180514
221	0x3c69c790	0.014268771
222	0x3d37cb08	0.04487136
223	0x3dcb1848	0.09916741
224	0xbd09ca4e	-0.0336402
225	0x3df3efa2	0.11910941
226	0xbde369ac	-0.1110414
227	0xbd9bc6aa	-0.076062515
228	0x3c1b0e81	0.009463907
229	0xbd2322b4	-0.039828017
230	0x3d921638	0.07133144
231	0xbd0b3a08	-0.03399089
232	0x3ca105b0	0.019656032
233	0xbd5ace4b	-0.053419393
234	0x3dc030ec	0.09384331
235	0xbcafa787	-0.021442188
236	0xbcae3960	-0.021267593
237	0x3d7c686f	0.061623033
238	0x3dc3bd6d	0.095576145
239	0x3d4b52e9	0.049639616
240	0xbe1847ed	-0.14871188
241	0xbe264ad0	-0.16239476
242	0xbdab0e2f	-0.08352315
243	0xbd4ac0e1	-0.04950035
244	0x3c990a94	0.018681802
245	0x3d3b0b5e	0.045665137
246	0xbc5b4ad1	-0.013384537
247	0xbd21305f	-0.03935277
248	0x3bcea5ed	0.006306401
249	0x3ddcafc0	0.10775709
250	0x3d84a9a0	0.06477666
251	0xbd8120fc	-0.063051194
252	0xbde48730	-0.111585975
253	0x3a651dcf	0.00087400986
254	0xbd211536	-0.03932687
255	0xbda43c04	-0.080192596

bias f4 [64]
0	0x3d42738b	0.04747347
1	0x3d5aff32	0.05346603
2	0xbcc931d1	-0.024559887
3	0x3ccc4a9d	0.024937922
4	0x3e3c812d	0.18408652
5	0xbd8321da	-0.06402941
6	0xbd65a708	-0.056067497
7	0x3e6e739b	0.23286287
8	0xbde80cf8	-0.113305986
9	0x3dc04dad	0.093898155
10	0x3e133f68	0.14379656
11	0x3e2de2b5	0.16981013
12	0xbe102d84	-0.14079863
13	0xbe268ebc	-0.16265386
14	0x3c748e22	0.014926465
15	0xbd19b6cc	-0.037527844
16	0xbe32633f	-0.17420672
17	0xbdeb2854	-0.11482301
18	0xbd548c9f	-0.05189192
19	0xbdc93ee3	-0.09826448
20	0x3d098d5e	0.033582084
21	0xbe34305e	-0.17596576
22	0xbd93cefb	-0.07217213
23	0x3b2595d7	0.0025266313
24	0x3da4f403	0.08054354
25	0x3d338a36	0.04383298
26	0x3d4bede1	0.049787406
27	0x3cbe26c7	0.02321185
28	0x3dd90aa2	0.10597731
29	0x3bec46ef	0.0072106044
30	0xbd65e986	-0.05613091
31	0x3e29f1ca	0.16596141
32	0xbda648f3	-0.08119383
33	0xbd184696	-0.03717669
34	0x3d905bfe	0.07048796
35	0x3c4875a2	0.012235077
36	0x3e3db58c	0.18526286
37	0xbd96a269	-0.07355196
38	0xbd36ca2f	-0.04462641
39	0xbdb3f706	-0.0878735
40	0x3e8644e3	0.2622443
41	0xbe314f08	-0.17315304
42	0x3d1a2046	0.037628435
43	0xbd94ad94	-0.0725967
44	0x3dfb7807	0.12278753
45	0xbe39414d	-0.18091317
46	0xbd588d04	-0.052868858
47	0x3e3e2978	0.18570507
48	0xbe0086de	-0.12551448
49	0x3da952c4	0.082677394
50	0xbd92800c	-0.07153329
51	0x3bf3da40	0.007441789
52	0x3d0b278c	0.03397326
53	0x3e906ff5	0.28210416
54	0x3c93a92f	0.018025009
55	0x3b5be6bf	0.0033554283
56	0x3e0c45dc	0.13698524
57	0x3db165fd	0.08662031
58	0xbe173f53	-0.1477025
59	0x3e0f1080	0.13971138
60	0x3c847436	0.016168695
61	0x3e031f9d	0.12805028
62	0x3d98454e	0.07435094
63	0x3d7bd810	0.06148535

weight f4 [4, 64]
0	0xbdf85ec3	-0.12127449
1	0xbda6cc8d	-0.08144484
2	0xbdf13826	-0.117782876
3	0x3c50b7e3	0.0127391545
4	0xbe5f1e33	-0.21788864
5	0xbe3ce2f0	-0.18445945
6	0xbc16b60e	-0.009198679
7	0x3e9ba5a8	0.30399823
8	0x3d82a3cd	0.06378899
9	0xbde22941	-0.11043025
10	0xbe0f423b	-0.13990109
11	0xbe5e245a	-0.21693555
12	0xbe80c94c	-0.25153577
13	0xbecb9e9b	-0.39769444
14	0x3f06e782	0.52697
15	0xbe6acfc4	-0.22930819
16	0xbd9835a2	-0.07432105
17	0xbe5610f1	-0.209049
18	0x3d3418a7	0.043968823
19	0xbd98ba3c	-0.074573964
20	0xbebcbd95	-0.3686339
21	0xbe4eea40	-0.20206547
22	0xbe03baa5	-0.12864168
23	0x3df43b40	0.119253635
24	0xbe968042	-0.29394728
25	0xbb1cbb0a	-0.0023915195
26	0x3f1e0eb9	0.61741215
27	0x3d923b3d	0.07140205
28	0x3dfbea51	0.12300552
29	0x3ebb4337	0.36574718
30	0xbbff8852	-0.007798233
31	0xbc5a1db1	-0.013312743
32	0x3d4d9ae1	0.050196532
33	0xbe44a0e4	-0.19202
34	0xbc58ba3a	-0.013227994
35	0x3e9e12d8	0.30873752
36	0x3e500246	0.20313367
37	0xbd8f83c6	-0.07007556
38	0x3e4ec091	0.20190646
39	0x3d87a772	0.066237345
40	0xbf16fdc6	-0.5898098
41	0xbdacd1e2	-0.084384695
42	0xbd4f867a	-0.050665356
43	0x3ccf6478	0.025316462
44	0xbe4b32ed	-0.19843645
45	0x3d0614d4	0.032734707
46	0xbdc6b4fe	-0.0970249
47	0x3ebb78e9	0.36615685
48	0xbd4d7919	-0.050164316
49	0xbe2dac71	-0.16960312
50	0xbca1bfbd	-0.019744748
51	0xbe85f7f5	-0.2616574
52	0xbe25b0ee	-0.16180775
53	0xbe94956d	-0.29020253
54	0xbd8ef9a1	-0.06981207
55	0x3ea931ba	0.3304575
56	0x3e0e147a	0.13874999
57	0x3f0ce7f4	0.5504143
58	0xbbbb451c	-0.0057150256
59	0x3ea072cc	0.31337583
60	0x3dde5560	0.10856128
61	0xbe6921c4	-0.22766787
62	0x3f2800e8	0.6562638
63	0xbe5733cd	-0.21015854
64	0x3ecdb765	0.4017898
65	0x3f529196	0.82253397
66	0x3d5845b0	0.052800834
67	0x3ba359fa	0.0049850913
68	0xbf2255c3	-0.6341211
69	0x3cc11d2c	0.02357348
70	0xbda049dc	-0.078265876
71	0x3f6505b9	0.8946186
72	0x3dcfbca2	0.10143401
73	0x3e86d74f	0.26336142
74	0xbf1216e1	-0.5706616
75	0xbe84bee4	-0.25926888
76	0xbe15a143	-0.14612298
77	0xbe881e56	-0.26585644
78	0x3e84d07b	0.25940308
79	0xbec3d208	-0.3824618
80	0x3d520c7e	0.051281445
81	0xbcdeac8c	-0.027181886
82	0xbd452e58	-0.0481399
83	0xbc19d539	-0.009389215
84	0xbece3929	-0.40277985
85	0x3d203e8a	0.039122142
86	0xbccb964e	-0.024851944
87	0x3d803c34	0.06261483
88	0xbd7dd333	-0.061968993
89	0x3bfdd45f	0.007746264
90	0x3c0f4978	0.008745544
91	0xbe015867	-0.12631379
92	0x3ee62bd3	0.4495531
93	0xbf892aa6	-1.071614
94	0x3cfb49c1	0.030674817
95	0x3f5d37e0	0.86413383
96	0xbb86800c	-0.00410462
97	0x3e1a4133	0.15063934
98	0xbe0dcb84	-0.13847166
99	0x3eb01f76	0.34399003
100	0xbe844088	-0.25830483
101	0xbd269647	-0.04067066
102	0x3ebde08e	0.37085384
103	0xbd02b2af	-0.031908687
104	0xbdae2462	-0.08503033
105	0x3e310fd9	0.17291202
106	0xbdb9b6f3	-0.09068098
107	0xbd663ff8	-0.05621335
108	0xbec8af0a	-0.39196044
109	0xbd1b156d	-0.03786223
110	0xbe0485cc	-0.12941664
111	0x3e025f2f	0.12731622
112	0x3d4003fe	0.046878807
113	0xbf0930d9	-0.5359016
114	0xbd2dedfb	-0.042463284
115	0xbe9c8fe8	-0.30578542
116	0x3dd98c26	0.10622434
117	0xbe4520f2	-0.19250849
118	0x3eb59721	0.35466865
119	0xbe5349f0	-0.20633674
120	0xbe1d4f5e	-0.15362307
121	0x3f2e02ea	0.67973197
122	0xbd600087	-0.054688003
123	0xbd869dbe	-0.06573056
124	0xbde9a990	-0.114092946
125	0xbaa6c27c	-0.0012722756
126	0x3eb27233	0.34852752
127	0xbf0e6960	-0.5562954
128	0x3e275ae3	0.16343264
129	0xbee6d20e	-0.45082134
130	0xbed5a7da	-0.41729623
131	0xbcce8f6f	-0.025214879
132	0x3d83aeb2	0.06429805
133	0xbea3015a	-0.3183697
134	0xbcbffc34	-0.02343569
135	0x3d7143da	0.0589026
136	0x3da24c58	0.07924718
137	0xbc3f5e4f	-0.0116802
138	0xbe16152f	-0.14656518
139	0xbb05b76c	-0.0020403517
140	0x3dafaabc	0.08577487
141	0xbd9cc625	-0.076549806
142	0x3e2c6115	0.16833909
143	0x3d10be28	0.035337597
144	0xbd498bc6	-0.049205564
145	0xbcbf57d9	-0.023357319
146	0x3db16f76	0.086638376
147	0x3dc52f34	0.09628144
148	0x3d653630	0.05595988
149	0xbcee20d7	-0.029068394
150	0x3d042ea2	0.032271035
151	0xbe98e77c	-0.2986411
152	0xbd632f9d	-0.05546533
153	0x3c897f79	0.016784417
154	0xbf1d8b94	-0.61541104
155	0x3d5c1a76	0.053736173
156	0x3d6f3f49	0.058409963
157	0x3ea29e0c	0.31761205
158	0xbb996b03	-0.0046819462
159	0xbe1736f1	-0.14767052
160	0xbd219d0b	-0.03945641
161	0xbe3bf7cf	-0.1835625
162	0xbe351bea	-0.1768643
163	0x3e5312b2	0.206126
164	0xbea37955	-0.31928506
165	0xbde4aef9	-0.11166186
166	0x3eb397cd	0.35076752
167	0xbd8e3f32	-0.06945647
168	0xbd36b461	-0.044605616
169	0x3db0f9bd	0.08641384
170	0xbe323ae8	-0.17405283
171	0xbd1c72e0	-0.03819549
172	0xbe9e4eef	-0.30919597
173	0xbce471be	-0.027886268
174	0x3d038baf	0.032115635
175	0xbded56dc	-0.11588833
176	0xbc348d23	-0.011019978
177	0x3b2e654b	0.0026610668
178	0x3d4eac8f	0.050457533
179	0xbe0f6001	-0.14001466
180	0xbde51e08	-0.11187369
181	0xbd293326	-0.041308545
182	0xbdf86040	-0.12127733
183	0x3ef36255	0.4753596
184	0xbe12f273	-0.143503
185	0xbe168403	-0.14698796
186	0x3d59410c	0.05304055
187	0x3e7ddc18	0.2479099
188	0x3ccbee43	0.024893885
189	0xbcfc59e6	-0.030804586
190	0xbc968e44	-0.018378384
191	0x3dd00f0f	0.10159122
192	0x3e38c80d	0.18045063
193	0x3ebeff0e	0.37303966
194	0xbeeb37d9	-0.45941046
195	0x399770b1	0.00028884926
196	0xbddb9703	-0.107221626
197	0xbe96a1cb	-0.29420313
198	0xbdbdf4ef	-0.09275233
199	0xbe233a1c	-0.15940136
200	0x3d86d5ca	0.06583746
201	0x3ecf2686	0.4045908
202	0xbecc2ae6	-0.3987648
203	0x3d7cc23f	0.061708685
204	0x3e1765da	0.14784947
205	0x3e267195	0.16254266
206	0x3e5fd8ff	0.21860121
207	0xbd6d1842	-0.057884462
208	0x3d1e6763	0.038672816
209	0x3bb58b6f	0.0055403034
210	0x3c450eea	0.012027482
211	0x3caa434a	0.020784039
212	0xbd2d3f97	-0.042296972
213	0x3d35a333	0.044345092
214	0x3d12c48b	0.03583197
215	0xbdfe4f5c	-0.1241748
216	0x3e0badbb	0.13640492
217	0x3d1e76f9	0.03868768
218	0x3e59c9c5	0.21268375
219	0x3d0c23d1	0.034213845
220	0x3e7f850f	0.24953102
221	0xbd7262fe	-0.059176438
222	0x3de7767e	0.113018975
223	0xbd9d1243	-0.07669499
224	0x3c8ffe43	0.017577296
225	0xbb4df1fd	-0.0031424754
226	0x3e233f85	0.159422
227	0x3ddfca1a	0.1092722
228	0xbf44816b	-0.76759976
229	0xbdab60d5	-0.083680786
230	0x3dbbfb77	0.091788225
231	0x3d03d45c	0.032184944
232	0x3e324622	0.17409566
233	0x3c48cfa6	0.0122565385
234	0xbd6a89c0	-0.057260275
235	0x3d3df6d4	0.04637797
236	0xbe9a9d67	-0.30198213
237	0xbcb9cde6	-0.022681188
238	0x3ce8e476	0.028429251
239	0xbca2b2be	-0.019860622
240	0xbd25b4dd	-0.040455688
241	0x3c598c02	0.013278009
242	0xbc12a4fd	-0.008950469
243	0xbe5b8e2f	-0.21440957
244	0xbd8080e9	-0.06274588
245	0x3e5e65af	0.21718477
246	0xbe870676	-0.26372117
247	0xbe38bf36	-0.18041691
248	0xbf2dabd3	-0.6784031
249	0x3e0a27f1	0.13491799
250	0x3cf7abae	0.03023323
251	0xbd73ce06	-0.05952265
252	0xbda09387	-0.078406386
253	0x3e7dbc03	0.24778752
254	0x3edaabe6	0.42709273
255	0xbd3ee623	-0.046606194

bias f4 [4]
0	0x3dcf4e52	0.1012236
1	0x3a772951	0.0009428459
2	0xbcfb72d1	-0.030694397
3	0xbd1ac3b2	-0.037784286

weight f4 [64, 17]
0	0x3d81b3e6	0.06333141
1	0x3d878c8b	0.06618603
2	0xbe401950	-0.18759656
3	0xbdb53278	-0.08847517
4	0xbe512046	-0.20422468
5	0xbe51f516	-0.20503649
6	0x3e36bf86	0.17846498
7	0x3e2e97a2	0.17050031
8	0xbe293e77	-0.16527735
9	0xbe701339	-0.23444833
10	0xbe49b09b	-0.19696276
11	0x3debbaaf	0.115102164
12	0x3e4eebe7	0.20207177
13	0xbd14d1fb	-0.036333065
14	0xbdab26be	-0.08356999
15	0xbe47f0fe	-0.19525525
16	0xbc11c580	-0.008897185
17	0x3e690ac4	0.22758013
18	0x3e26102e	0.1621711
19	0xbdb0e077	-0.08636563
20	0xbe33e89f	-0.17569207
21	0xbd2eb07a	-0.04264877
22	0x3e075294	0.13215095
23	0x3f227aaf	0.6346845
24	0x3f06f92f	0.52723974
25	0x3e8b132c	0.27163064
26	0x3d8a7004	0.067596465
27	0xbb8d9dda	-0.004321796
28	0xbe454afa	-0.19266883
29	0x3d41be67	0.047300722
30	0x3d69ab14	0.05704792
31	0x3e4df8ab	0.2011439
32	0x3e056afa	0.1302909
33	0x3dfbe32f	0.12299191
34	0xbe7fc90d	-0.24979039
35	0x3e2ea6ff	0.17055891
36	0xbe31308b	-0.17303674
37	0xbb7d007b	-0.0038605023
38	0x3dfeaf3e	0.124357685
39	0x3e0b3af1	0.13596703
40	0xbf2d81ff	-0.67776483
41	0xbf09a351	-0.53764826
42	0xbda7fef4	-0.08202925
43	0xbdec109e	-0.11526607
44	0x3ee3e969	0.44514015
45	0x3eb7f8c1	0.35931972
46	0xbf961d89	-1.1727763
47	0x3e19c2f1	0.1501577
48	0x3cffa329	0.03120573
49	0x3d5761a3	0.052583348
50	0x3d7b48b5	0.061348636
51	0xbddf25a1	-0.10895849
52	0x3e15ade2	0.14617112
53	0xbdeea5dc	-0.11652729
54	0x3e777233	0.24164657
55	0x3e8c6caa	0.27426654
56	0x3e6e46b0	0.23269153
57	0xbf06ca26	-0.52652204
58	0xbe858515	-0.26078096
59	0x3eb1a878	0.34698844
60	0x3f2a1bb4	0.6644852
61	0xbcde0e81	-0.027106525
62	0x3eb4be5b	0.3530148
63	0xbf8ed269	-1.1157962
64	0xbe8af70a	-0.271416
65	0xbc345378	-0.011006229
66	0xbe119fc8	-0.14221108
67	0x3e255711	0.16146494
68	0xbe56540d	-0.209305
69	0x3de29d7d	0.11065195
70	0x3e61df9e	0.2205796
71	0xbdd48a8f	-0.103779905
72	0x3ea63869	0.32464913
73	0x3dd1d264	0.10245207
74	0xbeadd7df	-0.3395376
75	0xbd88a820	-0.06672692
76	0x3e21356f	0.1574304
77	0x3ddde8af	0.108353965
78	0xbf5e326d	-0.86795694
79	0xbe4be074	-0.19909841
80	0xbf273e0a	-0.6532904
81	0xbe074463	-0.13209681
82	0xbd95567c	-0.07291886
83	0x3dee456f	0.11634337
84	0x3de30914	0.11085716
85	0x3e223880	0.15841866
86	0x3e7fa41b	0.24964945
87	0xbe00ce24	-0.12578636
88	0xbdba1da5	-0.090876855
89	0x3e10e6f6	0.14150605
90	0xbdaaa945	-0.08333067
91	0x3f3e8cb6	0.7443346
92	0x3f512f14	0.8171246
93	0xbe4d0c70	-0.20024276
94	0xbd9f5ef5	-0.077817835
95	0xbcf497cb	-0.029857537
96	0xbe88103b	-0.26574883
97	0xbe29d9c4	-0.16586977
98	0xbe476852	-0.19473389
99	0x3b5a268d	0.0033287138
100	0xbd82c571	-0.06385315
101	0xbd8bda8c	-0.06828794
102	0x3e92f8c6	0.28705424
103	0xbe95e0a9	-0.29272965
104	0xbe508c4f	-0.20366023
105	0x3da63266	0.081150815
106	0x3e4b5d57	0.19859825
107	0xbbe87b5d	-0.007094784
108	0xbe4e1bae	-0.20127746
109	0xbeb368b1	-0.3504081
110	0x3f22aa85	0.6354144
111	0x3e46638a	0.19373909
112	0xbd926e29	-0.07149918
113	0x3ee4776c	0.44622362
114	0xbefec514	-0.49759734
115	0xb9a1541d	-0.00030770982
116	0x3c943c3a	0.018095125
117	0x3d3e64e6	0.046482943
118	0xbd83ea54	-0.06441179
119	0x3c4d6b5d	0.012537804
120	0xbe9e5e16	-0.30931157
121	0xbdd54d26	-0.104151055
122	0x3e3be344	0.18348414
123	0x3ebefe2f	0.37303302
124	0x3e8f87e3	0.2803336
125	0xbfb7c88f	-1.4358081
126	0xbfb14c1b	-1.385135
127	0x3ec7d78c	0.39031637
128	0xbde516e4	-0.11186007
129	0x3ed1c0bc	0.40967357
130	0x3f1d28ff	0.6139068
131	0xbe2caa99	-0.16861953
132	0xbdf7a446	-0.120918795
133	0xbd88ab7d	-0.06673334
134	0x3d485291	0.048906866
135	0xbe674d40	-0.22588062
136	0xbbb58b33	-0.0055402755
137	0xbd00cfbc	-0.03144811
138	0x3d88c3a1	0.06677938
139	0xbdc5863c	-0.09644744
140	0x3df60e86	0.12014489
141	0x3d9292eb	0.07156929
142	0xbf4683c5	-0.77544814
143	0xbebd6421	-0.36990455
144	0x3f0c675f	0.5484523
145	0x3e10981d	0.14120527
146	0xbddb24c1	-0.107003696
147	0x3e671e85	0.22570236
148	0xbe621457	-0.22078072
149	0xbdf0d3fa	-0.11759181
150	0xbc32f17a	-0.01092183
151	0x3d8c35fb	0.068462335
152	0x3decdc82	0.11565496
153	0xbe982b1b	-0.29720387
154	0x3e788ded	0.2427289
155	0x3dd138ef	0.10215937
156	0x3e29ed89	0.16594519
157	0x3ea60066	0.3242218
158	0x3e5a016b	0.21289603
159	0xbe9ab94c	-0.30219495
160	0xbdbe73db	-0.092994414
161	0xbe0b2c7e	-0.13591191
162	0x3db0a707	0.08625608
163	0x3dc5982d	0.09648166
164	0x3ec2eafc	0.38069904
165	0xbf49c3c3	-0.78814334
166	0x3d442f22	0.04789651
167	0xbd73ab13	-0.05948932
168	0x3dfb41aa	0.12268384
169	0x3e27440a	0.16334549
170	0x3e661001	0.22467043
171	0x3ce84d2b	0.028357109
172	0x3ebba52f	0.36649463
173	0xbe95a0bb	-0.2922419
174	0x3e7d232e	0.24720451
175	0xbeac78fa	-0.33686048
176	0x3f180740	0.5938606
177	0x3ecd5b06	0.40108508
178	0x3d78810b	0.06066994
179	0xbd8c1d05	-0.068414725
180	0xbdc30571	-0.09522522
181	0xbda30069	-0.079590626
182	0x3cecb6a2	0.02889568
183	0x3d4d3596	0.05009993
184	0x3e06f96e	0.13181087
185	0x3e2a731e	0.16645476
186	0xbe0585db	-0.13039343
187	0x3e119b37	0.14219366
188	0x3dd59c50	0.10430205
189	0x3e47c91b	0.1951031
190	0x3d72084f	0.059089955
191	0xbdc29052	-0.09500183
192	0x3e32caee	0.17460224
193	0x3f4aa96f	0.79164785
194	0x3f346178	0.70461226
195	0x3e8c66b8	0.27422118
196	0xbcc7a19f	-0.02436906
197	0x3cea6494	0.028612413
198	0xbecfc5e3	-0.40580663
199	0xbecc865c	-0.39946258
200	0x3c926c4c	0.017873906
201	0xbdb8d6d0	-0.09025347
202	0x3db042a4	0.08606461
203	0x3e142852	0.14468506
204	0x3ebf4639	0.37358263
205	0x3c13f168	0.009029724
206	0xbd501942	-0.050805338
207	0xbe8f2de3	-0.27964696
208	0xbd883916	-0.06651513
209	0xbe383810	-0.17990136
210	0x3f8f866d	1.1212898
211	0x3f44085a	0.76575243
212	0xbce525b9	-0.02797209
213	0x3e0977e7	0.13424645
214	0xbf51e106	-0.81983984
215	0x3e75c935	0.24002536
216	0xbf3fba55	-0.74893695
217	0xbe19db2e	-0.15025017
218	0xbe1e3a5a	-0.15451947
219	0xbd0854bf	-0.033283945
220	0xbd9a7ea6	-0.075436875
221	0xbe03a47d	-0.12855716
222	0xbd94edf1	-0.07271946
223	0xbdcd156d	-0.10013852
224	0x3e827fcd	0.2548813
225	0xbe1cbd42	-0.15306571
226	0x3e83308e	0.25622982
227	0xbf9da15c	-1.2314868
228	0xbf8ed34d	-1.1158234
229	0xbe9fe999	-0.31232908
230	0x3e64d122	0.22345403
231	0xbe4e2cc6	-0.20134267
232	0xbe33221e	-0.17493483
233	0x3f0eae41	0.5573464
234	0x3ba73f77	0.005104001
235	0xbcfb455b	-0.03067272
236	0x3d84ce23	0.0648463
237	0x3e117295	0.14203866
238	0xbe5c8274	-0.21534139
239	0x39f48d3c	0.00046644534
240	0xbe5109b4	-0.20413858
241	0xbd349490	-0.044086993
242	0x3cec27a4	0.028827496
243	0x3e58047c	0.2109546
244	0x3e2eac5c	0.17057937
245	0x3e0008e8	0.12503397
246	0x3d02d29f	0.031939145
247	0xbe652b44	-0.22379786
248	0xbda03c8d	-0.07824049
249	0x3e5d670f	0.21621345
250	0x3ca3a063	0.01997394
251	0xbd5fdfaf	-0.05465668
252	0xbdab5b67	-0.08367043
253	0x3defd058	0.1170966
254	0x3e1c3cbb	0.15257542
255	0xbd40343a	-0.046924807

bias f4 [64]
0	0xbe384609	-0.17995466
1	0x3e170c04	0.14750677
2	0xbd95c5ad	-0.07313094
3	0x3df2959d	0.11844943
4	0xbe17fee4	-0.14843327
5	0xbe0c5b64	-0.13706738
6	0x3d6b765f	0.057485934
7	0x3d8b3c78	0.06798643
8	0x3e58c10a	0.21167389
9	0x3da4516a	0.08023341
10	0x3e53b36f	0.20673917
11	0xbe63585b	-0.22201674
12	0x3d7a01ce	0.061036877
13	0x3e403bf0	0.18772864
14	0xbde113d3	-0.10990109
15	0xbe5accf4	-0.21367246
16	0x3e856b39	0.26058367
17	0xbd3fd0c4	-0.046829954
18	0xbe3461d6	-0.17615446
19	0xbe522374	-0.20521337
20	0x3e018f97	0.12652431
21	0x3d97a48a	0.0740443
22	0xbe59fd8f	-0.21288131
23	0x3e006734	0.12539369
24	0x3d995a90	0.074879766
25	0x3b830530	0.003998421
26	0xbe68f356	-0.22749075
27	0xbe756263	-0.23963313
28	0xbe4c201a	-0.19934121
29	0xbe0331f5	-0.12812026
30	0xbe66b66e	-0.22530529
31	0x3e09bd01	0.13451006
32	0xbbed6e7c	-0.007245837
33	0xbdc3e2a6	-0.09564714
34	0x3e790477	0.2431811
35	0x3d7b356b	0.06133024
36	0x3d594a1c	0.05304919
37	0xbe1e5090	-0.1546042
38	0xbdd4286c	-0.10359272
39	0xbe6907f6	-0.22756943
40	0xbde84254	-0.11340776
41	0x3e84cfb5	0.25939718
42	0xbe70c9b3	-0.23514442
43	0x3e082ae5	0.13297613
44	0x3e18bd31	0.14915921
45	0x3e4ba2d1	0.19886328
46	0x3e651b1e	0.22373626
47	0x3e655165	0.22394331
48	0x3e6129f8	0.21988666
49	0xbcbd433e	-0.023103353
50	0xbdabedcc	-0.083949655
51	0xbe64dffe	-0.22351071
52	0x3dcbcfb2	0.09951724
53	0xbd6f9856	-0.05849489
54	0xbd3f9d17	-0.046780672
55	0xbd388589	-0.045049224
56	0x3e26e558	0.16298425
57	0x3d12a9fa	0.035806634
58	0x3e2d4e31	0.16924359
59	0x3e34947a	0.17634764
60	0x3dd61ab4	0.10454312
61	0x3c1f7055	0.009731372
62	0x3d00e995	0.03147276
63	0xbe1268ab	-0.1429774

weight f4 [64, 64]
0	0x3db40840	0.08790636
1	0x3e052799	0.13003387
2	0x3d758ed5	0.05995067
3	0xbd24d95e	-0.04024636
4	0xbd975089	-0.07388408
5	0x3db54770	0.08851516
6	0x3ce39be9	0.027784305
7	0xbe331770	-0.1748941
8	0xbd151c22	-0.036403783
9	0xbe1c996f	-0.15292905
10	0x3d7c9006	0.06166079
11	0xbda492ae	-0.080357894
12	0x3e291401	0.16511537
13	0xbdc0133f	-0.09378671
14	0x3dee6112	0.116396084
15	0xbdb05436	-0.08609812
16	0xbe82ae09	-0.25523403
17	0xbe135086	-0.14386186
18	0xbd3c1930	-0.04592246
19	0xbd35d0b4	-0.044388488
20	0xbea4e52d	-0.32206097
21	0xbd592838	-0.05301687
22	0x3c6b11f0	0.014347538
23	0x3dcccab2	0.099995986
24	0xbd890632	-0.06690635
25	0xbcc6ff08	-0.02429153
26	0xbd8c370f	-0.06846439
27	0x3e30a44e	0.17250177
28	0xbdd3eb08	-0.10347563
29	0x3d97db84	0.07414916
30	0x3e690f64	0.22759777
31	0x3dd9b390	0.10629952
32	0xbda4cdf6	-0.080470964
33	0xbb985f60	-0.0046500415
34	0xbe1af45f	-0.15132283
35	0xbe84b2dc	-0.2591771
36	0x3e464440	0.19361973
37	0x3d7290cd	0.059220124
38	0x3dc8d772	0.09806718
39	0x3a8670e0	0.0010257028
40	0xbcaf3a7e	-0.021390196
41	0xbc4c2194	-0.0124591775
42	0xbd1fc14f	-0.039002713
43	0xbddcca82	-0.10780813
44	0xbe2e738e	-0.17036268
45	0xbe11f3fa	-0.14253226
46	0x3e58be41	0.21166326
47	0xbd87c6d6	-0.06629722
48	0x3df7ea87	0.121052794
49	0xbd193d1a	-0.037411787
50	0xbd8327d7	-0.06404083
51	0x3e3a5417	0.1819614
52	0xbdd9960a	-0.10624321
53	0x3e3efc41	0.18650915
54	0x3d934966	0.07191734
55	0xbcea7b75	-0.028623322
56	0x3d5601d0	0.052247822
57	0x3dcfc7e3	0.10145547
58	0xbe1cd00f	-0.15313743
59	0x3e0edfe2	0.13952592
60	0xbdd00a02	-0.10158159
61	0xbd1170ad	-0.035507847
62	0x3da63f07	0.0811749
63	0xbdc4e790	-0.096144795
64	0xbc648e40	-0.013949931
65	0x3c46efbc	0.012142118
66	0xbd41cafb	-0.047312718
67	0x3e1a3762	0.1506019
68	0x3e2dbaa0	0.16965723
69	0x3cc0d897	0.023540778
70	0x3b831193	0.0039998977
71	0x3c47b7d4	0.012189824
72	0x3ddb98ab	0.107224785
73	0x3c943ed1	0.01809636
74	0xbe36e377	-0.17860208
75	0xbd078976	-0.033090077
76	0xbe950733	-0.29107055
77	0x3e0da5af	0.13832735
78	0xbd67f684	-0.05663158
79	0x3de73fb1	0.11291445
80	0x3c9bdbf7	0.019025786
81	0x3dbfeb87	0.09371095
82	0x3d36b980	0.0446105
83	0x3d24d0f0	0.04023832
84	0xbc22dfd9	-0.009941065
85	0x3e828847	0.25494596
86	0xbd53e334	-0.05173035
87	0x3da61fc1	0.08111525
88	0x3dfa58e6	0.12223987
89	0x3e9df78f	0.30852935
90	0xbd80d608	-0.06290823
91	0xbf08ea8a	-0.5348288
92	0xbdd63df6	-0.10461037
93	0xbe9ccfc6	-0.3062727
94	0xbdce6e36	-0.10079615
95	0xbd940458	-0.07227391
96	0xbe50c635	-0.2038811
97	0x3dd5267a	0.104077294
98	0x3e043941	0.12912466
99	0x3e52d7e7	0.20590173
100	0xbdbc31f5	-0.09189216
101	0x3db0dabe	0.08635472
102	0x3dd5b181	0.10434247
103	0xbe72a8ae	-0.23697159
104	0xbeda2f77	-0.42614338
105	0x3c9c17dd	0.019054348
106	0xbce6585e	-0.028118309
107	0xbd34499a	-0.044015504
108	0xbec4e100	-0.3845291
109	0x3c0f0a18	0.008730434
110	0xbd89feee	-0.06738077
111	0xbb1de8bc	-0.002409502
112	0xbe38393f	-0.17990588
113	0x3d563058	0.052292198
114	0x3da90a15	0.08253876
115	0x3e895f45	0.26830497
116	0x3d457b6c	0.048213407
117	0x3e8efaa7	0.27925608
118	0x3d9ed334	0.077551275
119	0xbe0097d9	-0.12557925
120	0xbd8c82e8	-0.06860906
121	0x3c014e9d	0.007892278
122	0xbde95a02	-0.11394121
123	0xbd9172b1	-0.07101954
124	0x3d1f9527	0.038960602
125	0xbdba589c	-0.09098932
126	0xbd177f82	-0.036986835
127	0x3d52eb24	0.05149378
128	0xbdf9ecde	-0.12203382
129	0x3dba9dd8	0.091121376
130	0xbaed4f57	-0.001810531
131	0xbdb1157a	-0.086466745
132	0x3c96f979	0.018429505
133	0x3dc0dbfd	0.094169594
134	0x3d93270f	0.07185184
135	0xbdaa773f	-0.08323526
136	0xbc69f8ca	-0.014280507
137	0x3d3c1a39	0.045923445
138	0xbc1c39b6	-0.009535244
139	0xbaa50c16	-0.0012592103
140	0x3e2648d0	0.16238713
141	0xbe181054	-0.14849979
142	0x3db43396	0.08798902
143	0xbc351607	-0.011052615
144	0xbe7f7baf	-0.24949525
145	0xbdecf24c	-0.11569652
146	0xbd86490a	-0.065569
147	0xbc9dc0e0	-0.019257009
148	0xbee111b2	-0.43958813
149	0xbe086bd1	-0.13322379
150	0x3d783600	0.060598373
151	0xbc56b9c7	-0.013105816
152	0x3d1b7f0d	0.037962962
153	0xbe2ae91b	-0.16690485
154	0xbcb17784	-0.021663435
155	0x3dc63706	0.09678464
156	0x3c3b2470	0.011422262
157	0xbe13032f	-0.14356683
158	0x3e1a235a	0.15052548
159	0x3e2aaaa4	0.16666657
160	0xbdb0f2ec	-0.08640084
161	0x3c7b0230	0.015320346
162	0x3bfc9cde	0.0077091297
163	0xbb0b03e9	-0.0021212047
164	0x3be443cf	0.006966091
165	0x3dc8d6db	0.098066054
166	0xbdc0fe8a	-0.094235495
167	0xbe389f86	-0.18029603
168	0xbdac242a	-0.08405335
169	0xbcc6864d	-0.024233961
170	0xbe0b836a	-0.13624349
171	0x3dbb5acd	0.09148178
172	0xbda31f76	-0.07964985
173	0x3d7f328d	0.06230407
174	0x3d9c0280	0.07617664
175	0xbd6db591	-0.058034483
176	0xbca77de2	-0.020445768
177	0xbc9f0501	-0.019411566
178	0xbd7ed0ef	-0.062210973
179	0xbdc6865f	-0.09693598
180	0x3da73ce6	0.08165912
181	0x3d8d7ed8	0.06908959
182	0x3d2809e0	0.041025043
183	0xbe4d4b3e	-0.20048234
184	0xbd76a420	-0.060215116
185	0x3d8ce229	0.06879074
186	0xbd8d9236	-0.06912653
187	0xbd71984c	-0.058983132
188	0x3cd6925a	0.026192833
189	0x3caae1d0	0.020859629
190	0xbce6fabf	-0.028195737
191	0x3c6acf20	0.014331609
192	0xbd877bfc	-0.06615445
193	0xbe0710b5	-0.13189967
194	0x3db0c785	0.08631805
195	0x3d912bf2	0.0708846
196	0xbf25914f	-0.6467485
197	0xbd87fd66	-0.06640129
198	0x3db05ba6	0.086112306
199	0x3d0bcd9f	0.034131642
200	0xbdbee129	-0.0932029
201	0x3c907e5d	0.01763838
202	0xbe235c31	-0.15953137
203	0xbc8087d0	-0.01568976
204	0x3dea6a3c	0.11446044
205	0x3d05ca85	0.03266384
206	0xbde102cc	-0.109868616
207	0x3d6ae3c0	0.057346106
208	0xbdf2eb9b	-0.118613444
209	0xbee227c6	-0.4417097
210	0x3d113194	0.035447672
211	0xbde677e2	-0.112533346
212	0x3ec44c33	0.38339385
213	0x3e737c0c	0.23777789
214	0xbd34618c	-0.04403834
215	0x3d0fce0b	0.035108607
216	0x3dd6e4b7	0.10492843
217	0x3edc8bbc	0.4307536
218	0xbc73627f	-0.014855026
219	0xbdb46980	-0.08809185
220	0x3d49400c	0.049133345
221	0xbabd41f6	-0.0014439214
222	0x3e60f33b	0.21967785
223	0xbeed2c69	-0.46322945
224	0x3e04d364	0.12971264
225	0x3da6b874	0.081406504
226	0x3e0adcaa	0.13560739
227	0x3e2adc1f	0.16685532
228	0x3dd1ff96	0.10253827
229	0xbe25ba15	-0.16184266
230	0xbdf60ea9	-0.12014515
231	0xbdc66133	-0.09686508
232	0x3dc5a969	0.09651453
233	0xbd9f8176	-0.077883646
234	0xbd19c0f4	-0.03753753
235	0xbd677798	-0.056510538
236	0x3e0c69c3	0.1371222
237	0xbdc28ff6	-0.095001146
238	0xbe0c4355	-0.1369756
239	0x3df6f886	0.12059121
240	0x3e2208d8	0.15823686
241	0x3c950e3d	0.018195266
242	0xbdaee696	-0.085400745
243	0x3cb942a0	0.022614777
244	0x3e0a4255	0.13501866
245	0x3e28780b	0.16452043
246	0xbc62cf2f	-0.013843342
247	0x3de3623f	0.11102723
248	0x3bbe9a6e	0.0058167493
249	0x3dbcb7b2	0.092147246
250	0x3cf92432	0.030412767
251	0xbd50002d	-0.050781418
252	0x3e0f2ef3	0.13982753
253	0xbd8f9b60	-0.07012057
254	0x3d727d5f	0.059201594
255	0x3d011954	0.031518295

bias f4 [64]
0	0x3d771a10	0.06032759
1	0xbd4b005e	-0.049560897
2	0x3c9b69e7	0.018971397
3	0xbcf3b242	-0.029748086
4	0x3cce6edc	0.025199346
5	0xbcae9475	-0.021311024
6	0x3db8fdcc	0.09032783
7	0xbdabd4bb	-0.083901845
8	0x3d9c4894	0.07631031
9	0x3d70e06f	0.058807787
10	0xbce7b6af	-0.028285353
11	0xbd8e370d	-0.06944094
12	0x3c8be643	0.01707757
13	0xbe0184e2	-0.12648347
14	0x3cda61b8	0.026657924
15	0x3db390fe	0.087678894
16	0x3d594522	0.053044446
17	0xbd022f21	-0.031783227
18	0xbd9578c1	-0.072984226
19	0xbc26180e	-0.010137571
20	0x3dbfcb2a	0.09364922
21	0x3d2294e9	0.039692793
22	0x3b8bdc55	0.004268209
23	0x3c8f32cd	0.017480278
24	0xbd6e635a	-0.058200218
25	0xbcb4f6e0	-0.022090375
26	0xbdd25379	-0.102698274
27	0xbdb8899c	-0.09010622
28	0xbd87b83c	-0.06626937
29	0xbd959978	-0.073046625
30	0x3de20534	0.11036149
31	0xbdef2559	-0.116770454
32	0xbd5ff99c	-0.054681405
33	0x3d3d3cf7	0.04620072
34	0xbdb2082f	-0.08692967
35	0xbdac93ca	-0.08426626
36	0x3c93b71c	0.01803165
37	0xbdbccec2	-0.092191234
38	0x3c66e3b0	0.014092371
39	0xbc8d19b8	-0.017224178
40	0xbdc4cae5	-0.096090116
41	0xbdddc5c3	-0.10828736
42	0xbb45d2e8	-0.0030185524
43	0xbdb8bf09	-0.09020812
44	0xbb0dd150	-0.0021639653
45	0xbe120647	-0.14260207
46	0x3dadc088	0.08483988
47	0x3e003cf8	0.12523258
48	0xbcbefa04	-0.023312576
49	0xbd95df53	-0.07317986
50	0xbe0291c5	-0.12750919
51	0x3c913b2d	0.017728413
52	0x3d64ee3d	0.055891264
53	0x3d6ac034	0.057312205
54	0xbdd6e846	-0.104935214
55	0x3d856f5d	0.065153815
56	0xbd7e5a37	-0.062097754
57	0xbd3dbb55	-0.046321232
58	0x3c297b30	0.010344312
59	0xbd396759	-0.045264576
60	0x3d836c42	0.06417133
61	0xbdd18e2f	-0.102321975
62	0x3db3a528	0.087717354
63	0xbde707c5	-0.11280779
