ddpg/reach_trained_agent.pt (torch, 84799 bytes, 15 tensors)

weight f4 [64, 13]
-0.0020764703 0.14878269 -0.22827165 -0.20411277 -0.1068226 0.07437347 -0.0054951874 0.21990797
-0.02461317 0.07339032 -0.08381882 -0.05451743 -0.264966 -0.183684 -0.11433012 0.010274038
0.10964625 0.16641638 -0.18802702 -0.12077566 0.1007383 0.23030818 -0.0570787 0.20754434
-0.04470422 0.02934755 0.25113392 -0.25728947 -0.1746024 -0.070215404 -0.10811105 0.2396307
-0.17977269 -0.12767337 -0.193768 -0.25975528 -0.16190048 0.2384096 0.12375871 0.11833286
-0.008325666 -0.1539234 0.030507483 -0.29253864 -0.21598962 -0.14725731 0.17304115 0.2677146
0.016103763 -0.017047415 0.11032722 0.2848068 0.11813236 0.039300043 0.14295503 -0.18074445
0.03275753 -0.23696673 -0.21508351 -0.15718065 0.18374771 -0.28713024 0.2550427 0.091107614
0.18370527 -0.09754341 -0.0363403 0.013921079 0.11608557 0.2440574 -0.26571926 -0.10912991
0.10549478 -0.1934351 0.57995105 -0.1970528 -0.055566244 -0.33548483 0.008057003 -0.18738082
-0.2938167 0.22571619 0.19934092 -0.29850784 0.04645776 -0.049417913 -0.28720316 -0.2611734
-0.04062577 -0.19376276 0.073548034 0.11726847 0.2323867 0.09250935 -0.30877417 -0.25008458
0.15362367 0.015515078 -0.23618945 -0.7252929 0.37954655 0.54826796 -0.2711044 -0.14734378
-0.26420316 -0.004985129 -0.20886096 -0.21393585 -0.015281881 0.041642744 -0.11358327 0.16457333
-0.16877837 0.25165918 0.19006799 -0.2338846 -0.06902809 0.039953314 0.040229745 -0.020558365
0.13212614 -0.06517782 -0.20799659 0.1158965 -0.28168452 -1.2255168 -1.27594 0.9299128
0.15981545 0.040687907 -0.07549065 0.042649105 -0.19702531 -0.03071943 0.18155201 -0.045068484
0.007467026 -0.024015067 0.048958786 0.16160767 0.250063 0.1656027 0.25171405 -0.037488252
-0.26668942 -0.14905739 0.17148252 -0.019444698 -0.15477583 -0.21363267 -0.25997356 -0.22369283
-0.051490434 0.14977394 0.13602296 -0.2818295 0.13948138 -0.24813236 -0.07838076 -0.14908418
-0.08163241 -0.084130734 -0.25072822 -0.24017712 0.037589837 0.100881346 -0.22767615 0.057741415
-0.3001215 0.03406725 0.2799622 -0.1788144 0.29497144 0.070451595 -0.29239544 0.2263631
-0.0013266837 -1.6332015 -0.8944723 0.79772544 0.28702262 0.1984446 0.11099826 -0.028369348
0.039047882 -0.0050504343 -0.18896022 -0.17155491 -0.24524152 0.1434053 0.22436398 -0.22797608
0.10895732 0.004546436 -0.28075725 -0.15267684 -0.16161342 0.094783016 -0.16527657 -0.0060510044
0.011667598 0.17878626 -0.2096545 -0.19040424 -0.16104653 0.1941266 -0.09969766 0.23394167
0.07323871 0.008021292 -0.028987473 -0.0817154 0.0075435955 -0.0900602 -0.0045302524 0.034385897
-0.194324 -0.13298845 0.19720252 -0.25009573 -0.045488846 0.30640686 0.11723223 -0.06785548
-0.2201627 0.09885724 -0.24557425 -0.055954114 -0.07804061 -1.1516168 -0.96987873 1.075285
0.23234884 0.45165437 0.16965851 -0.1753446 0.12439265 -0.19605769 -0.117547944 0.08157496
0.09157881 0.20807582 -0.0892834 0.0004439991 0.14278637 -0.2682231 0.20051874 -0.22934702
0.0038225781 -0.047154166 -0.14607279 0.03665765 0.22934599 -0.08107485 -0.16466111 -0.10257484
00000000: 6415 08bb 7d5a 183e 0bc0 69be f002 51be
00000010: cfc5 dabd 1e51 983d f910 b4bb 8e2f 613e
00000020: 8fa1 c9bc aa4d 963d 34a9 abbd ab4d 5fbd
00000030: a0a9 87be a917 3cbe e925 eabd 7054 283c
00000040: 378e e03d 0e69 2a3e 288a 40be 3b59 f7bd
00000050: e24f ce3d e8d5 6b3e 5bcb 69bd 8186 543e
00000060: c61b 37bd 466a f03c a094 803e 72bb 83be
00000070: f9ca 32be 18cd 8fbd 5469 ddbd c061 753e
00000080: 5516 38be cfbc 02be 1e6b 46be a5fe 84be
00000090: 3dc9 25be a521 743e 3575 fd3d 8058 f23d
000000a0: 6068 08bc 199e 1dbe d4ea f93c a0c7 95be
000000b0: 622c 5dbe 9fca 16be b331 313e e311 893e
000000c0: 0aec 833c 05a7 8bbc 3df3 e13d 32d2 913e
000000d0: 61ef f13d 15f9 203d ce62 123e 1315 39be
000000e0: c32c 063d 68a7 72be da3e 5cbe f7f3 20be
000000f0: 5c28 3c3e bc02 93be f594 823e a196 ba3d
00000100: 3c1d 3c3e d7c4 c7bd 91d9 14bd 3d15 643c
00000110: 45be ed3d 2fea 793e 5b0c 88be 817f dfbd
00000120: a60d d83d da13 46be ac77 143f 36c8 49be
00000130: 6e99 63bd abc4 abbe 8501 043c c2e0 3fbe
00000140: 246f 96be 2522 673e 0720 4c3e 05d6 98be
00000150: 7e4a 3e3d 706a 4abd 4b0c 93be 85b8 85be
00000160: 3567 26bd bf69 46be 5aa0 963d 742a f03d
00000170: c7f6 6d3e 8b75 bd3d a617 9ebe 160b 80be
00000180: 864f 1d3e f432 7e3c a6db 71be ccac 39bf
00000190: ed53 c23e 4a5b 0c3f 32ce 8abe 4ae1 16be
000001a0: a345 87be 4b5a a3bb a6df 55be 0012 5bbe
000001b0: db60 7abc 9591 2a3d 589e e8bd e985 283e
000001c0: 3dd4 2cbe 79d9 803e 2fa1 423e 727f 6fbe
000001d0: 995e 8dbd 16a6 233d f2c7 243d 046a a8bc
000001e0: 134c 073e f37b 85bd 0ffd 54be 255b ed3d
000001f0: f438 90be bcdd 9cbf 0052 a3bf c40e 6e3f
00000200: a9a6 233e 5da8 263d d89a 9abd d4b0 2e3d
00000210: 01c1 49be 50a7 fbbc c5e8 393e bb99 38bd
00000220: f4ad f43b 3fbb c4bc 0289 483d 7b7c 253e
00000230: 4208 803e c193 293e aae0 803e 488d 19bd
00000240: 848b 88be 80a2 18be 1d99 2f3e 7d4a 9fbc
00000250: 8e7d 1ebe 86c2 5abe 411b 85be bc0f 65be
00000260: a2e7 52bd 575e 193e 9a49 0b3e f54b 90be
00000270: 35d4 0e3e 6916 7ebe 1886 a0bd 86a9 18be
00000280: e52e a7bd bc4c acbd 735f 80be fef0 75be
00000290: cdf7 193d e19a ce3d f023 69be 4382 6c3d
000002a0: 86a9 99be 1a8a 0b3d 3557 8f3e 1f1b 37be
000002b0: 7f06 973e ed48 903d dbb4 95be bacb 673e
000002c0: 1ee4 adba bf0c d1bf 23fc 64bf bc37 4c3f
000002d0: a1f4 923e 1035 4b3e 0e53 e33d d666 e8bc
000002e0: acf0 1f3d 1d7e a5bb ca7e 41be 17ac 2fbe
000002f0: 9820 7bbe d7d8 123e acbf 653e 9072 69be
00000300: 0425 df3d 45fa 943b 6abf 8fbe 5157 1cbe
00000310: fd7d 25be 991d c23d 433e 29be 8147 c6bb
00000320: 7429 3f3c bf13 373e abaf 56be 54f9 42be
00000330: 62e9 24be 20c9 463e 492e ccbd 688e 6f3e
00000340: 2dfe 953d bd6b 033c 2377 edbc 675a a7bd
00000350: 4430 f73b 7b71 b8bd 8372 94bb 3ad8 0c3d
00000360: dffc 46be 202e 08be 75ef 493e 8c0c 80be
00000370: 8352 3abd 5ce1 9c3e 7417 f03d d0f7 8abd
00000380: 5572 61be aa75 ca3d d177 7bbe 2430 65bd
00000390: c1d3 9fbd 2e68 93bf f949 78bf f0a2 893f
000003a0: dbec 6d3e 3e3f e73e f6ba 2d3e 898d 33be
000003b0: 93c1 fe3d 59c3 48be fabc f0bd c610 a73d
000003c0: ac8d bb3d d411 553e 37da b6bd 8dc8 e839
000003d0: 9736 123e 8a54 89be c954 4d3e f2d9 6abe
000003e0: 3884 7a3b ba24 41bd 1b94 15be 5526 163d
000003f0: add9 6a3e 920a a6bd ec9c 28be c212 d2bd

bias f4 [64]
0.027812714 -0.10317155 -0.23226787 0.09588407 0.026601208 -0.16390264 -0.112224534 0.03431402
-0.050149582 0.17167588 -0.0008600849 0.0874575 0.08847946 -0.052501243 0.018010655 0.20466587
-0.014233598 0.053366877 0.010077679 0.19202818 -0.19011608 -0.14743094 0.10989823 -0.2413817
-0.036744762 -0.119312614 0.109326646 -0.2943451 0.114101745 0.25846112 0.056119055 -0.014062153
0.26542032 -0.16001026 -0.07622935 -0.12145298 -0.06899768 0.042568248 0.06315219 -0.073738925
-0.2773059 0.014201459 -0.008215653 0.04172365 0.1995844 0.268483 -0.19585861 -0.06482515
-0.11112687 -0.2556185 -0.20181632 0.22854812 0.13450813 0.011534141 0.14726585 -0.118566394
0.012664522 0.17009424 -0.16387343 0.20426686 0.072898276 0.19512787 -0.13954842 0.16786069
00000000: 7dd7 e33c 9b4b d3bd a1d7 6dbe de5e c43d
00000010: c7ea d93c 18d6 27be fad5 e5bd dc8c 0c3d
00000020: a669 4dbd cdcb 2f3e 5277 61ba eb1c b33d
00000030: b834 b53d 8b0b 57bd 158b 933c ee93 513e
00000040: 0934 69bc 3a97 5a3d d91c 253c 09a3 443e
00000050: caad 42be 23f8 16be 5312 e13d c42c 77be
00000060: ad81 16bd 2c5a f4bd a6e6 df3d 67b4 96be
00000070: 2dae e93d 0455 843e 18dd 653d f264 66bc
00000080: 2ce5 873e bbd9 23be 221e 9cbd 57bc f8bd
00000090: a84e 8dbd 0b5c 2e3d ef55 813d 6f04 97bd
000000a0: 0afb 8dbe 3cad 683c f29a 06bc 6be6 2a3d
000000b0: da5f 4c3e 9b76 893e 298f 48be 0cc3 84bd
000000c0: 7c96 e3bd 6ee0 82be f0a8 4ebe 8508 6a3e
000000d0: 80bc 093e b2f9 3c3c dccc 163e f0d2 f2bd
000000e0: db7e 4f3c 2f2d 2e3e 70ce 27be 552b 513e
000000f0: b14b 953d 9acf 473e c8e5 0ebe ace3 2b3e

weight f4 [64, 64]
-0.110810965 -0.00793694 0.041693896 0.037486807 0.10460101 0.122832134 0.11371963 0.083924025
0.08788276 -0.016128719 -0.09700586 -0.046403393 -0.014033064 -0.06754832 0.06389636 0.043878406
0.02016899 0.030195087 0.10980654 0.04552892 -0.10961743 -0.09073509 0.055093706 0.017034903
0.060961455 -0.12483999 -0.115358666 0.0766533 0.07995571 -0.113088876 0.04744816 -0.09760553
0.09466347 0.039223805 0.12359837 -0.123248994 -0.12033452 0.084512755 0.11097789 0.076584995
0.08310373 -0.105283916 0.09047671 -0.11801839 0.027925208 -0.08187935 -0.049649432 0.022133604
-0.0491475 -0.019777864 -0.118478045 -0.117859155 0.048420385 -0.052909806 -0.0760487 -0.049322784
-0.10219607 -0.09992503 0.07479654 0.06353027 0.016650438 -0.068282455 0.04158762 0.0056156516
-0.0893341 0.026898727 0.11381799 -0.15287383 -0.09113202 0.042925753 0.100761004 -0.021414254
0.02751714 0.17722401 0.04224335 0.048169907 0.16494492 0.20813464 -0.05633213 0.010804564
0.08947318 0.15652728 -0.12436661 0.06768817 -0.08145904 -0.12240265 0.043521203 -0.06805171
0.037401766 0.03975797 -0.026404196 -0.012474034 -0.00079316867 0.18128978 0.010777265 0.23067957
0.121752255 -0.02775841 0.13890576 0.0068306327 0.024877079 -0.03423739 0.07491067 -0.017328026
-0.010627165 -0.09748492 -0.000768736 -0.10375553 -0.012013146 0.15269336 0.008040835 -0.06009522
-0.030522063 -0.034266755 0.02116093 0.059907652 0.04617268 -0.020817181 -0.0008619973 0.23215994
0.20742784 0.0688632 -0.06799165 0.13580616 0.071184665 -0.07809374 -0.10752624 0.17564927
-0.008758247 -0.11806233 -0.07207313 0.06206107 -0.10398678 0.06314259 0.075228125 0.0028513893
-0.009884343 -0.06450287 0.005283244 0.029617343 -0.09548138 -0.06035163 -0.12064359 0.07671936
-0.077370524 0.086037636 -0.0322226 -0.07160941 0.0401889 0.018634886 0.086557 0.052183717
-0.14474866 0.04755849 -0.053102933 -0.078632094 0.050153174 0.058028553 -0.109866336 -0.044062782
0.074014105 0.028678158 0.11042673 -0.042837337 -0.09389262 0.12177759 0.01972184 0.101962335
-0.052212074 -0.080258355 -0.014651611 -0.11769749 0.026220309 0.05844974 0.0025011213 -0.03749425
0.061975792 -0.079343915 0.12228039 -0.12257773 -0.15136829 -0.05036118 0.10210556 0.012706871
0.017376035 -0.11614973 0.05939693 -0.037206694 0.05010295 0.08828032 0.030952908 -0.046578605
-0.007699892 -0.07839753 -0.04521276 0.08122976 -0.05012457 0.07762997 -0.049566492 -0.029112354
0.0026602745 -0.114708185 -0.0012481213 -0.012599468 -0.011229545 -0.024988025 0.09854716 0.092248395
-0.08471966 0.058065847 -0.09804782 -0.10641517 0.038210243 0.0018370599 -0.058313295 -0.12056297
-0.048392013 0.04174994 -0.115700185 -0.12143318 0.015859067 -0.09005052 -0.109510034 -0.048160776
-0.020125106 -0.113588154 -0.08346596 0.008195981 -0.11787146 -0.017569304 -0.08071284 -0.08665466
0.049128875 -0.09621121 -0.094729275 0.07128519 0.023370788 0.113839105 -0.033411935 -0.060376883
-0.011568308 0.0006324202 0.09533054 -0.12450999 -0.008900091 0.055294022 -0.06883538 -0.0635176
0.060408473 -0.11977315 0.02961947 -0.09677331 0.06213273 -0.106880054 0.07685059 -0.11832908
00000000: dcf0 e2bd f009 02bc 38c7 2a3d c48b 193d
00000010: 0e39 d63d 6a8f fb3d d6e5 e83d 5ce0 ab3d
00000020: e0fb b33d 6020 84bc 02ab c6bd 7c11 3ebd
00000030: f0ea 65bc c656 8abd 18dc 823d d8b9 333d
00000040: 7039 a53c b05b f73c 40e2 e03d 887c 3a3d
00000050: 1a7f e0bd 52d3 b9bd f0a9 613d c88c 8b3c
00000060: b8b2 793d 1cac ffbd 2a41 ecbd 68fc 9c3d
00000070: d2bf a33d 249b e7bd 0059 423d 68e5 c7bd
00000080: ecde c13d 24a9 203d 2421 fd3d f869 fcbd
00000090: f271 f6bd 0615 ad3d 6048 e33d 98d8 9c3d
000000a0: 4a32 aa3d 189f d7bd da4b b93d a0b3 f1bd
000000b0: 68c3 e43c 5cb0 a7bd 345d 4bbd 8851 b53c
000000c0: e44e 49bd 3005 a2bc 9ea4 f2bd 2460 f1bd
000000d0: 7454 463d f4b7 58bd 6cbf 9bbd b006 4abd
000000e0: 2c4c d1bd 7ea5 ccbd ee2e 993d 281c 823d
000000f0: 8066 883c acd7 8bbd c857 2a3d 8003 b83b
00000100: ccf4 b6bd b85a dc3c 6819 e93d f58a 1cbe
00000110: 6da3 babd ead2 2f3d c95b ce3d f26c afbc
00000120: a06b e13c 367a 353e 5d07 2d3d cf4d 453d
00000130: 52e7 283e 3f21 553e 85bc 66bd a005 313c
00000140: b73d b73d b048 203e ecb3 febd 18a0 8a3d
00000150: ffd3 a6bd 3eae fabd 4a43 323d b25e 8bbd
00000160: 9832 193d 41d9 223d 9d4d d8bc e45f 4cbc
00000170: a6ec 4fba 07a4 393e 2093 303c 4437 6c3e
00000180: 3f59 f93d 9b65 e3bc 503d 0e3e 80d3 df3b
00000190: 04cb cb3c 813c 0cbd c46a 993d 81f3 8dbc
000001a0: 901d 2ebc 2ca6 c7bd 0085 49ba c87d d4bd
000001b0: c9d2 44bc a65b 1c3e b5bd 033c 6826 76bd
000001c0: 6809 fabc 4c5b 0cbd b059 ad3c ba61 753d
000001d0: 901f 3d3d cb88 aabc a9f7 61ba 56bb 6d3e
000001e0: f767 543e 2608 8d3d 353f 8bbd c510 0b3e
000001f0: 44c9 913d 9cef 9fbd b836 dcbd 67dd 333e
00000200: c07e 0fbc aaca f1bd 149b 93bd c033 7e3d
00000210: 05f7 d4bd e750 813d 3411 9a3d 60de 3a3b
00000220: f0f1 21bc 151a 84bd 101f ad3b 12a0 f23c
00000230: be8b c3bd 4533 77bd fd13 f7bd 0a1f 9d3d
00000240: 7074 9ebd 8034 b03d d8fb 03bd f4a7 92bd
00000250: 1e9d 243d 30a8 983c cc44 b13d 98be 553d
00000260: fe38 14be b1cc 423d 7682 59bd dd09 a1bd
00000270: 6a6d 4d3d 59af 6d3d 9a01 e1bd 2d7b 34bd
00000280: b594 973d 75ee ea3c 6927 e23d 3476 2fbd
00000290: c64a c0bd 8766 f93d b28f a13c a1d1 d03d
000002a0: 54dc 55bd 7e5e a4bd 500d 70bc 620b f1bd
000002b0: f9cb d63c ff68 6f3d dae9 233b 9293 19bd
000002c0: 54da 7d3d 107f a2bd 246e fa3d 080a fbbd
000002d0: 4a00 1bbe 8647 4ebd b81c d13d 7b30 503c
000002e0: 3058 8e3c e9df edbd 324a 733d 0c66 18bd
000002f0: c038 4d3d 50cc b43d f490 fd3c 35c9 3ebd
00000300: 604f fcbb e28e a0bd 0431 39bd ca5b a63d
00000310: 6c4f 4dbd 76fc 9e3d 3c06 4bbd 087d eebc
00000320: 0058 2e3b 20ec eabd 0098 a3ba 006e 4ebc
00000330: 20fc 37bc b0b3 ccbc 18d3 c93d baec bc3d
00000340: 8081 adbd 74d6 6d3d 4ccd c8bd 32f0 d9bd
00000350: 5882 1c3d 80c9 f03a ecd9 6ebd b8e9 f6bd
00000360: b436 46bd fc01 2b3d 38f4 ecbd f6b1 f8bd
00000370: e0ea 813c 686c b8bd cc46 e0bd 3c44 45bd
00000380: 68dd a4bc e8a0 e8bd 34f0 aabd 7048 063c
00000390: 9866 f1bd 80ed 8fbc c64c a5bd 0078 b1bd
000003a0: 5c3b 493d 620a c5bd 6c01 c2bd f8fd 913d
000003b0: 1874 bf3c 7a24 e93d f4da 08bd c04d 77bd
000003c0: 0089 3dbc 00c9 253a a83c c33d 18ff febd
000003d0: b0d1 11bc fc7b 623d 90f9 8cbd 8415 82bd
000003e0: e06e 773d a04b f5bd 88a4 f23c 1631 c6bd
000003f0: e47e 7e3d eee3 dabd d863 9d3d 8456 f2bd

bias f4 [64]
0.07470536 0.1277302 -0.053648647 -0.030347899 -0.11445515 -0.06492863 0.12680297 -0.103976235
0.08511617 -0.08129573 -0.048699006 0.10547987 -0.094225645 -0.0554038 -0.07167673 -0.104629874
-0.012096235 0.07069075 0.022311596 0.050713316 0.04477408 -0.049621344 0.08180729 -0.09056143
-0.11563814 0.027357846 0.10591758 -0.08849 0.043995544 -0.0763129 -0.01516667 -0.027677253
-0.04384015 -0.101707906 0.12613344 -0.036913786 0.056446157 -0.037716582 -0.10222764 -0.09509428
-0.06514545 0.036874518 -0.0807057 -0.06771975 0.09299256 0.04067306 -0.009561598 0.11803127
-0.08633425 -0.047836877 0.20698522 0.005474447 0.18274444 -0.15233098 0.039206393 0.049451098
-0.1475102 -0.053537056 -0.12090927 0.06306186 -0.023985147 -0.12930216 0.06637772 0.080963165
00000000: 20ff 983d b5cb 023e afbe 5bbd 289c f8bc
00000010: 7667 eabd 4df9 84bd a3d8 013e 7ef1 d4bd
00000020: 6351 ae3d 607e a6bd 9c78 47bd d505 d83d
00000030: 60f9 c0bd 18ef 62bd 40cb 92bd 3048 d6bd
00000040: 492f 46bc 50c6 903d cfc6 b63c c4b8 4f3d
00000050: 0765 373d c03f 4bbd 958a a73d 4578 b9bd
00000060: b0d3 ecbd 901d e03c 51eb d83d 3f3a b5bd
00000070: ac34 343d f049 9cbd a07d 78bc 68bb e2bc
00000080: bb91 33bd 3c4c d0bd 2029 013e e932 17bd
00000090: 1634 673d b47c 1abd ba5c d1bd cac0 c2bd
000000a0: fa6a 85bd bc09 173d 0849 a5bd a7b0 8abd
000000b0: e272 be3d cb98 263d 40a8 1cbc 61ba f13d
000000c0: 03d0 b0bd 9af0 43bd eff3 533e fd62 b33b
000000d0: 5c21 3b3e a7fc 1bbe e296 203d 3c8d 4a3d
000000e0: ea0c 17be ac49 5bbd 489f f7bd 9426 813d
000000f0: 807c c4bc c967 04be 0bf1 873d 04d0 a53d

weight f4 [64, 64]
0.051685333 0.09895538 0.09643908 0.116819814 0.1119407 0.10158467 0.006340106 -0.025764422
0.004753664 -0.051947206 0.05873221 -0.02112313 -0.038201623 -0.07502015 -0.047066063 0.09371284
0.020473352 0.047591336 -0.10039797 -0.0391688 -0.02390734 -0.013116941 0.088683546 -0.037723094
0.10432467 -0.024175972 0.0056881243 -0.0880035 0.021216676 -0.12793072 -0.107248574 -0.080000654
0.017930772 0.009688377 -0.022166088 -0.013673559 0.1311397 0.10047765 0.053086057 0.09940687
-0.006177753 -0.050227035 0.024301156 0.07396952 -0.03612486 -0.12687041 0.007580272 -0.023582974
-0.08161679 0.08636781 -0.036443986 -0.071453094 -0.10532504 0.12242925 0.06930633 -0.12940775
0.0060712183 -0.0027043372 0.059583023 -0.09528565 0.0018577725 0.041648775 0.06361288 0.013070375
-0.06195885 -0.12000182 0.067564175 0.11412041 -0.037739977 -0.11170675 0.03657323 -0.08763732
-0.08167063 0.034073234 -0.011870325 -0.008502573 0.11211854 -0.021925285 0.07608876 -0.038902923
0.09301302 0.038134053 0.11138727 0.04359743 -0.04427719 0.05448173 0.1064973 0.023691654
0.057628587 -0.08794041 0.06772955 -0.11816113 0.11050269 0.051627964 0.008226052 -0.11699416
0.11367014 0.07970515 0.115233555 0.04913886 0.042097196 -0.03237918 -0.051225215 0.04955037
0.043350667 -0.004052505 0.019882321 0.0429392 -0.12079458 -0.11054294 -0.033275485 0.085132495
0.060985282 -0.11930774 -0.037531078 -0.013213158 0.041055128 0.10226515 0.0027339458 -0.09729825
0.007669881 -0.04827012 -0.07639274 0.06923626 -0.016793996 0.05906476 0.097332284 0.012285203
0.07040608 -0.059035674 0.06977697 0.0049937814 0.08306618 0.11950743 -0.09455679 0.118665114
0.09542024 -0.10069612 0.036642686 -0.10176349 0.040548265 0.019329995 -0.11932643 0.04537736
-0.034335032 0.12459716 0.12200101 0.04315126 0.09853037 0.045147583 0.11826222 -0.01154083
0.030893803 -0.020647869 -0.002186045 -0.037708297 -0.04946935 0.07230973 0.053640887 -0.05517973
-0.11016269 0.06111966 -0.11498396 -0.0055314004 -0.107555345 0.10466635 0.10178462 -0.10273023
-0.116216645 -0.0739059 0.034492657 -0.06250949 -0.029768258 -0.031684905 0.022929117 -0.05912572
0.056851864 -0.08944835 -0.011126727 0.10477829 -0.06902233 0.095902294 0.0650575 -0.040377274
0.043345556 -0.08444698 0.010060325 0.035407573 0.10812016 -0.06994736 -0.07109025 -0.062388107
-0.12177156 -0.026733099 -0.12740408 -0.033555493 -0.055772692 0.0019106498 -0.0077897497 -0.090835705
-0.03690183 -0.012017354 -0.07226029 -0.022213444 0.012367376 -0.111508265 0.098289564 0.08882499
-0.051872645 -0.004991872 -0.00076877803 -0.041016452 -0.13142636 0.09909274 0.043779776 -0.1044586
-0.096876964 0.118869364 -0.028845938 -0.028718203 0.084717214 0.013164598 0.04487136 0.09916741
-0.03371959 0.11910941 -0.13779789 -0.0762393 0.003994169 -0.039514042 0.07133144 -0.03399089
0.019656032 -0.051423553 0.09384331 -0.057943154 -0.04923041 0.048626136 0.07548033 0.1052991
-0.1467327 -0.08545463 -0.07988744 -0.025805414 0.037664603 0.04186581 -0.047737006 -0.04426264
0.0049527283 0.10775709 0.06477666 -0.06289237 -0.0640336 0.027143024 -0.012643233 -0.080192596
00000000: 00b4 533d 1ea9 ca3d da81 c53d 3a3f ef3d
00000010: 2a41 e53d a00b d03d aac0 cf3b e90f d3bc
00000020: a0c4 9b3b 98c6 54bd 3091 703d 6a0a adbc
00000030: 4e79 1cbd 2aa4 99bd 58c8 40bd 84ec bf3d
00000040: bbb7 a73c 22ef 423d 739d cdbd 776f 20bd
00000050: 53d9 c3bc 70e8 56bc b89f b53d 8883 1abd
00000060: 2ca8 d53d b00c c6bc 7263 ba3b 2e3b b4bd
00000070: 98ce ad3c 4500 03be 24a5 dbbd 62d7 a3bd
00000080: 8ee3 923c 00bc 1e3c a895 b5bc 1007 60bc
00000090: 7c49 063e 3ac7 cd3d c470 593d d495 cb3d
000000a0: c06e cabb ddba 4dbd 3813 c73c 557d 973d
000000b0: a9f7 13bd 51ea 01be ee63 f83b 1531 c1bc
000000c0: b426 a7bd 9be1 b03d 4a46 15bd 0056 92bd
000000d0: a8b4 d7bd 30bc fa3d 7af0 8d3d 7783 04be
000000e0: 12f1 c63b 403b 31bb 540d 743d 1f25 c3bd
000000f0: 8080 f33a e897 2a3d 7847 823d 2025 563c
00000100: 90c8 7dbd 84c3 f5bd 165f 8a3d f6b7 e93d
00000110: 3c95 1abd 82c6 e4bd d0cd 153d 327b b3bd
00000120: ee42 a7bd 6090 0b3d c07b 42bc 604e 0bbc
00000130: 689e e53d a89c b3bc 6cd4 9b3d ac58 1fbd
00000140: 9c7d be3d 7432 1c3d 021f e43d 3893 323d
00000150: 005c 35bd 3c28 5f3d 421b da3d 0015 c23c
00000160: f40b 6c3d 1a1a b4bd cab5 8a3d 76fe f1bd
00000170: 3c4f e23d d877 533d 90c6 063c a29a efbd
00000180: e4cb e83d 743c a33d 92ff eb3d d445 493d
00000190: 1c6e 2c3d 08a0 04bd 88d1 51bd 54f5 4a3d
000001a0: 7890 313d e0ca 84bb 40e0 a23c 04e1 2f3d
000001b0: 2663 f7bd 5664 e2bd e04b 08bd f259 ae3d
000001c0: b4cb 793d 9e57 f4bd 30ba 19bd 007c 58bc
000001d0: 6c29 283d 6470 d13d 002c 333b 4e44 c7bd
000001e0: a053 fb3b e4b6 45bd cc73 9cbd becb 8d3d
000001f0: 9093 89bc e4ed 713d 2656 c73d e047 493c
00000200: 1031 903d 64cf 71bd 3ae7 8e3d e0a2 a33b
00000210: 9a1e aa3d 50c0 f43d fea6 c1bd b206 f33d
00000220: b06b c33d c439 cebd a416 163d 6069 d0bd
00000230: f015 263d f059 9e3c 6a61 f4bd 9cdd 393d
00000240: e4a2 0cbd cc2c ff3d aadb f93d 60bf 303d
00000250: 4aca c93d acec 383d 7633 f23d c015 3dbc
00000260: 0015 fd3c b825 a9bc c043 0fbb 0474 1abd
00000270: 60a0 4abd 2017 943d 8cb6 5b3d 2404 62bd
00000280: fa9c e1bd 9c58 7a3d b67c ebbd c040 b5bb
00000290: fa45 dcbd 505b d63d 7474 d03d 3a64 d2bd
000002a0: fe02 eebd fa5b 97bd 2c48 0d3d fa04 80bd
000002b0: 90dc f3bc 08c8 01bd d8d5 bb3c d02d 72bd
000002c0: 80dd 683d b230 b7bd e04c 36bc 0096 d63d
000002d0: 945b 8dbd 6c68 c43d de3c 853d a462 25bd
000002e0: 1c8b 313d 8af2 acbd 10d4 243c 8807 113d
000002f0: 1a6e dd3d 9040 8fbd c497 91bd ac8a 7fbd
00000300: 5e63 f9bd 5fff dabc 3776 02be 7c71 09bd
00000310: e871 64bd c56e fa3a 2841 ffbb 1208 babd
00000320: 6026 17bd 70e4 44bc 34fd 93bd f8f8 b5bc
00000330: 89a0 4a3c 725e e4bd 0a4c c93d e0e9 b53d
00000340: 6978 54bd db92 a3bb d287 49ba de00 28bd
00000350: a294 06be 22f1 ca3d 6c52 333d 64ee d5bd
00000360: 6e67 c6bd c871 f33d 514e ecbc 7042 ebbc
00000370: 3880 ad3d 53b0 573c 08cb 373d 4818 cb3d
00000380: 8e1d 0abd a2ef f33d e41a 0dbe 5a23 9cbd
00000390: 85e1 823b 7ad9 21bd 3816 923d 083a 0bbd
000003a0: b005 a13c 81a1 52bd ec30 c03d cd55 6dbd
000003b0: d4a5 49bd 332c 473d 6e95 9a3d 0ea7 d73d
000003c0: 1941 16be d602 afbd 079c a3bd e065 d3bc
000003d0: 3346 1a3d 7c7b 2b3d e187 43bd be4c 35bd
000003e0: 7f4a a23b c0af dc3d a0a9 843d b7cd 80bd
000003f0: 0c24 83bd 0c5b de3c 9025 4fbc 043c a4bd

bias f4 [64]
-0.012458605 -0.09985681 -0.102717236 0.03171458 0.30115306 0.13196003 -0.019062266 0.18597983
-0.054945514 0.01272403 0.024456674 -0.0052945022 -0.11720428 -0.10529442 -0.08091798 -0.12634462
-0.10832915 -0.043159097 0.11007164 -0.012308107 -0.08180313 -0.08042751 -0.0330285 0.052176993
-0.0017326275 0.06837872 0.09416761 0.2546172 -0.0043459493 -0.08916987 -0.012295743 0.081877545
-0.0040117777 -0.0038956702 -0.06379459 0.07389484 -0.02861672 -0.09340206 -0.018289756 -0.059664667
0.00052173436 -0.113423556 0.17243193 -0.0725967 0.059144303 0.115067214 0.2001272 0.18193533
-0.097648166 0.2880752 0.2349821 0.10501517 0.048101503 0.061642136 -0.079807185 0.13407934
-0.11644695 -0.047254298 -0.120805055 -0.0028420791 -0.0045597004 0.071475185 0.015562439 0.07878957
00000000: 2d1f 4cbc ba81 ccbd 6a5d d2bd 26e7 013d
00000010: bc30 9a3e 8820 073e 7828 9cbc 7f71 3e3e
00000020: 8c0e 61bd 7378 503c 5d59 c83c 817d adbb
00000030: cc08 f0bd 9aa4 d7bd 53b8 a5bd 7c60 01be
00000040: acdb ddbd 98c7 30bd 3d6d e13d f1a7 49bc
00000050: 6688 a7bd 2eb7 a4bd e448 07bd 8bb7 553d
00000060: 5519 e3ba 240a 8c3d f3da c03d 305d 823e
00000070: 7768 8ebb b19e b6bd 1674 49bc 6aaf a73d
00000080: 3b75 83bb 804e 7fbb bda6 82bd 2e56 973d
00000090: 9d6d eabc 9449 bfbd 66d4 95bc f062 74bd
000000a0: 00c5 083a 9c4a e8bd ff91 303e 94ad 94bd
000000b0: 4c41 723d 5ca8 eb3d 25ee 4c3e 414d 3a3e
000000c0: c3fb c7bd 987e 933e 269f 703e 3212 d73d
000000d0: 1506 453d 777c 7c3d f371 a3bd 184c 093e
000000e0: bd7b eebd b98d 41bd a468 f7bd 2d42 3abb
000000f0: 8a69 95bb 9561 923d 9af9 7e3c 6d5c a13d

weight f4 [4, 64]
-0.021841796 0.012132287 -0.058511734 0.033038124 -0.17786121 -0.22799778 0.00699465 -0.10375445
-0.0049342965 -0.019381333 -0.11235449 -0.04962419 -0.09190185 0.03702659 0.09039433 -0.070682116
-0.09614597 -0.10600437 -0.085637085 0.0414493 -0.08786932 -0.038719565 0.09389593 0.023751652
-0.047328215 0.031211771 0.028918548 -0.037307844 0.0048677637 -0.023164622 -0.0072157877 0.06964302
-0.065007135 -0.103683114 -0.058197577 0.087703854 -1.5040976 -0.07521076 0.058422565 0.06624161
-0.10921195 0.055137698 -0.061210994 0.025316462 -0.04117152 -0.13636854 -0.13599679 -0.08453904
-0.06389216 -0.15838234 -0.17837404 -0.14750147 0.018096348 -0.051567107 0.0084230285 -0.064165115
0.016948523 0.03662991 -0.010242054 -0.017974276 0.10179653 -0.078379445 -0.038359214 -0.20169574
-0.28362194 -0.025186509 0.1128557 0.0068586543 -0.63133895 -0.6522493 -0.117692694 -0.5584848
0.06618187 -0.017586313 -0.007839916 -0.10984418 -0.02746036 -0.2039284 -0.03929731 0.004755648
-0.0075980276 -0.017921582 -0.34248745 -0.04813452 -0.12846509 -0.0071981847 -0.019134402 0.09183173
-0.042641297 -0.04082679 -0.41615105 -0.5025795 0.014401363 -0.11182097 -0.12473073 0.049608808
-0.42259103 0.11939688 -0.5406027 0.044093534 0.028506769 -0.28601795 -0.1146274 -0.056229517
0.058846667 0.109072074 -0.775214 -0.05621335 -0.33831826 -0.5178582 -0.54710215 -0.53348047
0.018216833 -0.7316264 -0.4986899 -0.20020173 -0.026145915 -0.13911006 -0.034120772 -0.21586025
-0.06500962 -0.1558832 -0.20425957 0.078860745 -0.10240752 -0.085699104 -0.37452376 -0.2803265
0.10229524 -0.113933325 -0.016795114 -0.013815971 0.18500432 0.081972316 -0.024503633 0.08418204
0.084639266 0.07361127 0.025586532 0.05581426 0.15537946 -0.055160776 0.0183935 0.15061687
-0.03268014 -0.09255116 0.19534807 0.06656795 0.06554582 0.09395984 -0.010720119 -0.050630048
-0.029123798 0.03406889 0.024547119 0.2007456 0.01919767 0.06497473 0.010028091 0.02425252
0.029183514 -0.106729925 -0.05719305 -0.013055816 0.22947538 -0.070361204 0.09486543 -0.054962486
0.00014102459 -0.01640725 0.01983371 -0.03819549 0.0053824717 0.12022837 0.21297942 0.08972398
0.04069079 0.15319377 0.16303198 0.10877021 -0.005731706 0.01981253 -0.0060437736 0.20138882
0.01305807 0.053268876 -0.04086388 0.12132862 0.022734107 0.02995121 0.052017745 0.095938936
0.052093644 0.097142234 -0.11098339 -0.024763115 -0.09130074 -0.012643596 -0.10909963 -0.01955134
0.083841845 0.09273892 -0.09361087 -0.039894935 0.038283873 0.030379193 0.086255714 -0.090463005
-0.050443947 0.06764528 -0.005478468 -0.02410392 -0.075996496 -0.007268086 0.10621606 -0.07038864
0.018829305 0.008322293 -0.11767298 -0.08869451 0.011706694 -0.04879636 0.037222113 -0.037976887
0.0004055152 -0.023127988 -0.030831274 0.101082236 0.25345424 0.012897375 -0.060609207 0.02376835
-0.03669113 0.0015019376 -0.029562851 0.04637797 -0.12658587 -0.0048535056 0.005182158 -0.01063851
-0.034306183 -0.059073817 0.0016095949 -0.013008254 -0.101519965 -0.0065999106 -0.099932246 -0.016755389
-0.08063705 0.020201853 0.03877157 0.087376826 -0.064064346 0.02816907 0.0008576578 0.008551777
00000000: 91ed b2bc 80c6 463c 00aa 6fbd fc52 073d
00000010: 4021 36be 4078 69be 6033 e53b 377d d4bd
00000020: e1af a1bb 9ac5 9ebc 1c1a e6bd bc42 4bbd
00000030: 0a37 bcbd 32a9 173d aa20 b93d c9c1 90bd
00000040: 2ee8 c4bd d218 d9bd 7f62 afbd bec6 293d
00000050: d4f4 b3bd 6898 1ebd 824c c03d d392 c23c
00000060: 3bdb 41bd d4af ff3c 97e6 ec3c 1cd0 18bd
00000070: c381 9f3b bcc3 bdbc 6a72 ecbb 00a1 8e3d
00000080: 7622 85bd d057 d4bd 9560 6ebd 149e b33d
00000090: 4586 c0bf 1908 9abd 804c 6f3d aea9 873d
000000a0: 84aa dfbd 11d8 613d 61b8 7abd 7864 cf3c
000000b0: 78a3 28bd 32a4 0bbe be42 0bbe ce22 adbd
000000c0: e5d9 82bd fb2e 22be afa7 36be a00a 17be
000000d0: cb3e 943c 0838 53bd be00 0a3c 0069 83bd
000000e0: a1d7 8a3c 3f09 163d 4ace 27bc ca3e 93bc
000000f0: b37a d03d 6785 a0bd 8d1e 1dbd 5489 4ebe
00000100: e536 91be f053 cebc e420 e73d 90be e03b
00000110: 6e9f 21bf cff9 26bf de08 f1bd dcf8 0ebf
00000120: 5c8a 873d 2c11 90bc fe72 00bc fcf5 e0bd
00000130: 8df4 e0bc 9bd2 50be 37f6 20bd 44d5 9b3b
00000140: e0f8 f8bb 48d0 92bc 845a afbe b428 45bd
00000150: 5a8c 03be c0de ebbb c0bf 9cbc 4612 bc3d
00000160: a4a8 2ebd fe39 27bd c011 d5be 0da9 00bf
00000170: b2f3 6b3c 6502 e5bd d372 ffbd 9b32 4b3d
00000180: da5d d8be 5a86 f43d f064 0abf 6c9b 343d
00000190: 0787 e93c f270 92be c5c1 eabd ec50 66bd
000001a0: 3409 713d 2e61 df3d 6d74 46bf f83f 66bd
000001b0: 0d38 adbe 5b92 04bf e30e 0cbf 2d92 08bf
000001c0: 783b 953c de4b 3bbf 4854 ffbe af01 4dbe
000001d0: f52f d6bc de72 0ebe 39c2 0bbd 780a 5dbe
000001e0: c323 85bd d89f 1fbe 6c29 51be be81 a13d
000001f0: 09bb d1bd 0383 afbd 94c1 bfbe f486 8fbe
00000200: 2b80 d13d e055 e9bd e895 89bc 625c 62bc
00000210: c671 3d3e 1ae1 a73d d8bb c8bc a267 ac3d
00000220: 5a57 ad3d 81c1 963d d99a d13c 7e9d 643d
00000230: cb1b 1f3e 44f0 61bd f7ad 963c 4f3b 1a3e
00000240: 9cdb 05bd 768b bdbd 5309 483e c754 883d
00000250: e33c 863d 046e c03d 70a3 2fbc 7461 4fbd
00000260: 0895 eebc d28b 0b3d 0a17 c93c 4190 4d3e
00000270: 6f44 9d3c 7911 853d dd4c 243c 39ad c63c
00000280: 4412 ef3c 3895 dabd 4243 6abd 10e8 55bc
00000290: 98fb 6a3e 8919 90bd ce48 c23d 5820 61bd
000002a0: 00e0 1339 7f68 86bc 4e7a a23c e072 1cbd
000002b0: 725f b03b 4b3a f63d 4717 5a3e 35c1 b73d
000002c0: 63ab 263d d4de 1c3e dbf1 263e eac2 de3d
000002d0: 09d1 bbbb e34d a23c d90a c6bb df38 4e3e
000002e0: 84f1 553c 7730 5a3d e260 27bd 247b f83d
000002f0: e13c ba3c 3d5c f53c 8f10 553d a27b c43d
00000300: 2560 553d 82f2 c63d 424b e3bd 04dc cabc
00000310: e2fb babd 1627 4fbc a06f dfbd 222a a0bc
00000320: 46b5 ab3d e7ed bd3d 0eb7 bfbd df68 23bd
00000330: 8dcf 1c3d c9dd f83c d6a6 b03d ab44 b9bd
00000340: 509e 4ebd 9c89 8a3d b884 b3bb 9675 c5bc
00000350: 0da4 9bbd 2029 eebb ce87 d93d eb27 90bd
00000360: ea3f 9a3c 3a5a 083c 88fe f0bd 78a5 b5bd
00000370: 6fcd 3f3c b1de 47bd 3776 183d a78d 1bbd
00000380: 549b d439 e876 bdbc de91 fcbc 3404 cf3d
00000390: c1c4 813e 834f 533c 5c41 78bd d8b5 c23c
000003a0: 7049 16bd aadc c43a cb2d f2bc d4f6 3d3d
000003b0: ba9f 01be 280a 9fbb 18cf a93b 254d 2ebc
000003c0: a484 0cbd 63f7 71bd 0bf9 d23a 9220 55bc
000003d0: b3e9 cfbd 1044 d8bb 47a9 ccbd 9942 89bc
000003e0: 0a25 a5bd 5b7e a53c f0ce 1e3d 9ff2 b23d
000003f0: 2b34 83bd d2c2 e63c 71d4 603a c11c 0c3c

bias f4 [4]
-0.007042739 -0.29485255 0.111720614 -0.18301263
00000000: c7c6 e6bb eaf6 96be c7cd e43d aa67 3bbe

weight f4 [64, 17]
0.06333141 0.06618603 -0.18759656 -0.08847517 -0.20422468 -0.20503649 0.17846498 0.17050031
-0.16527735 -0.23444833 -0.19696276 0.115102164 0.20207177 -0.036333065 -0.08356999 -0.19525525
-0.008897185 0.19486822 0.035757307 -0.0486184 -0.033893403 0.08853561 0.013672595 2.2741172
2.0889132 0.056862485 0.14432101 -0.085476846 0.14877002 -0.2810014 0.07846878 0.27293754
0.16274755 0.055674624 -0.14798848 0.10704956 -0.016022632 0.056167 0.19325991 -0.008108778
1.7883469 1.7805041 0.4812065 0.14930795 -0.2396999 0.187869 -0.048933715 0.1027277
0.2271054 -0.28678086 0.09030461 -0.032306656 0.085218795 0.037701298 0.26041153 0.24376895
0.12223326 1.9861934 2.1064973 -0.03861199 0.06903671 -0.14352265 -0.0021192564 -0.60677403
-0.1732859 -0.00987387 -0.1818322 0.22951962 -0.19568992 0.43683454 0.112923525 -0.15947261
0.28976855 0.29814556 -2.6151412 -2.3517423 0.18407798 0.18265817 0.077536546 -0.21347962
0.8612345 -0.058610972 0.07164026 0.21350688 0.109991066 0.18120682 0.12591882 -0.12344799
0.023252068 0.2513193 -0.19160044 2.0575683 2.0434315 -0.3198441 -0.15327543 0.15526631
0.27953067 -0.80334854 -0.1947295 0.12928268 -0.088365324 -0.10316756 0.2316985 -0.31169674
-0.16064714 0.20232055 0.21695325 -0.05789889 2.8439116 2.5591512 0.07425931 -0.1287801
-0.25167638 0.07844499 -0.6149493 0.07479022 0.006298882 0.0681427 -0.046193205 0.06116518
-0.34278476 -0.06479374 0.19268095 0.29387715 0.14740002 2.6271484 2.4907944 -0.017142009
-0.057611205 -0.063472986 -0.004925775 -0.5646691 -0.01793343 -0.16699256 0.04329033 -0.22754285
0.10712053 -0.11634626 0.14728191 -0.079456456 0.08030417 -0.18035927 2.2093225 2.495073
-0.14068207 0.05206576 -0.11313502 0.12439781 -0.8129786 -0.17835656 -0.038600657 0.07015333
0.09699594 -0.13854599 0.17508277 0.25508168 0.13919719 0.24665107 0.023905627 1.2876312
1.3847221 -0.2926641 -0.12760985 -0.32113656 0.81940424 -0.4960065 0.17771032 -0.08309581
0.082420394 0.20843339 0.17356876 -0.09021926 0.29283413 -0.14432365 0.27022922 -0.3161604
2.7638435 2.4998283 -0.3930145 -0.029428167 -0.24313547 0.38804448 -0.22143869 0.2844484
0.26023078 0.23403987 -0.20298223 0.12722823 -0.18365704 0.17224097 0.053159896 0.01606126
-0.024531173 1.9224384 1.7310386 -0.17121196 0.09950116 0.18726447 0.08278502 -0.41399565
0.13429233 -0.058898598 0.32681772 0.2576205 0.3130368 -0.14383411 -0.047677778 -0.09435166
0.11726247 -0.24166796 2.7741268 2.3643868 -0.38734102 -0.07903804 0.10086622 0.27072874
-0.5137383 -0.05411875 -0.020178642 0.051984355 -0.19900398 0.017411131 -0.16451931 0.06995334
0.23760565 -0.15199535 -0.05181785 2.5282662 2.4638362 -0.041877102 0.16047539 -0.27727476
0.1856362 -0.35400018 0.06319688 -0.22705832 0.15043871 0.06850956 -0.21534139 0.00046644534
-0.20413858 -0.044086993 0.028827496 0.2109546 0.17057937 0.12503397 0.031939145 -0.22379786
-0.07824049 0.21621345 0.01997394 -0.05465668 -0.08367043 0.1170966 0.15257542 0.031787608
00000000: e6b3 813d 8b8c 873d 5019 40be 7832 b5bd
00000010: 4620 51be 16f5 51be 86bf 363e a297 2e3e
00000020: 773e 29be 3913 70be 9bb0 49be afba eb3d
00000030: e7eb 4e3e fbd1 14bd be26 abbd fef0 47be
00000040: 80c5 11bc 898b 473e 4176 123d 1624 47bd
00000050: cfd3 0abd 2852 b53d 0503 603c 238b 1140
00000060: c1b0 0540 a3e8 683d e3c8 133e 7c0e afbd
00000070: 2b57 183e 6adf 8fbe 3db4 a03d 78be 8b3e
00000080: 4ba7 263e 130b 643d 4b8a 17be cd3c db3d
00000090: e541 83bc 5e0f 663d ede5 453e aeda 04bc
000000a0: 8de8 e43f 8fe7 e33f b360 f63e 2fe4 183e
000000b0: e473 75be bb60 403e b86e 48bd e662 d23d
000000c0: 518e 683e f1d4 92be a0f1 b83d fc53 04bd
000000d0: 3187 ae3d ad6c 1a3d a954 853e 919e 793e
000000e0: 6e55 fa3d 963b fe3f dad0 0640 9b27 1ebd
000000f0: 1e63 8d3d 9af7 12be 39e3 0abb 8b55 1bbf
00000100: dc71 31be 03c6 21bc 3832 3abe 3107 6b3e
00000110: f062 48be c7a8 df3e 7344 e73d ca4c 23be
00000120: 8b5c 943e 89a6 983e 795e 27c0 f282 16c0
00000130: f07e 3c3e be0a 3b3e 7bcb 9e3d 679a 5abe
00000140: dd79 5c3f 0f12 70bd 21b8 923d 8ca1 5a3e
00000150: ff42 e13d 488e 393e ddf0 003e 4dd2 fcbd
00000160: 1f7b be3c ecac 803e e832 44be 33af 0340
00000170: 95c7 0240 9bc2 a3be 3cf4 1cbe 22fe 1e3e
00000180: a51e 8f3e 40a8 4dbf 2c67 47be ae62 043e
00000190: e1f8 b4bd 8449 d3bd 5f42 6d3e b796 9fbe
000001a0: af80 24be 1e2d 4f3e fe28 5e3e 6327 6dbd
000001b0: a602 3640 22c9 2340 4415 983d eede 03be
000001c0: badb 80be c4a7 a03d 516d 1dbf 9d2b 993d
000001d0: da66 ce3b 668e 8b3d 1635 3dbd 5788 7a3d
000001e0: 7c81 afbe 95b2 84bd 284e 453e 1177 963e
000001f0: 08f0 163e 3323 2840 2d69 1f40 666d 8cbc
00000200: baf9 6bbd 20fe 81bd 6568 a1bb 278e 10bf
00000210: 21e9 92bc 1900 2bbe 3351 313d fe00 69be
00000220: 0262 db3d f346 eebd 12d1 163e 11ba a2bd
00000230: 8376 a43d 1ab0 38be 8a65 0d40 47af 1f40
00000240: f60e 10be e842 553d 55b3 e7bd 47c4 fe3d
00000250: 5e1f 50bf 1aa3 36be b91b 1ebd 8dac 8f3d
00000260: cfa5 c63d 00df 0dbe e648 333e 119a 823e
00000270: b589 0e3e 1992 7c3e bcd5 c33c 19d1 a43f
00000280: 933e b13f 12d8 95be 28ac 02be 036c a4be
00000290: 7ac4 513f 90f4 fdbe b2f9 353e 232e aabd
000002a0: 06cc a83d 906f 553e 02bc 313e e0c4 b8bd
000002b0: 5bee 953e 94c9 13be 7c5b 8a3e c7df a1be
000002c0: d0e2 3040 30fd 1f40 3239 c9be 5713 f1bc
000002d0: 81f8 78be c4ad c63e d3c0 62be 38a3 913e
000002e0: f83c 853e 26a8 6f3e 93da 4fbe 1e48 023e
000002f0: 9710 3cbe f05f 303e 31be 593d e792 833c
00000300: 99f5 c8bc 7612 f63f ac92 dd3f 3052 2fbe
00000310: 44c7 cb3d 42c2 3f3e 318b a93d 3df7 d3be
00000320: ee83 093e a83f 71bd a754 a73e d6e6 833e
00000330: 5c46 a03e 4049 13be c649 43bd 713b c1bd
00000340: 4e27 f03d ce77 77be 4b8b 3140 1d52 1740
00000350: 9051 c6be b2de a1bd f392 ce3d f59c 8a3e
00000360: 5a84 03bf 9fab 5dbd ae4d a5bc 8ced 543d
00000370: b3c7 4bbe caa1 8e3c c077 28be b243 8f3d
00000380: e54e 733e aba4 1bbe f43e 54bd 1dcf 2140
00000390: 7eaf 1d40 5387 2bbd a953 243e f5f6 8dbe
000003a0: 6a17 3e3e 833f b5be 5e6d 813d fa81 68be
000003b0: 9b0c 1a3e bd4e 8c3d 7482 5cbe 3c8d f439
000003c0: b409 51be 9094 34bd a427 ec3c 7c04 583e
000003d0: 5cac 2e3e e808 003e 9fd2 023d 442b 65be
000003e0: 8d3c a0bd 0f67 5d3e 63a0 a33c afdf 5fbd
000003f0: 675b abbd 58d0 ef3d bb3c 1c3e b933 023d

bias f4 [64]
-0.17995466 0.203152 0.016983455 0.18922502 -0.076331705 -0.068861045 0.09795542 0.08302622
0.18375316 0.12636508 0.26072472 -0.18367217 0.13305573 0.21379092 -0.10990109 -0.124864005
0.21433072 -0.22151254 -0.17615446 -0.20521337 0.045598876 0.13456757 -0.21288131 0.17937914
0.08324417 0.025619097 -0.19928762 -0.2206062 -0.19934121 -0.05245339 -0.20725405 0.19113898
0.024043037 -0.09564714 0.2505134 0.08683455 0.08261851 -0.083252214 -0.030406695 -0.21698609
-0.13812244 0.29433417 -0.12446135 0.16956794 0.14804293 0.22143358 0.22483395 0.24521224
0.19575614 0.024356678 -0.05060666 -0.19166043 0.1453227 -0.057725094 0.05196413 -0.047220375
0.25037184 0.026302027 0.17835458 0.22125557 0.072156385 0.014372821 0.13588679 -0.1429774
00000000: 0946 38be 1407 503e e320 8b3c 34c4 413e
00000010: cc53 9cbd 0507 8dbd da9c c83d a709 aa3d
00000020: ca29 3c3e d965 013e b67d 853e 8f14 3cbe
00000030: c33f 083e 02ec 5a3e d313 e1bd b3b8 ffbd
00000040: 8379 5b3e 2fd4 62be d661 34be 7423 52be
00000050: e3c5 3a3d 15cc 093e 8ffd 59be 2aaf 373e
00000060: eb7b aa3d 24df d13c 0e12 4cbe 97e6 61be
00000070: 1a20 4cbe 5ed9 56bd 683a 54be f0b9 433e
00000080: e7f5 c43c a6e2 c3bd 4b43 803e 50d6 b13d
00000090: e533 a93d 2380 aabd 7617 f9bc 9a31 5ebe
000000a0: f86f 0dbe f8b2 963e 98e5 febd 38a3 2d3e
000000b0: 9198 173e 7cbf 623e df3a 663e eb18 7b3e
000000c0: 4c74 483e a887 c73c ee48 4fbd a242 44be
000000d0: 79cf 143e 2671 6cbd 57d8 543d 276a 41bd
000000e0: bd30 803e 5977 d73c 95a2 363e d290 623e
000000f0: bac6 933d fb7b 6b3c e825 0b3e ab68 12be

weight f4 [64, 64]
0.08790636 0.11663934 0.04571576 -0.00066478486 -0.3521599 0.12960956 0.12847039 0.024881996
0.009097324 -0.11758932 0.073495395 -0.045465816 0.12898193 0.07372914 0.116396084 -0.008388594
0.117516205 -0.12742594 -0.04592246 -0.044388488 -0.03355175 0.102584 0.014347538 0.16574174
0.09601928 -0.16303706 0.038714934 -0.27015615 -0.10347563 -0.20264068 0.12794018 0.08504822
0.0015702577 -0.0046500415 -0.11565522 -0.08015404 0.18805096 0.01548392 0.26384228 0.0899797
0.022319788 0.11699052 0.020945625 -0.121848576 0.15865245 0.13932946 0.2303155 -0.058808807
0.15959851 0.07471115 0.108595446 -0.17992733 -0.053163312 0.029830497 0.08042492 0.3637827
0.074804686 0.16845272 -0.1337658 0.14966159 -0.22792698 0.06421842 0.034697928 -0.096144795
-0.013949931 0.04770894 -0.12503237 0.0830717 -0.22137092 0.009564066 0.07288524 -0.07739375
0.17848991 -0.039251123 0.08547575 0.16152933 -0.12327965 0.08680008 -0.05663158 0.0556659
0.021998294 -0.2678072 0.0446105 0.04023832 -0.128422 0.20392498 -0.05173035 0.17615305
0.06223866 -0.15459283 -0.27958313 -0.44820976 -0.10461037 -0.32455862 0.66178614 0.04339671
0.050065402 0.104077294 -0.13294049 -0.19055547 -0.07420393 -0.037057 0.23822144 -0.004926935
0.31787494 0.076674394 0.036763426 -0.10751292 0.19295259 0.15950002 0.121214114 -0.056548122
-0.092779666 0.08683555 0.36623597 -0.38558853 -0.10112607 0.14613979 0.08113117 -0.10415446
-0.13726263 0.005301173 -0.43637636 0.040526602 0.05344424 0.5049559 -0.09096939 0.05149378
-0.12203382 0.066525884 0.038483907 -0.06520274 -0.28460664 0.10661808 0.14087671 0.040550996
0.069984846 0.06815919 0.064755276 0.018620295 0.10968558 -0.041831825 0.08798902 0.045333553
0.06533087 -0.11765698 -0.065569 -0.019257009 -0.072709024 0.19295375 0.060598373 0.07805289
0.1419221 -0.17572659 -0.051422227 -0.39258435 0.011422262 -0.36290368 0.11815127 0.14714342
0.012539812 0.015320346 0.00072848104 0.14351673 -0.004571081 0.009666742 0.07720471 -0.09723613
0.19368897 0.13577269 -0.040300604 0.058190167 0.09470998 0.30740413 0.13706462 0.010042699
0.05593268 0.072719775 0.08662076 -0.37512857 0.07107706 0.059681483 0.043304756 0.38065767
-0.011613145 0.10073367 -0.14547697 -0.04629454 -0.1376233 0.048292104 -0.027904583 0.014331609
-0.06615445 -0.12997146 -0.051238675 0.0597907 -0.013666927 -0.11241233 0.0754646 -0.043667834
-0.13219061 0.018899381 -0.1239077 0.060565725 -0.00011170169 0.015763506 -0.109868616 0.01029133
-0.027775856 -0.045502502 0.035447672 -0.112533346 -0.112039246 -0.13734163 -0.04403834 0.031825885
0.046333738 0.008930611 -0.07346183 -0.018326951 0.049133345 -0.08541266 -0.14234191 -0.046113484
-0.07794034 0.081406504 0.017076978 -0.0070825447 0.027448695 -0.13260545 -0.08847501 -0.10222973
-0.047820013 -0.11203334 -0.028584026 -0.081474334 0.024093956 -0.1338484 -0.08648699 0.06200225
0.066263825 -0.010241402 -0.08290809 -0.13651153 0.06447088 -0.014964137 -0.04312141 -0.033934362
-0.053491157 0.04336471 -0.097766005 -0.030693134 0.054825075 -0.056515872 0.043767255 0.031518295
00000000: 4008 b43d 9be0 ee3d 7340 3b3d f544 2eba
00000010: 4d4e b4be 5eb8 043e be8d 033e 54d5 cb3c
00000020: f10c 153c abd2 f0bd c184 963d 5d3a 3abd
00000030: d713 043e 4eff 963d 1261 ee3d 5070 09bc
00000040: 56ac f03d f27b 02be 3019 3cbd b4d0 35bd
00000050: 8f6d 09bd 8f17 d23d f011 6b3c 34b8 293e
00000060: c2a5 c43d 30f3 26be 8d93 1e3d e851 8abe
00000070: 08eb d3bd 0a81 4fbe c002 033e c32d ae3d
00000080: 1bd1 cd3a 605f 98bb a5dc ecbd cd27 a4bd
00000090: 6e90 403e 45b0 7d3c 5616 873e 4747 b83d
000000a0: fdd7 b63c ba98 ef3d 2996 ab3c bf8b f9bd
000000b0: ca75 223e 62ac 0e3e d4d7 6b3e 81e1 70bd
000000c0: cb6d 233e 2902 993d 4a67 de3d df3e 38be
000000d0: c6c1 59bd 165f f43c d2b5 a43d ba41 ba3e
000000e0: 3333 993d df7e 2c3e e7f9 08be e340 193e
000000f0: b165 69be f284 833d 6a1f 0e3d 90e7 c4bd
00000100: 408e 64bc 736a 433d 7c08 00be 7f21 aa3d
00000110: 0faf 62be 9ab2 1c3c db44 953d 9d80 9ebd
00000120: 0fc6 363e c9c5 20bd e90d af3d f267 253e
00000130: 0b7a fcbd 3ec4 b13d 84f6 67bd ed01 643d
00000140: c435 b43c 061e 89be 80b9 363d f0d0 243d
00000150: 0f81 03be b6d1 503e 34e3 53bd 7761 343e
00000160: f7ed 7e3d 954d 1ebe 8525 8fbe c07b e5be
00000170: f63d d6bd 8c2c a6be d16a 293f c0c0 313d
00000180: 6111 4d3d 7a26 d53d 8d21 08be f920 43be
00000190: 3bf8 97bd 15c9 17bd 52f0 733e 2072 a1bb
000001a0: 81c0 a23e 7707 9d3d 3f95 163d bc2f dcbd
000001b0: 5d95 453e f953 233e 1b3f f83d 019f 67bd
000001c0: 4403 bebd d6d6 b13d 4883 bb3e dc6b c5be
000001d0: 2f1b cfbd aba5 153e 1928 a63d ef4e d5bd
000001e0: 938e 0cbe 76b5 ad3b b96c dfbe 39ff 253d
000001f0: 59e8 5a3d ca44 013f 294e babd 24eb 523d
00000200: deec f9bd b93e 883d 4da1 1d3d 0489 85bd
00000210: f6b7 91be 945a da3d fc41 103e cd18 263d
00000220: 3754 8f3d 0c97 8b3d 6a9e 843d 9789 983c
00000230: d5a2 e03d d957 2bbd 9633 b43d adaf 393d
00000240: 31cc 853d 25f6 f0bd 0a49 86bd e0c0 9dbc
00000250: 78e8 94bd ab95 453e 0036 783d 32da 9f3d
00000260: 0754 113e acf1 33be 1da0 52bd d100 c9be
00000270: 7024 3b3c 83ce b9be 4bf9 f13d c4ac 163e
00000280: c973 4d3c 3002 7b3c 89f7 3e3a 0df6 123e
00000290: 02c9 95bb 4161 1e3c 811d 9e3d bc23 c7bd
000002a0: 6756 463e ff07 0b3e 3f12 25bd d058 6e3d
000002b0: 4ef7 c13d 1364 9d3e ab5a 0c3e 228a 243c
000002c0: aa19 653d 1bee 943d 3a66 b13d da10 c0be
000002d0: da90 913d 9274 743d 5460 313d 90e5 c23e
000002e0: 0f45 3ebc 744d ce3d eaf7 14be 589f 3dbd
000002f0: 1fed 0cbe f1cd 453d 2798 e4bc 20cf 6a3c
00000300: fc7b 87bd 3d17 05be a5df 51bd 18e7 743d
00000310: 3feb 5fbc 7038 e6bd 2f8d 9a3d 0bdd 32bd
00000320: fa5c 07be e0d2 9a3c 52c3 fdbd c413 783d
00000330: 6341 eab8 7822 813c cc02 e1bd f79c 283c
00000340: 318a e3bc d560 3abd 9431 113d e277 e6bd
00000350: d574 e5bd 49a3 0cbe 8c61 34bd dc5b 023d
00000360: 72c8 3d3d b351 123c 2873 96bd 6722 96bc
00000370: 0c40 493d d5ec aebd 14c2 11be 7ee1 3cbd
00000380: 2f9f 9fbd 74b8 a63d 05e5 8b3c b114 e8bb
00000390: 16dc e03c b9c9 07be 6332 b5bd d25d d1bd
000003a0: ebde 43bd bc71 e5bd 0c29 eabc 04dc a6bd
000003b0: b060 c53c 8e0f 09be 1720 b1bd 12f6 7d3d
000003c0: 54b5 873d 8ecb 27bc b7cb a9bd aec9 0bbe
000003d0: 4f09 843d 242c 75bc 13a0 30bd c2fe 0abd
000003e0: 8b19 5bbd 329f 313d 8b39 c8bd 2b70 fbbc
000003f0: 4290 603d 307d 67bd 4b45 333d 5419 013d

bias f4 [64]
0.09794132 -0.093765296 0.06958666 -0.04733137 0.081903145 0.00028742908 0.093137294 -0.069924414
0.0964591 0.104229614 0.029266844 -0.0067336033 0.060981315 -0.10111895 -0.028983263 0.08768613
0.09957122 0.015545178 -0.03222568 0.049935408 0.14353998 0.09659489 0.03968563 0.077357136
0.046602037 0.0041005826 -0.102778375 -0.069833584 -0.062833644 -0.073046625 0.151781 -0.0768643
0.051261928 0.011905463 -0.07064514 -0.024548166 0.057978656 -0.09874418 0.08230902 0.024261976
-0.062177777 -0.07260306 0.021718357 -0.058488667 0.06252656 -0.08806644 0.1297686 0.15503325
0.038163614 -0.04235242 -0.080801316 0.05491257 0.07873794 0.08740378 -0.029264549 0.10430581
-0.06212289 -0.05883542 -0.016578551 -0.047128677 0.08946211 -0.03631737 0.10219254 -0.054588117
00000000: 7595 c83d 0508 c0bd 7383 8e3d 8ade 41bd
00000010: d6bc a73d 14b2 9639 c4be be3d 8834 8fbd
00000020: 598c c53d 5676 d53d 05c1 ef3c 8fa5 dcbb
00000030: 8bc7 793d 7417 cfbd 4f6e edbc c994 b33d
00000040: ffeb cb3d 34b1 7e3c 13ff 03bd 1289 4c3d
00000050: 25fc 123e 8bd3 c53d 668d 223d 6b6d 9e3d
00000060: c7e1 3e3d 2e5e 863b 787d d2bd e904 8fbd
00000070: edae 80bd 7899 95bd 7a6c 1b3e 086b 9dbd
00000080: 07f8 513d 220f 433c 66ae 90bd 3c19 c9bc
00000090: 077b 6d3d 633a cabd a291 a83d 0dc1 c63c
000000a0: 20ae 7ebd eab0 94bd b2ea b13c d091 6fbd
000000b0: ed0d 803d 2d5c b4bd 0fe2 043e 09c1 1e3e
000000c0: 7351 1c3d bb79 2dbd 297b a5bd 01ec 603d
000000d0: 5b41 a13d c100 b33d 35bc efbc 499e d53d
000000e0: 9274 7ebd 69fd 70bd becf 87bc 000a 41bd
000000f0: e937 b73d 86c1 14bd 534a d13d ca97 5fbd
