ddpg_her/models_reach.pt (torch, 84799 bytes, 15 tensors)

weight f4 [64, 13]
-0.03426438 0.116280355 -0.2593956 -0.20466334 -0.1070239 0.07435919 -0.0055005327 0.219911
-0.024626704 0.07339087 -0.084399916 -0.05562002 -0.26498497 -0.21400854 -0.15303926 -0.026771909
0.10964625 0.16641638 -0.16627735 -0.09794517 0.123795964 0.22535308 -0.05865515 0.17294602
-0.07797248 -0.0036578528 0.21348993 -0.3072191 -0.22855768 -0.07143035 -0.10855821 0.2725546
-0.20378296 -0.10137781 -0.19847721 -0.2613778 -0.19986768 0.19545943 0.08976446 0.020327833
-0.13586372 -0.4169784 0.32010671 -0.025306148 0.13979949 -0.11288459 1.0454621 0.2914637
-0.06789588 -0.22714895 0.16298239 0.22644417 -0.035332337 -0.10215229 0.057127986 0.12709926
0.27999824 -0.5897016 -0.19658247 0.6429302 -0.065144174 -0.19774191 -0.42585775 0.07079723
0.20872499 -0.10028161 -0.07819071 -0.020935297 0.12066737 0.2417457 -0.033798605 -0.40294012
-0.25480947 0.22907965 0.20041698 0.18215263 -0.041444648 -0.31141853 -0.005272983 -0.19736764
-0.28131533 0.24642347 0.21088585 -0.26551285 0.051054787 -0.03988947 -0.04568286 -0.12713028
0.07556554 -0.19472742 0.071295515 0.22675622 -0.27347717 0.317088 -3.4055753 -3.1092782
-1.6652763 0.42564806 -1.0711339 1.3083191 1.3319018 -0.49861714 0.26124758 -1.8914838
-0.26420316 -0.004985129 -0.20886096 -0.21393585 -0.015281881 0.041642744 -0.11358327 0.16457333
-0.16877837 0.25165918 0.19006799 -0.2338846 -0.06902809 -0.17965017 -0.305711 -0.41544944
0.36632884 0.30818507 0.3196392 1.3303515 1.4373425 -0.169608 -1.1709641 -0.320495
-0.25724086 -0.25462455 -0.49839205 -0.063932486 -0.14542438 0.68780935 0.72634315 -0.71446013
0.43743062 4.1524773 -1.5661199 -0.4920519 -0.28800383 0.35512078 0.3711906 -0.07945664
-1.6408949 0.18915242 12.816051 12.45632 -1.053616 -0.32263246 -0.039477173 -1.0753953
1.6193063 0.45259404 1.0315081 0.5898652 0.73535025 -0.48117846 0.88364524 3.6683202
3.560453 0.0784525 0.10545722 0.17748185 0.7173985 1.939607 -0.68952626 0.6148414
-1.3787357 -0.06697183 0.18481876 -0.1603112 0.24993965 0.10025768 -0.24820001 0.17581545
-0.029386718 -0.12379446 0.2217045 -0.25203478 -4.7609487e-06 -0.081540205 -0.24235636 0.7352599
0.34367293 0.019190628 -0.2714983 -0.1333786 -0.6937165 0.35317764 -0.96945655 -0.0659231
-0.55890566 -1.323692 0.5069935 -0.7135643 -0.4547419 1.5406313 -2.3364756 -2.0344555
0.4855961 -0.51389074 1.0548631 2.5103478 1.5192856 0.68994105 0.18389665 -0.043668553
0.010840926 -0.08087183 0.39779624 -1.4578327 -1.2325672 -0.24050927 -0.1333872 0.25847507
-1.3653306 -1.1041168 -0.8542469 -0.8113958 -1.618366 0.09742963 -0.07354806 -0.18168013
-0.28860334 0.11395788 -0.30258965 0.23287083 -0.35028055 -0.23228902 -0.15898101 0.054535452
-0.18136275 0.05727723 0.23625556 -0.3358691 0.17826065 -3.2140834 -2.8677025 -0.43503755
-0.09500745 -0.16873835 2.1184769 -0.07095479 0.5718063 -1.2634459 -0.8082969 -0.6368174
0.3307774 -1.1676128 -4.2319756 -3.4735556 0.74181986 0.27255717 -2.569877 0.88694024
00000000: ce58 0cbd 6524 ee3d 80cf 84be 4493 51be
00000010: 592f dbbd a249 983d d03d b4bb 5930 613e
00000020: f1bd c9bc f44d 963d ddd9 acbd d1d1 63bd
00000030: 1cac 87be 0e25 5bbe 53b6 1cbe c350 dbbc
00000040: 378e e03d 0e69 2a3e 9c44 2abe 7a97 c8bd
00000050: bd88 fd3d f5c2 663e 6240 70bd c318 313e
00000060: 09b0 9fbd 96b8 6fbb 1b9d 5a3e d24b 9dbe
00000070: 060b 6abe 134a 92bd c453 debd 478c 8b3e
00000080: 7bac 50be 2b9f cfbd 9c3d 4bbe 50d3 85be
00000090: 1daa 4cbe 8426 483e 6ed6 b73d 8e86 a63c
000000a0: dc1f 0bbe 317e d5be 07e5 a33e d74e cfbc
000000b0: 9927 0f3e 0930 e7bd b4d1 853f bb3a 953e
000000c0: ff0c 8bbd bc99 68be dbe4 263e fbe0 673e
000000d0: a4b8 10bd 3835 d1bd 09ff 693d 4f26 023e
000000e0: ee5b 8f3e aff6 16bf ea4c 49be 1397 243f
000000f0: 4f6a 85bd db7c 4abe 070a dabe 23fe 903d
00000100: 01bc 553e 7260 cdbd 7322 a0bd 8080 abbc
00000110: 7420 f73d 2f8c 773e 6870 0abd 2b4e cebe
00000120: 6376 82be db93 6a3e 1c3a 4d3e 3886 3a3e
00000130: ddc1 29bd 4072 9fbe fdc8 acbb be1a 4abe
00000140: 9008 90be 6f56 7c3e 76f2 573e 4df1 87be
00000150: d31e 513d 2463 23bd f31d 3bbd 712e 02be
00000160: 1bc2 9a3d a066 47be 6203 923d c832 683e
00000170: 3305 8cbe 5c59 a23e f2f4 59c0 6afe 46c0
00000180: c627 d5bf 8bee d93e ea1a 89bf 0077 a73f
00000190: c27b aa3f bf4a ffbe 3ec2 853e 241c f2bf
000001a0: a345 87be 4b5a a3bb a6df 55be 0012 5bbe
000001b0: db60 7abc 9591 2a3d 589e e8bd e985 283e
000001c0: 3dd4 2cbe 79d9 803e 2fa1 423e 727f 6fbe
000001d0: 995e 8dbd 37f6 37be 2786 9cbe cab5 d4be
000001e0: 748f bb3e 6fca 9d3e c0a7 a33e f548 aa3f
000001f0: d7fa b73f b8ad 2dbe 27e2 95bf ec17 a4be
00000200: 13b5 83be 265e 82be 3e2d ffbe 09ef 82bd
00000210: 21ea 14be 4614 303f a0f1 393f dce6 36bf
00000220: e8f6 df3e 18e1 8440 9e76 c8bf 3aee fbbe
00000230: 3d75 93be 64d2 b53e b20c be3e 2aba a2bd
00000240: d808 d2bf 2cb1 413e 8b0e 4d41 164d 4741
00000250: e4dc 86bf 1530 a5be d1b2 21bd 8ea6 89bf
00000260: 6e45 cf3f 68ba e73e 7508 843f 6801 173f
00000270: ea3f 3c3f 065d f6be 9336 623f c2c5 6a40
00000280: 76de 6340 b4ab a03d f4f9 d73d cdbd 353e
00000290: 6ea7 373f 0b45 f83f cb84 30bf 3f66 1d3f
000002a0: 697a b0bf 8728 89bd 2141 3d3e 9f28 24be
000002b0: 2ef0 7f3e e653 cd3d 2528 7ebe f708 343e
000002c0: 6abc f0bc f387 fdbd 8106 633e b40a 81be
000002d0: 3dc0 9fb6 8dfe a6bd 442c 78be fe39 3c3f
000002e0: e6f5 af3e aa35 9d3c d301 8bbe 6694 08be
000002f0: 6897 31bf b3d3 b43e 4e2e 78bf b102 87bd
00000300: 7114 0fbf bd6e a9bf 53ca 013f 26ac 36bf
00000310: eed3 e8be 6833 c53f d188 15c0 8534 02c0
00000320: 0da0 f83e 588e 03bf c105 873f 8aa9 2040
00000330: f377 c23f fa9f 303f 674f 3c3e ccdd 32bd
00000340: 249e 313c 21a0 a5bd f3ab cb3e 439a babf
00000350: c3c4 9dbf 1048 76be a796 08be d856 843e
00000360: 27c3 aebf b353 8dbf edaf 5abf a3b7 4fbf
00000370: 9e26 cfbf 3089 c73d 5ea0 96bd 5b0a 3abe
00000380: d1c3 93be c062 e93d 08ed 9abe b175 6e3e
00000390: f957 b3be 2cdd 6dbe ebcb 22be 9160 5f3d
000003a0: 28b7 39be 879b 6a3d faec 713e 09f7 abbe
000003b0: f689 363e 8bb3 4dc0 7088 37c0 3ebd debe
000003c0: 4493 c2bd bfc9 2cbe 2095 0740 bf50 91bd
000003d0: e661 123f 98b8 a1bf 8cec 4ebf 7706 23bf
000003e0: a85b a93e 5674 95bf 586c 87c0 bc4e 5ec0
000003f0: e8e7 3d3f 9d8c 8b3e dd78 24c0 840e 633f

bias f4 [64]
-0.0046092165 -0.13612507 -0.2711599 -0.004845331 -0.10395284 -0.17598294 -0.12458976 0.68169403
-0.050149582 0.2951559 -0.28869608 0.013542972 0.33518973 -0.12277088 0.8137961 -0.3112093
-0.19960839 -0.13095051 0.1711922 0.8358363 -0.11709591 -0.3607831 0.042196266 -0.2413817
-0.16696768 -0.52870506 0.15393035 -0.60204166 0.34577143 0.049263034 -0.05246411 -0.16621606
1.0595733 -0.118526205 -0.38685855 -0.25412083 -0.038285755 -0.020122524 0.04061825 -0.12074383
-0.4811738 -0.21027397 -0.008215653 -0.10722717 0.6827211 -0.2503937 -0.7147496 -0.20613103
-0.33176553 -0.2556185 -0.06859982 0.7421415 0.06452076 0.61385286 0.66574436 -0.25028148
-0.7385775 0.099982545 -0.15478519 0.06912677 0.5722522 0.10452929 -0.19481842 -0.044230133
00000000: e908 97bb 5f64 0bbe 78d5 8abe 95c5 9ebb
00000010: 3ae5 d4bd df34 34be eb28 ffbd 8083 2e3f
00000020: a669 4dbd ad1e 973e f9cf 93be 57e3 5d3c
00000030: fd9d ab3e 4d6f fbbd f154 503f d356 9fbe
00000040: 2466 4cbe e417 06be 024d 2f3e 5ef9 553f
00000050: fbcf efbd 90b8 b8be fed5 2c3d c42c 77be
00000060: 93f9 2abe 3759 07bf eb9f 1d3e 671f 1abf
00000070: f408 b13e 09c8 493d 9be4 56bd 8b34 2abe
00000080: 19a0 873f debd f2bd 5312 c6be 201c 82be
00000090: 86d1 1cbd fed7 a4bc 525f 263d 8b48 f7bd
000000a0: 6a5c f6be 0f52 57be f29a 06bc eb99 dbbd
000000b0: cfc6 2e3f 9a33 80be d4f9 36bf 0314 53be
000000c0: 2cdd a9be 6ee0 82be 107e 8cbd fcfc 3d3f
000000d0: 7623 843d 7625 1d3f 396e 2a3f e524 80be
000000e0: 6a13 3dbf a6c3 cc3d 0280 1ebe 5692 8d3d
000000f0: 1f7f 123f 7413 d63d 7b7e 47be a82a 35bd

weight f4 [64, 64]
-0.110810965 -0.00793694 0.041693896 0.042100362 0.058051735 0.122832134 0.11371963 0.05789311
0.08788276 -0.113029525 -0.24473687 -0.046403393 -0.13348337 -0.06754832 -0.016364295 -0.13735534
0.0024878723 -0.020118924 -0.048433598 0.019464545 -0.10961743 -0.16214117 0.05279225 0.017034903
-0.19113036 -0.5467936 -0.21062782 -0.011577756 -0.3132791 -0.162056 0.008299575 -0.26990476
0.09466347 0.039223805 0.104073405 -0.113883324 -0.12033452 0.084512755 -0.06732953 0.061625924
-0.004093236 -0.105283916 0.09047671 -0.26728532 0.024000412 -0.030540792 -0.0663013 -0.006242252
-0.0491475 -0.019777864 -0.15165006 -0.45260558 -0.028643638 -0.11142413 -0.10096343 -0.049322784
-0.14563328 -0.1147748 0.07479654 0.18391317 -0.10148265 -0.1243386 0.010401602 -0.011844143
-0.08932708 0.030680502 0.08297854 0.0032157486 -0.08682447 0.02219364 0.09412779 0.50062615
0.02751714 0.29885772 -0.08001216 -1.6537378 -2.7983747 0.081434086 -0.40622687 0.21271487
0.09066378 0.101791 -3.4016988 -0.92680275 -0.03629148 -0.023437224 -0.33458987 -0.06805171
-0.09410016 0.594314 0.1426928 -0.4346359 0.73738843 0.7493662 -0.010204623 -0.26031756
-1.0574882 -0.040195167 0.03667052 0.028927121 0.023461461 -0.6749321 -1.5716189 -0.058487713
-0.037626192 -1.0719095 -0.000768736 0.47792086 -0.83716965 0.7329812 1.7633046 0.0647469
0.36818388 -0.034266755 -0.44860658 0.78605795 0.0032658277 -4.20298 -0.003992516 0.069911405
0.24420308 -0.30411664 -0.072327524 0.0917817 0.11933502 -0.1036021 -0.084868535 0.039272614
-0.008758247 -0.11806233 -0.07207313 0.011665111 -0.069653034 0.05895991 0.09881748 -0.02738679
-0.009884343 -0.042953014 -0.04360536 0.014033396 -0.15524274 -0.029874459 -0.123126864 0.023176022
-0.113127515 0.07342333 -0.08107596 -0.10765029 0.06005664 -0.009185314 0.0702469 0.052183717
-0.12337127 0.036285907 -0.08880612 -0.05548218 0.0059944163 0.012487608 -0.1362723 -0.056298885
0.07315901 0.048410848 0.012605987 -0.07383021 -0.0689553 0.080508016 0.01628269 0.09151866
-0.06990515 -0.10126449 -0.014651611 -0.17365362 0.05807246 0.055555385 -0.03564575 -0.033670317
0.037720017 -0.079343915 0.049017303 -0.21075195 -0.13990548 -0.09331607 0.10210556 0.012515724
0.025347143 -0.12256919 0.04558572 -0.043048345 -0.010570994 0.074348174 0.024569925 -0.04877911
-0.007699892 -0.07839753 -0.04521276 0.024388533 -0.18386139 0.07762997 -0.049566492 -0.03092902
0.0026602745 -0.114708185 -0.12196584 -0.012599468 -0.035388604 -0.024988025 0.09854716 -0.08982977
-0.08471966 0.0130374795 -0.18559432 -0.10641517 0.038210243 -0.09869764 -0.058313295 -0.12056297
-0.13034056 -0.03786401 -0.115700185 -0.22609356 -0.10945986 -0.24467078 -0.114620924 -0.048160776
-0.020125106 -0.113588154 -0.08346596 0.008195981 -0.11787146 -0.017569304 -0.14851595 -0.08665466
0.06223717 -0.09621121 -0.094729275 -0.015268582 0.023370788 0.09358359 -0.094166495 -0.08498734
-0.011568308 0.0006324202 0.059960533 -0.29221743 -0.1571321 0.055294022 -0.06883538 -0.0635176
-0.032374106 -0.11977315 0.02961947 -0.13363226 0.026520556 -0.106880054 0.037069995 -0.11832908
00000000: dcf0 e2bd f009 02bc 38c7 2a3d 6e71 2c3d
00000010: a8c7 6d3d 6a8f fb3d d6e5 e83d 5321 6d3d
00000020: e0fb b33d 067c e7bd 4d9c 7abe 7c11 3ebd
00000030: ddaf 08be c656 8abd 6a0e 86bc e1a6 0cbe
00000040: 920b 233b 71d0 a4bc 4f62 46bd 1c74 9f3c
00000050: 1a7f e0bd 5608 26be b03c 583d c88c 8b3c
00000060: adb7 43be aafa 0bbf d2ae 57be a1b0 3dbc
00000070: 1e66 a0be 02f2 25be f1fa 073c f530 8abe
00000080: ecde c13d 24a9 203d 7024 d53d a93b e9bd
00000090: f271 f6bd 0615 ad3d 11e4 89bd 776b 7c3d
000000a0: 8d20 86bb 189f d7bd da4b b93d 9fd9 88be
000000b0: 839c c43c af30 fabc fac8 87bd ce8b ccbb
000000c0: e44e 49bd 3005 a2bc 274a 1bbe ebbb e7be
000000d0: 10a6 eabc 5632 e4bd eac5 cebd b006 4abd
000000e0: e420 15be 0d0f ebbd ee2e 993d bc53 3c3e
000000f0: 23d6 cfbd 3ca5 febd 7b6b 2a3c f00d 42bc
00000100: 1ef1 b6bd ad55 fb3c a7f0 a93d 4fbf 523b
00000110: 07d1 b1bd 70cf b53c 12c6 c03d 0929 003f
00000120: a06b e13c e103 993e 6add a3bd aead d3bf
00000130: 9218 33c0 eac6 a63d f8fc cfbe edd1 593e
00000140: efad b93d cd77 d03d 6fb5 59c0 f242 6dbf
00000150: 60a6 14bd 6cff bfbc 5d4f abbe b25e 8bbd
00000160: 96b7 c0bd f624 183f 101e 123e 9988 debe
00000170: 7dc5 3c3f 77d6 3f3f 4b31 27bc 5848 85be
00000180: c65b 87bf b0a3 24bd d433 163d 92f8 ec3c
00000190: 4032 c03c 5ac8 2cbf cf2a c9bf d090 6fbd
000001a0: ec1d 1abd 5534 89bf 0085 49ba 0bb2 f43e
000001b0: c050 56bf a8a4 3b3f f7b3 e13f 069a 843d
000001c0: 9982 bc3e 4c5b 0cbd c3af e5be 183b 493f
000001d0: 7f07 563b d07e 86c0 a7d3 82bb b62d 8f3d
000001e0: 5f10 7a3e 2db5 9bbe 7420 94bd 0bf8 bb3d
000001f0: eb65 f43d 562d d4bd 8ecf adbd 52dc 203d
00000200: c07e 0fbc aaca f1bd 149b 93bd 061f 3f3c
00000210: 40a6 8ebd f27f 713d d260 ca3d 435a e0bc
00000220: f0f1 21bc 80ef 2fbd 899b 32bd 54ec 653c
00000230: f4f7 1ebe 48bb f4bc f029 fcbd a4db bd3c
00000240: 66af e7bd f95e 963d 270b a6bd c177 dcbd
00000250: f4fd 753d 007e 16bc 9bdd 8f3d 98be 553d
00000260: 14aa fcbd 88a0 143d fcdf b5bd 4841 63bd
00000270: cf6c c43b d398 4c3c f78a 0bbe a999 66bd
00000280: 64d4 953d 744a 463d 5789 4e3c 4b34 97bd
00000290: 7038 8dbd 63e1 a43d 4763 853c 236e bb3d
000002a0: 6e2a 8fbd c263 cfbd 500d 70bc 41d2 31be
000002b0: 63dd 6d3d 0b8e 633d 4701 12bd e3e9 09bd
000002c0: 4e80 1a3d 107f a2bd 5ec6 483d 5ccf 57be
000002d0: 6243 0fbe 7f1c bfbd b81c d13d c00e 4d3c
000002e0: d0a4 cf3c 8e05 fbbd 18b8 3a3d 7653 30bd
000002f0: f631 2dbc db43 983d de46 c93c 9bcc 47bd
00000300: 604f fcbb e28e a0bd 0431 39bd 76ca c73c
00000310: 2946 3cbe 76fc 9e3d 3c06 4bbd db5e fdbc
00000320: 0058 2e3b 20ec eabd 3ac9 f9bd 006e 4ebc
00000330: a4f3 10bd b0b3 ccbc 18d3 c93d acf8 b7bd
00000340: 8081 adbd 279b 553c 700c 3ebe 32f0 d9bd
00000350: 5882 1c3d fd21 cabd ecd9 6ebd b8e9 f6bd
00000360: ff77 05be 4b17 1bbd 38f4 ecbd 1285 67be
00000370: 7e2c e0bd fa8a 7abe 60be eabd 3c44 45bd
00000380: 68dd a4bc e8a0 e8bd 34f0 aabd 7048 063c
00000390: 9866 f1bd 80ed 8fbc 9114 18be 0078 b1bd
000003a0: 67ec 7e3d 620a c5bd 6c01 c2bd 1329 7abc
000003b0: 1874 bf3c c1a8 bf3d 5dda c0bd d80d aebd
000003c0: 0089 3dbc 00c9 253a 2d99 753d 869d 95be
000003d0: 3de7 20be fc7b 623d 90f9 8cbd 8415 82bd
000003e0: b69a 04bd a04b f5bd 88a4 f23c e5d6 08be
000003f0: a341 d93c eee3 dabd b5d6 173d 8456 f2bd

bias f4 [64]
-0.031015357 -0.2112384 -0.16442135 -0.106335185 0.24806556 0.44566265 -0.1332089 -0.19550526
0.3615651 -0.21286479 -0.107061625 -0.101600245 -0.19720444 -0.08075705 -0.1686591 -0.16389039
-0.13114512 -0.066421986 0.19008557 -0.052778415 0.16507284 0.4303467 -0.013011655 -0.25244635
-0.16950011 -0.05808004 -0.091562 -0.21354339 -0.12576368 -0.13710544 -0.11434613 -0.1440781
-0.57825863 -0.17232749 -0.20277594 -0.10633297 -0.078365564 0.035028607 -0.17714533 -0.17098944
-0.10966278 -0.07741388 -0.15801683 -0.08284312 -0.6479784 -0.1520288 -0.19441992 -0.0020856904
-0.5744769 -0.038831014 -0.14548406 -0.49734318 0.12456529 0.0074794167 -0.1340636 -0.02125391
0.034743972 0.5373926 -0.23559687 -0.02562777 -0.13609897 -0.21709692 0.01607919 -0.08952831
00000000: eb13 febc e14e 58be 125e 28be 43c6 d9bd
00000010: e604 7e3e e52d e43e ea67 08be 8832 48be
00000020: 101f b93e 3af9 59be 2043 dbbd ca13 d0bd
00000030: f6ef 49be f463 a5bd f9b4 2cbe e2d2 27be
00000040: e84a 06be 4008 88bd cba5 423e 2e2e 58bd
00000050: db08 293e 6756 dc3e d62e 55bc a640 81be
00000060: 7091 2dbe 56e5 6dbd dc84 bbbd 1eab 5abe
00000070: 32c8 00be 5e65 0cbe 4e2e eabd 3689 13be
00000080: c208 14bf 9e76 30be 7fa4 4fbe 1ac5 d9bd
00000090: 207e a0bd 287a 0f3d 9665 35be db17 2fbe
000000a0: e196 e0bd 2b8b 9ebd 2acf 21be a7a9 a9bd
000000b0: eae1 25bf 70ad 1bbe 0416 47be 14b0 08bb
000000c0: eb10 13bf 450d 1fbd c6f9 14be c4a3 febe
000000d0: 161c ff3d e515 f53b f847 09be ae1c aebc
000000e0: b24f 0e3d 9092 093f 4e40 71be 54f1 d1bc
000000f0: 875d 0bbe a84e 5ebe 81b8 833c 9e5a b7bd

weight f4 [64, 64]
-0.01884238 -1.2639124 0.16223265 0.018143818 0.028700406 0.6703156 0.04489456 -0.01833168
-0.59933245 0.02299441 0.0011736155 0.08519281 0.41805828 0.04928195 -0.056495544 0.07789694
0.12981744 0.22358999 -0.6278558 0.037256718 0.17335199 -0.74319786 -0.0120411385 -0.6205834
0.09263698 -0.040945653 0.031439774 -0.40909937 -0.050424714 -0.12777355 -0.39809 -0.0050121965
0.008234144 0.14676225 -1.7787795 -0.010883139 0.6327513 -0.09981942 -0.030141544 0.480904
0.0060705845 -0.002456715 0.040069792 0.10827901 -0.00041833345 -0.10444565 -0.021495676 0.40429756
-0.8786801 -0.20294325 -0.9318017 -0.33590397 0.13852966 0.8024877 0.14116573 0.12836409
-0.3914612 0.6174168 0.10158443 -0.07643168 -0.015566562 -0.0068519455 0.56807137 0.07221331
-0.061969373 -1.8317357 0.036475938 0.11412041 -1.0735034 -1.7062658 0.019662537 -0.08763732
-2.1678214 0.035491526 -0.011870325 -0.010230145 -1.5931282 -0.021925285 0.11140279 -0.038902923
0.09301302 0.04005782 0.5545422 0.0029055984 0.5537778 0.6671297 -2.1728733 0.32928756
0.014079769 -0.069826886 0.050667822 -0.55445784 -0.06498971 0.035132434 0.26239076 -1.2090695
0.14416814 0.048007376 0.8143617 0.017452598 0.09373962 0.42254004 -0.06153001 -0.7005397
0.043350667 -0.004052505 0.05043343 0.0429392 -1.8748673 -0.12707512 0.04195941 -0.39638162
-2.1895967 -0.36412972 0.53301746 -2.0304773 0.037468176 0.38055834 -0.008895084 -0.19573939
1.2373974 -0.9348612 -0.066626266 0.06923626 -0.016793996 0.009512427 1.2718937 -0.00673225
0.07040608 0.39252284 0.06959724 0.0049937814 -0.126447 1.4990425 -0.09455679 0.118665114
-1.2685084 -0.10069612 0.036642686 -0.10176349 -0.04808612 0.019329995 -0.11932643 0.04537736
-0.034335032 0.12459716 0.7348818 0.03280117 -1.5007608 0.2506956 -0.10777162 -2.0442607
0.030893803 -0.04153246 -0.002186045 -1.0979803 -0.05522185 0.07230973 -0.61767024 1.2989671
-0.15039457 0.04677905 -0.043235242 -0.0055314004 0.33887634 0.2985246 0.10178462 -0.6297703
-0.116216645 -0.0739059 0.034492657 -0.06250949 -0.1256374 -0.031684905 0.022929117 -0.09021731
-0.6752692 -0.30590528 -0.47016975 -0.62224144 -0.099799454 -0.056207992 0.0650575 -0.8609835
-4.4950066 0.39421928 0.010060325 0.035407573 0.10812016 -0.06994736 -1.091123 -0.015250393
-0.0013311505 0.008596503 -0.03294259 -0.107115075 -1.2422013 -1.2484856 0.009062207 -0.089927055
0.5175466 -0.12698376 -0.06684537 0.012730857 -0.537312 0.081952125 -0.026421852 0.090555705
0.236282 0.13601871 0.43530035 0.16326402 -2.9459045 -0.5719815 0.046292264 -0.29138842
-0.1193199 0.09021086 -0.04822714 0.5534678 0.23108578 0.0052640983 -0.7388346 -0.3402212
-0.17698781 0.29170364 -0.9437847 -0.0120498445 0.6974027 0.82728374 0.03928382 -1.5607576
0.031329185 0.020395277 0.11065859 -0.08102452 -0.2548202 0.09786725 0.08455397 1.2220057
-0.61960346 -0.37046546 0.060597535 -0.0011543168 0.23492494 0.4872516 0.07751243 0.4052908
0.061422676 -1.485029 0.030780895 -0.1596948 -0.080941126 0.030465249 -0.4230683 -0.127253
00000000: 565b 9abc e2c7 a1bf 5120 263e 58a2 943c
00000010: 1d1d eb3c ce99 2b3f 5ce3 373d 522c 96bc
00000020: da6d 19bf c65e bc3c 00d4 993a 9179 ae3d
00000030: bc0b d63e dfdb 493d df67 67bd 6e88 9f3d
00000040: ddee 043e c6f4 643e 28bb 20bf 809a 183d
00000050: 2f83 313e 3742 3ebf 3248 45bc 8ede 1ebf
00000060: 75b8 bd3d a1b6 27bd fec6 003d 7975 d1be
00000070: 258a 4ebd 12d7 02be 74d2 cbbe 5a3d a4bb
00000080: 81e8 063c d848 163e 0caf e3bf 324f 32bc
00000090: fdfb 213f 206e ccbd 66eb f6bc 0d39 f63e
000000a0: c1eb c63b d700 21bb 3920 243d 63c1 dd3d
000000b0: c453 dbb9 9ae7 d5bd b317 b0bc 1700 cf3e
000000c0: 2ef1 60bf 5bd0 4fbe 8e8a 6ebf 9bfb abbe
000000d0: b8da 0d3e d56f 4d3f c08d 103e e071 033e
000000e0: 9a6d c8be 070f 1e3f 7f0b d03d 3688 9cbd
000000f0: e50a 7fbc 4986 e0bb 206d 113f 92e4 933d
00000100: 99d3 7dbd 5176 eabf cb67 153d f6b7 e93d
00000110: 8f68 89bf eb66 dabf 5413 a13c 327b b3bd
00000120: 96bd 0ac0 905f 113d c07b 42bc 579c 27bc
00000130: a0eb cbbf a89c b3bc 2527 e43d ac58 1fbd
00000140: 9c7d be3d ab13 243d 7af6 0d3f da6b 3e3b
00000150: 62c4 0d3f 03c9 2a3f 5b10 0bc0 6198 a83e
00000160: d5ae 663c 6601 8fbd 1089 4f3d f3f0 0dbf
00000170: 5319 85bd 07e7 0f3d 1558 863e cac2 9abf
00000180: d0a0 133e 62a3 443d 027a 503f c0f8 8e3c
00000190: 8ffa bf3d 2b57 d83e e406 7cbd 9256 33bf
000001a0: 7890 313d e0ca 84bb 4993 4e3d 04e1 2f3d
000001b0: a7fb efbf fb1f 02be a1dd 2b3d 88f2 cabe
000001c0: 5a22 0cc0 366f babe d573 083f 57f3 01c0
000001d0: 3b78 193d 8bd8 c23e b0bc 11bc e86f 48be
000001e0: 0a63 9e3f 1053 6fbf 5a73 88bd becb 8d3d
000001f0: 9093 89bc 03da 1b3c 6acd a23f 359a dcbb
00000200: 1031 903d c1f8 c83e ff88 8e3d e0a2 a33b
00000210: 537b 01be a0e0 bf3f fea6 c1bd b206 f33d
00000220: 7c5e a2bf c439 cebd a416 163d 6069 d0bd
00000230: f4f5 44bd f059 9e3c 6a61 f4bd 9cdd 393d
00000240: e4a2 0cbd cc2c ff3d 3721 3c3f 855a 063d
00000250: ee18 c0bf 2c5b 803e 5eb7 dcbd 2bd5 02c0
00000260: 0015 fd3c f11d 2abd c043 0fbb 9e8a 8cbf
00000270: 4e30 62bd 2017 943d a31f 1ebf 8e44 a63f
00000280: 0901 1abe 649b 3f3d 7017 31bd c040 b5bb
00000290: 3381 ad3e 37d8 983e 7474 d03d a038 21bf
000002a0: fe02 eebd fa5b 97bd 2c48 0d3d fa04 80bd
000002b0: 17a7 00be 08c8 01bd d8d5 bb3c dac3 b8bd
000002c0: 71de 2cbf 9e9f 9cbe 17ba f0be 374b 1fbf
000002d0: a863 ccbd 5a3a 66bd de3c 853d 6a69 5cbf
000002e0: 18d7 8fc0 1cd7 c93e 10d4 243c 8807 113d
000002f0: 1a6e dd3d 9040 8fbd eba9 8bbf c9dc 79bc
00000300: 007a aeba 59d8 0c3c cfee 06bd 265f dbbd
00000310: 7400 9fbf 60ce 9fbf a779 143c ad2b b8bd
00000320: ef7d 043f 0808 02be 3ae6 88bd 1695 503c
00000330: 478d 09bf 84d6 a73d a472 d8bc 4575 b93d
00000340: e9f3 713e 7d48 0b3e b0df de3e af2e 273e
00000350: b389 3cc0 616d 12bf f59c 3d3d dd30 95be
00000360: fe5d f4bd 79c0 b83d d289 45bd 11b0 0d3f
00000370: c0a1 6c3e 757e ac3b 4424 3dbf 7931 aebe
00000380: 4b3c 35be 2e5a 953e e09b 71bf b66c 45bc
00000390: fc88 323f dec8 533f 12e8 203d e8c6 c7bf
000003a0: 0853 003d ff13 a73c f9a0 e23d 2ff0 a5bd
000003b0: cb77 82be a06e c83d a22a ad3d af6a 9c3f
000003c0: 559e 1ebf a6ad bdbe 1f35 783d 724c 97ba
000003d0: 2a90 703e 0b79 f93e d6be 9e3d 4782 cf3e
000003e0: 5896 7b3d 6e15 bebf 3728 fc3c 0987 23be
000003f0: 76c4 a5bd 4292 f93c 699c d8be 9c4e 02be

bias f4 [64]
-0.3570696 -0.31086022 -0.040517393 0.20761104 -0.22314306 -0.5035605 -0.8785747 0.46518785
-0.83330894 -0.5924589 -0.17170982 -0.4484726 0.4405482 -0.41525584 -0.055078007 -0.5110669
0.13597798 0.10676657 -0.48492697 0.8070501 -0.11658636 -0.28441966 -0.66626406 0.32626244
-0.18808946 -0.01123732 -0.92932963 0.0005136047 0.293367 -0.8325539 -0.34933135 -0.20167544
-0.20548825 0.17687851 0.20219004 -1.0744071 -0.32006273 -0.8288997 -0.019865114 0.4094889
-0.19937989 0.4109914 -0.16657704 -1.3772018 -0.26962867 0.75284594 0.29606685 0.0543739
0.44807968 -0.2043928 -0.11868062 -0.76751995 -0.26939565 0.29010475 -0.32560116 -0.24353719
-0.4613855 -1.2405524 -0.27807233 -0.53069067 -0.14907973 -0.38229823 -0.09839503 -0.25112295
00000000: d4d1 b6be 1229 9fbe 91f5 25bd fd97 543e
00000010: 9d7f 64be 57e9 00bf 46ea 60bf 1a2d ee3e
00000020: bc53 55bf 63ab 17bf b3d4 2fbe 339e e5be
00000030: 898f e13e 6a9c d4be 7a99 61bd 48d5 02bf
00000040: d03d 0b3e 6ea8 da3d 5948 f8be d69a 4e3f
00000050: d4c4 eebd 749f 91be 4890 2abf df0b a73e
00000060: 869a 40be bc1c 38bc 8ce8 6dbf 6ea3 063a
00000070: 3334 963e 4122 55bf 8fdb b2be 0284 4ebe
00000080: 836b 52be a41f 353e e80a 4f3e 2c86 89bf
00000090: 43df a3be c532 54bf 2abc a2bc 87a8 d13e
000000a0: 3e2a 4cbe 776d d23e 2c93 2abe 2648 b0bf
000000b0: c50c 8abe 83ba 403f 1396 973e 2bb7 5e3d
000000c0: b36a e53e 594c 51be d30e f3bd 307c 44bf
000000d0: 3aee 89be 9c88 943e 32b5 a6be d061 79be
000000e0: b83a ecbe 6cca 9ebf 7f5f 8ebe 58db 07bf
000000f0: 5ba8 18be 98bc c3be 5583 c9bd 3093 80be

weight f4 [4, 64]
-4.016293 0.33573422 -0.7981047 -8.711492 -0.089558035 0.9350103 0.5170187 -2.0742836
0.98189366 -0.22650094 0.10019708 -0.49669728 -0.9821791 0.7499273 1.1101104 -0.15575178
1.2502711 -11.026923 0.93392485 -0.8489634 0.65323704 -0.14594771 1.1547543 -2.0766768
-0.03673628 0.64068097 1.3766102 -0.41897303 1.0718938 2.914028 -1.9315603 0.22339106
0.08075445 -3.2383502 0.06664664 -0.39315277 -0.12721632 -1.5034022 0.53123546 -0.59162295
0.025451839 -0.14277148 -2.100391 0.8510413 0.076315574 0.37480414 -1.564067 -1.0586685
-0.6592863 -0.023621203 1.0507697 -0.6108939 -0.078902 -5.758718 -0.21448436 1.8100398
-1.6370887 0.266095 -0.1894724 0.3277895 0.0022372918 -0.89265 -0.86147094 -0.0064078616
1.0691421 -0.10025702 0.7893509 -0.056231 0.015872339 -1.070607 -0.6832661 0.08751243
-1.5798547 0.20876236 -0.9473816 -0.7690248 -0.2716347 -1.0289768 -0.38820943 -1.4556412
0.66211236 0.20737687 -0.085962534 0.90455586 -0.057729438 -0.016824152 -0.44700995 1.8923012
0.014646121 -0.5747441 0.69748825 -0.1359237 -0.2478549 -2.6491683 0.81814617 0.15010019
-3.390419 1.2198154 -0.2071082 1.0312862 0.07987978 -0.4572143 0.7038018 0.57393223
0.061326995 -1.4377084 1.9111795 2.4622886 -0.20427974 0.25934133 0.4276809 0.9926614
0.10020323 -0.068512775 1.5621909 0.2563788 -0.03437387 -0.019448508 -0.01846325 2.0228183
-2.0665326 -0.54552495 -0.0058349865 0.47072792 -0.11504067 -0.42797297 -1.0238537 0.2287774
0.33085218 -4.2398305 2.061496 -1.1381897 0.14422299 -0.029696008 -1.2784607 -2.6606164
0.6967622 2.2382052 1.1094247 2.0855994 1.762503 -2.5041604 -0.0019085375 1.191319
0.34209952 2.7255797 3.2676337 0.18832417 1.9645324 0.1041282 -0.71565235 2.919782
-0.079555444 3.3686152 0.4025037 -0.37449846 0.77005106 1.3721741 0.4049333 0.011261706
0.19688518 -0.60121155 -0.48726007 1.2319185 0.00718882 3.8104165 -0.37064037 -0.16502047
-0.023154274 -0.3854749 -0.8414077 0.5398908 -0.07141417 -4.5498405 0.20567316 0.5882242
-2.3086174 0.036170457 2.575002 -3.7652674 0.14709415 0.98644733 0.063972354 -1.2772688
-2.0860925 -6.427915 0.028723082 -0.8341451 0.09203709 1.5813797 -1.3415531 0.117892265
1.0899489 -0.42461795 -2.8660004 1.4644846 -0.41588163 1.4428402 3.6894748 -1.3591318
-0.79390323 0.9351384 -1.1074148 -0.11482183 0.42585316 -1.2081071 3.035611 -1.4968531
0.96878636 2.5148687 -0.39794827 2.3957813 -0.47365922 0.02978961 -2.0846484 2.1062841
-0.19377878 1.4452107 0.22242711 2.487844 0.8380109 0.92359436 0.30264658 -0.060849026
0.5858469 -0.6537713 0.40549225 -0.27716804 0.0375596 -0.32496408 0.4166706 0.2282271
0.052014187 0.47072622 -2.009496 -0.5186769 0.21553871 -4.3093014 1.5142869 0.80372286
-5.0106096 -0.021226289 -0.9476772 1.0613728 -0.2522306 0.3897157 0.0018218115 -1.035002
1.7013205 -3.7477856 -3.3994408 0.79483795 0.10155028 -0.93740356 0.7397553 0.06562975
00000000: 7985 80c0 5be5 ab3e 9750 4cbf 4562 0bc1
00000010: 346a b7bd d65c 6f3f 565b 043f 10c1 04c0
00000020: 625d 7b3f ddef 67be 2034 cd3d 1b4f febe
00000030: 1770 7bbf 3cfb 3f3f 1918 8e3f 657d 1fbe
00000040: e208 a03f 476e 30c1 b315 6f3f aa55 59bf
00000050: 8b3a 273f 5173 15be fdce 933f 46e8 04c0
00000060: c878 16bd ab03 243f c334 b03f a283 d6be
00000070: d133 893f 6f7f 3a40 5e3d f7bf a0c0 643e
00000080: 9762 a53d 2141 4fc0 097e 883d 524b c9be
00000090: ff44 02be 7c6f c0bf 0cff 073f 9a74 17bf
000000a0: 6080 d03c b032 12be ce6c 06c0 d8dd 593f
000000b0: 574b 9c3d 54e6 bf3e 5933 c8bf 7382 87bf
000000c0: fdc6 28bf 4181 c1bc 9f7f 863f 8b63 1cbf
000000d0: 5f97 a1bd 6b47 b8c0 caa1 5bbe 62af e73f
000000e0: 1f8c d1bf 9b3d 883e 0e05 42be 06d4 a73e
000000f0: 879f 123b b684 64bf 5c89 5cbf 0af9 d1bb
00000100: a6d9 883f 8d53 cdbd e712 4a3f 7a52 66bd
00000110: b506 823c a609 89bf 87ea 2ebf b839 b33d
00000120: ae38 cabf cdc5 553e 9a87 72bf cfde 44bf
00000130: b413 8bbe 83b5 83bf 63c3 c6be 7352 babf
00000140: 3280 293f 9a5a 543e 200d b0bd f990 673f
00000150: b475 6cbd ced2 89bc 7dde e4be ed36 f23f
00000160: 49f6 6f3c 6e22 13bf 978e 323f 952f 0bbe
00000170: adcd 7dbe f98b 29c0 0772 513f ddb3 193e
00000180: a0fc 58c0 e922 9c3f 2c14 54be 3001 843f
00000190: 0398 a33d fe17 eabe 5b2c 343f 39ed 123f
000001a0: 0432 7b3d d406 b8bf 88a1 f43f 2396 1d40
000001b0: b52e 51be 63c8 843e fef8 da3e 0f1f 7e3f
000001c0: 5a37 cd3d 6d50 8cbd dff5 c73f 1544 833e
000001d0: 9dcb 0cbd 7a52 9fbc 3e40 97bc db75 0140
000001e0: 1242 04c0 86a7 0bbf 6a33 bfbb 4003 f13e
000001f0: 719a ebbd 461f dbbe a30d 83bf 9f44 6a3e
00000200: 7565 a93e b1ac 87c0 8def 0340 33b0 91bf
00000210: 31af 133e 0b45 f3bc 9aa4 a3bf 8a47 2ac0
00000220: 025f 323f c13e 0f40 a101 8e3f 767a 0540
00000230: b399 e13f 2a44 20c0 e427 faba 247d 983f
00000240: ab27 af3e e66f 2e40 e920 5140 0dd8 403e
00000250: cc75 fb3f 2a41 d53d fe34 37bf b5dd 3a40
00000260: f7ed a2bd 6497 5740 f714 ce3e 43be bfbe
00000270: 1122 453f 67a3 af3f 6b53 cf3e 0583 383c
00000280: 459c 493e 00e9 19bf 277a f9be 81af 9d3f
00000290: 3190 eb3b dddd 7340 93c4 bdbe 20fb 28be
000002a0: 08ae bdbc f75c c5be 7f66 57bf 4936 0a3f
000002b0: 9841 92bd 4b98 91c0 fc9b 523e dc95 163f
000002c0: 63c0 13c0 7927 143d d5cc 2440 24fa 70c0
000002d0: d99f 163e d087 7c3f f003 833d 8b7d a3bf
000002e0: 8a82 05c0 7bb1 cdc0 ab4c eb3c 898a 55bf
000002f0: f17d bc3d a66a ca3f 03b8 abbf 8071 f13d
00000300: 7283 8b3f 8667 d9be 8d6c 37c0 3b74 bb3f
00000310: 70ee d4be fdae b83f 5b20 6c40 08f8 adbf
00000320: 3e3d 4bbf 3b65 6f3f c5bf 8dbf b527 ebbd
00000330: 6d09 da3e 41a3 9abf 7347 4240 e298 bfbf
00000340: 6202 783f 9cf3 2040 e0bf cbbe 7b54 1940
00000350: 7683 f2be 5709 f43c e16a 05c0 5ccd 0640
00000360: f26d 46be aafc b83f efc3 633e d638 1f40
00000370: e287 563f ae70 6c3f 7ef4 9a3e d43c 79bd
00000380: 10fa 153f 8e5d 27bf ae9c cf3e f8e8 8dbe
00000390: 18d8 193d b161 a6be d955 d53e 5db4 693e
000003a0: d40c 553d 0703 f13e 959b 00c0 02c8 04bf
000003b0: 2eb6 5c3e cce5 89c0 27d4 c13f c8c0 4d3f
000003c0: ea56 a0c0 c1e2 adbc f99a 72bf 10db 873f
000003d0: 5f24 81be d188 c73e dac9 ee3a f27a 84bf
000003e0: dfc4 d93f b8db 6fc0 7090 59c0 807a 4b3f
000003f0: 98f9 cf3d aef9 6fbf 9a60 3d3f e468 863d

bias f4 [4]
-0.12286037 -0.026756922 0.38257173 0.63383365
00000000: 389e fbbd 5531 dbbc 71e0 c33e ec42 223f

weight f4 [64, 17]
-0.02354794 -0.03094174 -0.2512873 -0.096407965 -0.20913585 -0.18779826 0.18875682 0.22494932
-0.22702815 -0.2869204 -0.28493714 0.01928088 0.15576115 0.01504527 -0.039112646 -0.10136619
-0.00880071 0.237632 0.40756914 -0.22056504 -16.075575 -15.865906 0.07160133 -0.5316998
-0.22119015 1.8878932 1.0826224 -0.39239076 -0.39952496 0.2957329 -0.015325016 0.0019187679
-0.025973378 0.0008786839 -0.28667185 0.085554585 -0.1482288 -0.043387514 0.10854614 0.06213096
-0.0037061924 -0.011882377 -0.24475716 -0.12626074 -0.12440095 -0.062004164 -0.12460181 0.13412222
-0.012608372 -0.08856179 0.0030269152 -0.029568063 0.1399992 -0.030056134 1.27952 1.10353
-0.014841351 -0.05345733 -0.039942298 -0.5616171 -0.41107613 0.08170954 -1.2925652 -0.00989377
-0.00133455 0.000279584 -0.0011704478 0.0004018581 -0.5751329 0.026339523 -0.6174314 9.73849
9.891451 0.038388256 0.027115593 -0.61012506 -0.74277 0.48066154 0.1980617 -0.048786912
1.7784733 -0.010972518 0.0016073723 -0.01818006 -0.0005389221 0.42690036 0.7588165 0.044372637
-13.008821 -12.739958 -0.22691976 0.08616762 -0.43544412 0.078031704 0.50170624 0.35877213
-0.21047387 -0.04088456 -0.12501049 0.03960035 0.034187604 0.016215859 0.17384623 -0.14513765
-0.1334483 -2.9325228 -2.9544544 0.42300692 0.074235715 0.11337449 -0.42898312 -0.0500391
-0.66165966 -0.08681091 -0.33643565 0.055470917 -0.031459454 0.019564062 0.008222712 -0.09628979
-0.6453009 0.096195504 25.364363 25.357513 -0.9661634 -0.15232214 -0.3548415 0.097082034
-0.84146875 0.122600906 -0.09996775 0.015613788 0.04495439 0.03320592 0.0034414062 0.009834183
0.6065906 0.41973275 0.22132191 -19.68683 -19.43175 1.0230843 -0.557675 0.59444433
1.3392305 2.013952 0.07572437 -0.29543644 0.051755145 0.02196174 0.014634853 -0.004084238
-0.0103515275 -0.4647332 0.7996905 0.32741505 25.337236 25.33245 0.17345414 -0.07527966
-0.15406905 -0.12923615 -0.34160575 -0.42164093 0.38774252 -0.07493209 -0.006433472 0.019324917
-0.003749609 0.0038645584 0.40828973 -0.21171841 -0.17845477 12.62803 12.884645 -0.5687926
0.2559366 0.046149652 1.4599639 -1.1043146 -0.5430989 0.5644602 0.79813814 -0.03763843
0.022947852 -0.0132791605 0.012423029 -0.52400744 0.7792536 0.37950858 -9.026293 -8.855514
0.017598111 0.124702126 0.013873884 1.3298036 -0.14314808 0.5590683 -0.8006383 -0.39804095
-0.007550367 0.016990088 0.0048700813 -0.00040430744 -0.15912619 0.24311832 0.11127475 -25.978981
-25.64189 -1.2084259 1.9098269 -1.9286802 2.2367342 -1.8451707 -0.32592267 0.4057891
-0.45953566 0.005035011 0.013026168 0.0011894198 0.00067809375 -0.093410544 0.025793063 0.08739192
-17.483662 -17.829441 0.082774885 -0.026343405 0.018182121 1.2620008 0.7905734 -0.7097968
-0.13512683 0.13913508 -0.00042730197 -0.00073089736 0.003263033 -0.0006946992 -0.29075378 -0.054194737
-0.24284668 -0.044086993 0.028827496 0.28079367 0.23141298 0.16367114 -0.03687765 -0.235175
-0.16701517 0.15036425 -0.053320114 0.026182357 -0.065662645 0.13151398 0.07363032 0.80709225
00000000: 9ce7 c0bc 8879 fdbc bba8 80be 8a71 c5bd
00000010: b527 56be 304e 40be 7849 413e 1d59 663e
00000020: 117a 68be 3be7 92be 48e3 91be f0f2 9d3c
00000030: da7f 1f3e 7080 763c 9534 20bd 1499 cfbd
00000040: da30 10bc ce55 733e e7ac d03e cddb 61be
00000050: c79a 80c1 c0da 7dc1 b8a3 923d 7a1d 08bf
00000060: ac7f 62be 7ca6 f13f 5f93 8a3f 71e7 c8be
00000070: 898e ccbe 4d6a 973e c715 7bbc 2b7f fb3a
00000080: 1fc6 d4bc 7a57 663a a7c6 92be 3e37 af3d
00000090: 4ac9 17be 1bb7 31bd 704d de3d 097d 7e3d
000000a0: 97e3 72bb 4dae 42bc 9fa1 7abe 7f4a 01be
000000b0: edc5 febd 14f8 7dbd 3c2f ffbd 5657 093e
000000c0: 5893 4ebc e25f b5bd 365f 463b b938 f2bc
000000d0: f35b 0f3e 4838 f6bc 50c7 a33f 7940 8d3f
000000e0: 2329 73bc 13f6 5abd 899a 23bd 23c6 0fbf
000000f0: 9278 d2be 5557 a73d c772 a5bf 7b19 22bc
00000100: 11ec aeba 2195 9239 b669 99ba 7bb0 d239
00000110: e93b 13bf fcc5 d73c fc0f 1ebf dbd0 1b41
00000120: 6243 1e41 013d 1d3d 8521 de3c 2831 1cbf
00000130: 2d26 3ebf 4519 f63e b0d0 4a3e c9d4 47bd
00000140: 03a5 e33f 13c6 33bc 77ae d23a 59ee 94bc
00000150: 7346 0dba af92 da3e cc41 423f 15c0 353d
00000160: 2124 50c1 ded6 4bc1 a75d 68be a678 b03d
00000170: 88f2 debe 16cf 9f3d d26f 003f fbb0 b73e
00000180: 7686 57be 9276 27bd c002 00be fa33 223d
00000190: 4d08 0c3d 1fd7 843c bf04 323e f79e 14be
000001a0: aca6 08be 74ae 3bc0 c815 3dc0 5d94 d83e
000001b0: e508 983d e230 e83d ada3 dbbe cdf5 4cbd
000001c0: 8762 29bf ebc9 b1bd 4b41 acbe 7935 633d
000001d0: a1db 00bd d044 a03c 8eb8 063c 9533 c5bd
000001e0: 7132 25bf 2602 c53d 37ea ca41 30dc ca41
000001f0: 7c56 77bf 56fa 1bbe c9ad b5be f2d2 c63d
00000200: 7f6a 57bf 2f16 fb3d e4bb ccbd f9d0 7f3c
00000210: 1822 383d ee02 083d 3789 613b 8e1f 213c
00000220: 8649 1b3f 36e7 d63e 36a2 623e a17e 9dc1
00000230: 3974 9bc1 6df4 823f cac3 0ebf 812d 183f
00000240: e86b ab3f 97e4 0040 6115 9b3d 7243 97be
00000250: 34fd 533d 1be9 b33c 06c7 6f3c 12d5 85bb
00000260: 7499 29bc 83f1 edbe 84b8 4c3f f2a2 a73e
00000270: a9b2 ca41 dca8 ca41 f69d 313e 392c 9abd
00000280: 47c4 1dbe 7b56 04be f3e6 aebe 52e1 d7be
00000290: 3086 c63e ff75 99bd e0cf d2bb 4a4f 9e3c
000002a0: 00bc 75bb 8844 7d3b 5a0b d13e b6cc 58be
000002b0: d9bc 36be 690c 4a41 8227 4e41 649c 11bf
000002c0: 1f0a 833e 6b07 3d3d 19e0 ba3f 2e5a 8dbf
000002d0: 8808 0bbf 7780 103f c852 4c3f c12a 1abd
000002e0: 22fd bb3c d690 59bc f689 4b3c 5a25 06bf
000002f0: 2a7d 473f f34e c23e b26b 10c1 2fb0 0dc1
00000300: ea29 903c d463 ff3d 4a4f 633c 0137 aa3f
00000310: 6995 12be 1a1f 0f3f a2f6 4cbf 06cc cbbe
00000320: 1269 f7bb cc2e 8b3c 3495 9f3b 3af9 d3b9
00000330: faf1 22be 02f4 783e 04e4 e33d f4d4 cfc1
00000340: 9722 cdc1 b3ad 9abf 3575 f43f fede f6bf
00000350: a726 0f40 8e2e ecbf 56df a6be 97c3 cf3e
00000360: 4248 ebbe bcfc a43b b56b 553c 4ee6 9b3a
00000370: 1ac2 313a 074e bfbd f94b d33c 89fa b23d
00000380: 8ade 8bc1 b2a2 8ec1 e185 a93d 20ce d7bc
00000390: acf2 943c 3e89 a13f 0563 4a3f 3eb5 35bf
000003a0: b05e 0abe 6d79 0e3e 8007 e0b9 b199 3fba
000003b0: 9cd8 553b 791c 36ba aedd 94be 4dfb 5dbd
000003c0: cdac 78be 9094 34bd a427 ec3c 30c4 8f3e
000003d0: 86f7 6c3e 6899 273e 050d 17bd b7d1 70be
000003e0: 0606 2bbe 16f9 193e 3166 5abd 627c d63c
000003f0: 237a 86bd 9aab 063e 7ecb 963d 999d 4e3f

bias f4 [64]
-0.27314603 0.26666415 -0.10623484 0.71479577 0.2549561 0.21421824 -0.19818628 0.5997279
-0.42428023 0.45580798 0.05963153 -0.02552338 -0.62127876 0.90646756 -0.18912038 -0.89455837
0.44181964 -0.2379999 0.6634463 0.2630747 -0.022045065 -0.9455698 -0.2446437 0.19089061
0.4531584 1.140715 -0.2690426 -0.31964797 -0.25498524 0.41912523 0.7380432 0.4574958
-0.33317393 0.4458602 0.7169119 0.7522228 -0.43506706 -0.5197196 -0.26162922 0.7854817
1.117833 0.49867088 -0.41561958 1.0134188 0.46163183 0.10990513 -0.15196878 0.5757431
0.8429616 -0.4246297 0.1478852 -0.30436376 0.5448892 0.9012019 -0.24852669 -0.14262496
0.55026466 1.1851376 0.43844092 0.19069456 0.29784006 -0.09639051 0.05816353 -0.1745634
00000000: ccd9 8bbe 3488 883e a791 d9bd dbfc 363f
00000010: 9b89 823e 075c 5b3e 58f1 4abe c587 193f
00000020: 423b d9be aa5f e93e 3140 743d 6816 d1bc
00000030: 200c 1fbf 420e 683f c6a8 41be c701 65bf
00000040: 2f36 e23e 3fb6 73be 9ed7 293f bab1 863e
00000050: da97 b4bc dd10 72bf e183 7abe d478 433e
00000060: 6104 e83e f302 923f f4bf 89be e6a8 a3be
00000070: 6d8d 82be 9597 d63e 66f0 3c3f e43c ea3e
00000080: c695 aabe ca47 e43e 8a87 373f ac91 403f
00000090: 1cc1 debe 580c 05bf 44f4 85be 5415 493f
000000a0: 2715 8f3f ca51 ff3e 17cc d4be b5b7 813f
000000b0: 025b ec3e f115 e13d b49d 1bbe e663 133f
000000c0: 55cc 573f 1069 d9be 386f 173e 91d5 9bbe
000000d0: dc7d 0b3f 2bb5 663f c87d 7ebe 470c 12be
000000e0: 25de 0c3f 97b2 973f 547b e03e 6f45 433e
000000f0: 7e7e 983e 6368 c5bd e23c 6e3d bfc0 32be

weight f4 [64, 64]
0.06971863 0.01583611 -0.015470137 0.1514025 -0.37595046 0.07683783 -0.0084995255 -0.8201492
-0.115262695 0.062560946 0.28001577 -0.27373534 0.13196576 0.1189297 0.08494538 0.062447082
0.18186015 0.16553463 -0.27260718 -0.23052976 -0.5970463 0.47624063 0.014347538 -0.35837644
0.44530854 -0.25477263 -0.046719223 0.075193025 -0.13385385 -1.9898388 -0.22600412 -0.36264727
-0.100220285 -0.41801238 -0.35104448 -0.05962936 0.20308228 0.51187396 0.09730456 -0.0747076
-0.5277956 -0.4758303 0.07610672 -0.8626147 0.4913029 -0.34523427 -0.0309395 -0.27476928
-0.1929666 -0.2905707 -0.19545338 0.116276845 -0.2228529 -1.5003862 0.08534302 -0.23763028
-0.42410725 0.15473872 -0.63482517 -0.2698217 -0.20995057 0.051017165 0.11055192 -0.12498329
-0.024098396 0.0050234026 -0.07695106 0.055655643 -0.22834802 0.023808116 0.014127433 -0.14600779
0.053224906 -0.04896084 -0.06261632 -0.05649715 -0.16871108 0.039455153 -0.05663158 0.04799782
0.012228054 0.045733783 0.045390178 0.009147115 -0.11963182 -0.05259595 -0.05173035 0.07125687
0.036948785 -0.015788585 -0.11320622 -0.1241704 -0.10461037 0.08059118 0.07821846 -0.15600975
-0.15157458 0.10860698 -0.004572412 -0.07876976 -0.058807675 0.012435896 0.022882896 -0.004926935
-0.05550873 -0.08862449 -0.05577767 -0.10612421 -0.09283576 0.045220852 -0.018200003 -0.0058409586
-0.09769456 -0.01650971 0.06653435 0.068464175 -0.053120475 -0.058002893 0.08463075 -0.09388484
-0.07316207 -0.010431891 -0.05481626 -0.044425435 -0.035988748 -0.07414915 -0.046510056 0.05149378
-0.1097067 0.115653485 -0.013632361 -0.18214928 -0.06513871 0.03881179 0.29164708 -0.7071471
0.079844154 0.16241486 0.08589456 0.11678364 0.054959547 -0.034910522 0.05648525 0.12410703
0.044694852 0.07967385 -0.0484992 -0.20353727 -0.03793316 0.11315973 0.060598373 -0.21451695
0.4938622 -0.059144016 -0.11254625 0.005090891 -0.018318163 -0.7920185 0.08281572 0.15092696
-0.0064411797 -0.25662023 -0.12776235 -0.19050781 -0.11396618 0.16762643 -0.0004134836 -1.376901
0.2152953 0.11488029 0.08779994 -0.16032517 -0.3553347 0.053294938 0.055920076 -0.06803382
-0.014942271 -0.014359789 0.024933284 -0.078338765 -0.02600004 -0.39504322 0.19062285 -0.067714125
-0.050846584 0.08402883 -0.33398092 -0.06816121 0.3941384 0.009184119 0.032498777 0.014331609
-0.09778017 0.29936838 0.010678906 -0.5353526 -1.3100637 -0.03564882 1.5727004 0.32529983
-0.50449777 -0.8687368 -0.030671496 1.0525583 0.36053747 1.9902548 -0.06690573 -1.4083049
-0.24758989 -0.42009935 -0.10170316 -1.5885787 0.9970007 1.0477555 -0.012333397 0.124719106
-0.3583199 0.70073855 -0.0807107 -0.026503766 0.08083343 -2.2317436 0.34929392 -0.055218592
-0.5783738 0.39209232 0.36957037 0.08920946 -0.83045465 0.22797766 -0.7583576 -0.88062465
0.23710224 0.12720884 -0.23161589 0.2111311 -1.2709585 -0.66794556 1.9986507 0.079277396
0.40945032 0.13707744 -0.08771594 -0.07799876 0.29968137 -0.112531975 0.37891215 -0.12092446
0.44319502 0.59281015 -0.1387476 0.086407796 -0.21530268 0.0040865988 1.4456772 0.040237986
00000000: a4c8 8e3d bbba 813c 7576 7dbc 4209 1b3e
00000010: 947c c0be 275d 9d3d 9841 0bbc 4cf5 51bf
00000020: d90e ecbd f41f 803d 3a5e 8f3e 0a27 8cbe
00000030: 0822 073e 6a91 f33d d8f7 ad3d 83c8 7f3d
00000040: 8c39 3a3e e981 293e 2b93 8bbe fe0f 6cbe
00000050: 07d8 18bf d0d5 f33e f011 6b3c 1e7d b7be
00000060: 7bff e33e 8f71 82be a85c 3fbd cdfe 993d
00000070: fc10 09be 0ab3 febf a06d 67be e7ac b9be
00000080: 4b40 cdbd b805 d6be 1abc b3be ea3d 74bd
00000090: cdf4 4f3e 2c0a 033f 9d47 c73d 4c00 99bd
000000a0: 9d1d 07bf 07a0 f3be d7dd 9b3d 51d4 5cbf
000000b0: 0e8c fb3e 8cc2 b0be d674 fdbc 8fae 8cbe
000000c0: 0999 45be afc5 94be ee24 48be 8e22 ee3d
000000d0: 8d33 64be a80c c0bf 52c8 ae3d 5a55 73be
000000e0: 9624 d9be d473 1e3e e783 22bf 1226 8abe
000000f0: 48fd 56be 60f7 503d 0c69 e23d 3df7 ffbd
00000100: 006a c5bc 5b9b a43b 8498 9dbd 2cf7 633d
00000110: 10d4 69be 3d09 c33c c076 673c 1183 15be
00000120: 5c02 5a3d 298b 48bd fc3c 80bd 8e69 67bd
00000130: 99c2 2cbe ba9b 213d 84f6 67bd 5d99 443d
00000140: 2d58 483c 5953 3b3d 0deb 393d c8dd 153c
00000150: 8701 f5bd da6e 57bd 34e3 53bd 1fef 913d
00000160: 9c57 173d 1057 81bc aad8 e7bd 0d4d febd
00000170: f63d d6bd fd0c a53d 0031 a03d 05c1 1fbe
00000180: 5e36 1bbe 566d de3d 2cd4 95bb 0a52 a1bd
00000190: 51e0 70bd eebf 4b3c e974 bb3c 2072 a1bb
000001a0: 1f5d 63bd c280 b5bd 2077 64bd a657 d9bd
000001b0: ad20 bebd 8039 393d 2c18 95bc 8365 bfbb
000001c0: 1614 c8bd 5f3f 87bc 2943 883d f236 8c3d
000001d0: db94 59bd 7194 6dbd e352 ad3d b246 c0bd
000001e0: ffd5 95bd 86ea 2abc 0487 60bd 72f7 35bd
000001f0: f068 13bd 82db 97bd 5481 3ebd 24eb 523d
00000200: e8ad e0bd bcdb ec3d 445a 5fbc 5785 3abe
00000210: 7267 85bd 1df9 1e3d c452 953e 9807 35bf
00000220: 5585 a33d 1550 263e 7de9 af3d 432c ef3d
00000230: 431d 613d 56fe 0ebd 145d 673d d42b fe3d
00000240: f311 373d 0b2c a33d 19a7 46bd 136c 50be
00000250: cd5f 1bbd 4ac0 e73d 0036 783d 55aa 5bbe
00000260: 82db fc3e ff40 72bd a67e e6bd 7dd1 a63b
00000270: f90f 96bc b9c1 4abf 4a9b a93d 998c 1a3e
00000280: 8810 d3bb ba63 83be 22d4 02be 7b14 43be
00000290: 1a67 e9bd 43a6 2b3e d4c8 d8b9 4b3e b0bf
000002a0: 5f76 5c3e 5c46 eb3d 74d0 b33d 482c 24be
000002b0: 6eee b5be cb4b 5a3d 730c 653d 5155 8bbd
000002c0: 6dd0 74bc 5245 6bbc e340 cc3c 1370 a0bd
000002d0: 09fe d4bc 1b43 cabe a332 433e b4ad 8abd
000002e0: 8244 50bd 4f17 ac3d 8cff aabe 1b98 8bbd
000002f0: 82cc c93e fd78 163c 701d 053d 20cf 6a3c
00000300: f840 c8bd d046 993e 94f6 2e3c de0c 09bf
00000310: 2bb0 a7bf 7f04 12bd 3f4e c93f b38d a63e
00000320: c426 01bf 8965 5ebf ca42 fbbc 3bba 863f
00000330: 5e98 b83e abc0 fe3f df05 89bd 5643 b4bf
00000340: 3488 7dbe 4317 d7be bf49 d0bd 8c56 cbbf
00000350: 703b 7f3f da1c 863f 0412 4abc bb6c ff3d
00000360: b575 b7be 9a63 333f a74b a5bd 6d1e d9bc
00000370: ff8b a53d e3d4 0ec0 a7d6 b23e e42c 62bd
00000380: 4e10 14bf 53c0 c83e 5438 bd3e 73b3 b63d
00000390: ad98 54bf fa72 693e b923 42bf 9e70 61bf
000003a0: eeca 723e 0943 023e b72c 6dbe c032 583e
000003b0: c5ae a2bf 7bfe 2abf c9d3 ff3f 305c a23d
000003c0: 79a3 d13e 075e 0c3e 6aa4 b3bd d0bd 9fbd
000003d0: d66f 993e 2a77 e6bd c600 c23e 3ea7 f7bd
000003e0: 75ea e23e 68c2 173f da13 0ebe 92f6 b03d
000003f0: 4e78 5cbe e0e8 853b f30b b93f 96d0 243d

bias f4 [64]
-0.05478507 -0.092311546 0.025972065 0.39899558 -0.21627167 0.5476916 -0.014143567 -0.074684694
0.28684795 -0.034628168 -0.09570438 -0.06113295 -0.010309354 -0.15568294 -0.05622749 0.048322625
0.043728184 -0.019697733 -0.1552097 -0.05595979 -0.008246915 0.31189385 -0.06457162 0.021009494
-0.07605795 -0.0032163502 -0.13324605 -0.12279153 -0.09562271 -0.13847153 0.105785094 -0.15017124
-0.05887547 -0.031858213 -0.12194671 -0.082344435 0.0039493567 -0.09480453 0.025360296 -0.040167034
-0.27057093 -0.11177939 -0.018529216 -0.104262486 0.013540908 -0.17923705 -0.1351843 0.07563296
-0.084264986 -0.12702255 -0.15405187 0.04097349 0.010783037 0.06456609 -0.10788354 0.71271133
-0.11854183 -0.21674183 -0.03273723 -0.08139613 0.00042897864 -0.1070686 0.024991417 -0.22606336
00000000: 4f66 60bd d60d bdbd 5ec3 d43c 2649 cc3e
00000010: 5276 5dbe 8435 0c3f 6bba 67bc 4af4 98bd
00000020: bcdd 923e 44d6 0dbd a800 c4bd 8b66 7abd
00000030: 91e8 28bc 596b 1fbe cc4e 66bd f2ed 453d
00000040: 531c 333d 245d a1bc 4bef 1ebe 1836 65bd
00000050: 121e 07bc 8db0 9f3e 203e 84bd 1a1c ac3c
00000060: 45c4 9bbd 67c9 52bb a771 08be 207a fbbd
00000070: d7d5 c3bd 7bcb 0dbe dba5 d83d 7dc6 19be
00000080: 6827 71bd c27d 02bd 32bf f9bd 33a4 a8bd
00000090: 9b69 813b e128 c2bd 65c0 cf3c 3086 24bd
000000a0: 4688 8abe 98ec e4bd 95ca 97bc 9287 d5bd
000000b0: afda 5d3c eb89 37be c16d 0abe 74e5 9a3d
000000c0: 1f93 acbd 3312 02be c6bf 1dbe d1d3 273d
000000d0: 56ab 303c 3a3b 843d 0cf2 dcbd 4074 363f
000000e0: 0fc6 f2bd 92f1 5dbe 7917 06bd 04b3 a6bd
000000f0: 8ae8 e039 c846 dbbd cdba cc3c 277d 67be
