ddpg_her/models.pt (torch, 84799 bytes, 15 tensors)

weight f4 [64, 13]
0	0xbcd5f8e6	-0.02611966
1	0x3ded1804	0.11576846
2	0xbe721282	-0.23639873
3	0xbe5102f0	-0.20411277
4	0xbddac5cf	-0.1068226
5	0x3d985e7d	0.07439897
6	0xbbbc7900	-0.005751729
7	0x3e61aab4	0.22037774
8	0xbcc9e978	-0.02464746
9	0x3d96419d	0.073367335
10	0xbddc3f9a	-0.107543185
11	0xbdb3837e	-0.087653145
12	0xbe8b339d	-0.27187815
13	0xbe3c17a9	-0.183684
14	0xbdea25e9	-0.11433012
15	0x3c285470	0.010274038
16	0x3de08e37	0.10964625
17	0x3e2a690e	0.16641638
18	0xbe408a28	-0.18802702
19	0xbdf7593b	-0.12077566
20	0x3dce4fe2	0.1007383
21	0x3e6bd5e8	0.23030818
22	0xbd69cb5b	-0.0570787
23	0x3e548681	0.20754434
24	0xbd371bc6	-0.04470422
25	0x3cf06a46	0.02934755
26	0x3efc5c3f	0.49289128
27	0xbeb48f6f	-0.3526568
28	0xbe9ab906	-0.30219287
29	0xbebcc23d	-0.36866942
30	0xbee40bc9	-0.4454024
31	0x3dd9f7bf	0.10642957
32	0x3e390cd6	0.18071303
33	0xbe2c77bb	-0.16842549
34	0x3e113e24	0.14183861
35	0x3d94d8ae	0.07267891
36	0xbeb87d92	-0.36033303
37	0x3ef6d6fb	0.48210892
38	0x3f020388	0.5078664
39	0x3e6a54fe	0.22883984
40	0xbf1410ae	-0.5783795
41	0xbf0a8dd4	-0.5412266
42	0x3f6db8cf	0.9286012
43	0x3f238b8d	0.6388481
44	0x3e44ec86	0.19230852
45	0xbe082936	-0.1329697
46	0x3cd1cf45	0.02561153
47	0xbf96800f	-1.175783
48	0xbf02b26a	-0.5105349
49	0xbe7fc6a2	-0.24978116
50	0x3f0cebcb	0.5504729
51	0x3f0b1067	0.54321903
52	0xbdf63cf6	-0.12023346
53	0x3e5f579a	0.21810761
54	0x3de9fedd	0.114255644
55	0xbf44350a	-0.7664343
56	0xbf079c7f	-0.5297317
57	0x3ee90ed2	0.4551912
58	0x3e92159c	0.28532112
59	0xbe17be6c	-0.14818734
60	0x3dd7ebeb	0.10543045
61	0x3f03bbbe	0.51458347
62	0xbeee88e5	-0.46588817
63	0xbddefe7c	-0.10888383
64	0x3e670f08	0.22564328
65	0xbeaa3876	-0.332462
66	0xbdf837a2	-0.12119986
67	0x3e8c6b04	0.27425396
68	0x3f34eb9c	0.7067201
69	0x3f494884	0.78626275
70	0xbd39b98a	-0.04534296
71	0xbec5ddaa	-0.3864568
72	0xbe596e65	-0.21233518
73	0x3f320d41	0.69551474
74	0x3f2206fc	0.6329191
75	0x3ef8d48b	0.48599657
76	0x3da97d29	0.082758255
77	0xbdc56aa1	-0.096394785
78	0x3cd10301	0.025514128
79	0xbe31ad0d	-0.1735117
80	0xbe84572c	-0.25847757
81	0x3e7c566f	0.24642347
82	0x3e57f276	0.21088585
83	0xbe8da6f7	-0.27666447
84	0x3d54a1e0	0.05191219
85	0xbd3f5ffd	-0.0467224
86	0xbd3af21d	-0.045641053
87	0xbe020185	-0.12695892
88	0x3dda6ed3	0.10665669
89	0xbe2837d2	-0.16427544
90	0x3dd03a88	0.10167414
91	0xbb741441	-0.0037243518
92	0x3f47e074	0.78076863
93	0xbda57c2c	-0.080803245
94	0xbf160f4d	-0.586171
95	0xbf08e086	-0.53467596
96	0x3e119d69	0.14220203
97	0x3e83fff0	0.25781202
98	0x3e0a40c2	0.13501266
99	0x3e3027a2	0.17202619
100	0xbf0123cf	-0.50445265
101	0x3e34f5ed	0.17671938
102	0xbf4ed463	-0.80792826
103	0xbde6fb5a	-0.1127841
104	0xbe8745a3	-0.26420316
105	0xbba35a4b	-0.004985129
106	0xbe55dfa6	-0.20886096
107	0xbe5b1200	-0.21393585
108	0xbc7a60db	-0.015281881
109	0x3d2a9195	0.041642744
110	0xbde89e58	-0.11358327
111	0x3e2885e9	0.16457333
112	0xbe2cd43d	-0.16877837
113	0x3e80d979	0.25165918
114	0x3e42a12f	0.19006799
115	0xbe6f7f72	-0.2338846
116	0xbd8d5e99	-0.06902809
117	0xbd1d9703	-0.038474094
118	0xbc2cdd90	-0.0105508715
119	0x3c67f241	0.014156879
120	0x3dda4c9d	0.10659144
121	0x3c813209	0.015770929
122	0xbda1b530	-0.07895887
123	0x3e3e961e	0.18611953
124	0xbe5adbdc	-0.21372932
125	0xbe54ccd2	-0.20781258
126	0xbdea6688	-0.114453375
127	0xbe3df91d	-0.1855206
128	0xbe17371b	-0.14767115
129	0xbe8da6d3	-0.2766634
130	0xbdc154ae	-0.094399795
131	0xbe7911dc	-0.24323219
132	0xbf626fe0	-0.8845196
133	0x401f7dd6	2.4920554
134	0x4027d116	2.6221366
135	0xbe3c96ea	-0.18416944
136	0x3d6a3195	0.05717619
137	0xbbd8ae8b	-0.006612604
138	0xbf9b79bb	-1.2146524
139	0xbf80d02a	-1.0063527
140	0x3e2c2ccb	0.16813962
141	0x3e44d500	0.19221878
142	0x3f51f823	0.8201925
143	0xbe1c07f8	-0.15237415
144	0xbf57171d	-0.84019643
145	0x3ee0cbdc	0.43905532
146	0x3f2dd4db	0.67902917
147	0x3efaeff5	0.49011198
148	0xbd9f324b	-0.077732645
149	0xbdf9df78	-0.122008264
150	0x3d7b09ee	0.061288767
151	0xbde1fe05	-0.110347785
152	0xbdbdb53c	-0.09263083
153	0x3ec2d757	0.38054916
154	0x3f07b636	0.53012407
155	0xbf3039fa	-0.68838465
156	0x3e04fa1f	0.12986039
157	0xbe850bd4	-0.25985587
158	0xbdd217e5	-0.10258464
159	0xbdebc138	-0.11511463
160	0xbd5eec64	-0.05442466
161	0xbbf4af6a	-0.0074672
162	0xbe5071af	-0.20355867
163	0xbe4eb140	-0.20184803
164	0xbda229ae	-0.07918106
165	0xbd046757	-0.032325115
166	0xbe2c6917	-0.16836964
167	0x3d7f0f5c	0.062270507
168	0xbe95a098	-0.29224086
169	0xbdaa7c17	-0.083244495
170	0x3e420793	0.18948202
171	0xbe3ef85d	-0.1864943
172	0x3e803ab8	0.250448
173	0x3dcdb543	0.100443386
174	0xbe50ab80	-0.20377922
175	0x3e461429	0.19343628
176	0xbd8cdd0d	-0.068780996
177	0xbe371fbd	-0.17883201
178	0x3e10225f	0.14075612
179	0xbe9155a7	-0.2838566
180	0xbcce8587	-0.025210155
181	0xbe098eb3	-0.13433342
182	0x3ead85c1	0.3389111
183	0xbe33881c	-0.1753239
184	0x3f6db103	0.92848223
185	0xbfe17b1d	-1.7615696
186	0xbff3010f	-1.8984698
187	0x3e053f5b	0.1301245
188	0xbc7e0f78	-0.015506618
189	0x3ee3217d	0.44361487
190	0x3f083d3e	0.5321845
191	0x3f747b5d	0.9550074
192	0xbeb2db06	-0.34932727
193	0x3e378aa7	0.17923985
194	0xbf4e98aa	-0.80701697
195	0xbe92fffb	-0.28710923
196	0xbe90042d	-0.28128186
197	0xbdc5163e	-0.09623383
198	0xbe12be3d	-0.14330383
199	0x3ccbc701	0.024875166
200	0xbbe6367c	-0.007025538
201	0x3e3d1e16	0.18468508
202	0xbec43988	-0.38325143
203	0xbe9ad485	-0.30240265
204	0xbd9d8fa1	-0.07693411
205	0x3dc7e504	0.09760478
206	0xbe21229d	-0.1573586
207	0x3e166ea9	0.14690651
208	0x3e68451e	0.22682616
209	0x3f0f9e39	0.56100804
210	0xbe1f0eb3	-0.15532951
211	0xbf09bbc7	-0.5380215
212	0xbeee3c8d	-0.46530572
213	0xbef702d0	-0.48244333
214	0x3c9fb040	0.019493222
215	0x3dbfbeb1	0.093625434
216	0xbfdaedbd	-1.7103802
217	0xbeedef67	-0.46471712
218	0x3dba63d5	0.09101073
219	0xbf56c968	-0.8390107
220	0xbd5ba915	-0.053628046
221	0x3eec33d8	0.46133304
222	0x3e35cce2	0.17753938
223	0xbe7dddb8	-0.2479161
224	0xc0999783	-4.799745
225	0xc0890763	-4.2821517
226	0xbef8d546	-0.48600215
227	0xbe89ae87	-0.26890966
228	0x3e29e36e	0.16590664
229	0xbf862ca6	-1.0482376
230	0xbeba4575	-0.36381117
231	0xbc7598c5	-0.014990036
232	0xbf84c01c	-1.0371127
233	0x3ed134d9	0.40860632
234	0x3d93f6ce	0.07224809
235	0xbe4db0f8	-0.2008704
236	0x3ca94d88	0.020666853
237	0xbcd3ade3	-0.025839752
238	0x3d44162b	0.047872704
239	0x3e24160b	0.16024034
240	0x3d416277	0.047213044
241	0xbcb465d1	-0.022021206
242	0xbdb079e0	-0.08616996
243	0xbd0b78c7	-0.03405073
244	0x39b5769b	0.00034611378
245	0xbf2c7b94	-0.67376065
246	0x3e583aa9	0.21116127
247	0xbe7a74ac	-0.2445857
248	0xbc677fa3	-0.014129552
249	0xbd82d62f	-0.063885085
250	0xbe207770	-0.15670562
251	0x3d036692	0.03208024
252	0x3e82e3db	0.25564465
253	0xbdb9f0c9	-0.09079129
254	0xbe1ede3e	-0.15514466
255	0xbe12349b	-0.1427788

bias f4 [64]
0	0xbb50e467	-0.003187442
1	0xbdd34b9b	-0.10317155
2	0xbe84740e	-0.25869793
3	0x3dc80487	0.097664885
4	0xbe0cb465	-0.1374069
5	0xbed822bf	-0.4221401
6	0xbdc00c4b	-0.09377345
7	0xbd063a94	-0.03277071
8	0xbd4d69a6	-0.050149582
9	0x3e0503d7	0.12989746
10	0x3c9d44e3	0.019197887
11	0x3d9fc773	0.07801714
12	0x3d9e7706	0.07737546
13	0xbe00620c	-0.12537402
14	0x3d9d20f1	0.07672299
15	0x3d9ed401	0.0775528
16	0xbda8a6d1	-0.08234943
17	0xbe4020b9	-0.18762483
18	0xbe58ee20	-0.21184587
19	0x3e391f6b	0.18078391
20	0xbdefcffb	-0.11709591
21	0xbf2537ff	-0.6453857
22	0x3e15208f	0.14563201
23	0xbe772cc4	-0.2413817
24	0x3d9cd7be	0.07658337
25	0xbea042b5	-0.31300893
26	0x3ea712f5	0.3263165
27	0xbe8435e8	-0.25822377
28	0x3e25baf2	0.16184595
29	0xbd5a6255	-0.053316433
30	0xbcc3036e	-0.023805346
31	0xbd437370	-0.04771751
32	0x3e72edb3	0.23723488
33	0xbdf2bdde	-0.118526205
34	0xbe35ac8e	-0.17741606
35	0xbe6854fb	-0.22688667
36	0xbd1cd186	-0.038285755
37	0x3ca486ad	0.02008375
38	0xbdbefc0b	-0.09325417
39	0xbdd864bd	-0.10566089
40	0xbf0177f1	-0.5057364
41	0x3c68ad3c	0.014201459
42	0xbc069af2	-0.008215653
43	0xbe36ecae	-0.17863724
44	0x3e599ebc	0.21251959
45	0x3e202eb9	0.15642823
46	0xbd838536	-0.06421892
47	0xbdbd5a7d	-0.09245775
48	0xbe0220db	-0.12707846
49	0xbe82e06e	-0.2556185
50	0xbeae109e	-0.33997053
51	0xbe319693	-0.17342596
52	0xbe6e11be	-0.23248956
53	0x3eb358b9	0.35028628
54	0x3e1dd5ae	0.15413544
55	0xbefa7b2b	-0.48922095
56	0xbc57c398	-0.013169192
57	0x3ed85f76	0.4226033
58	0xbe1e8002	-0.15478519
59	0x3e0b1d16	0.13585314
60	0xbe30ab0a	-0.17252746
61	0x3e551d49	0.20811953
62	0xbe935349	-0.2877448
63	0xbdc3a3e8	-0.09552747

weight f4 [64, 64]
0	0xbde2f0dc	-0.110810965
1	0xbc0209f0	-0.00793694
2	0xbf53bb86	-0.82708013
3	0xbe6dd6ad	-0.23226424
4	0x3d8ee991	0.06978143
5	0x3c9f2738	0.01942788
6	0x3de8e5d6	0.11371963
7	0x3f0c1ac1	0.54728323
8	0x3db3fbe0	0.08788276
9	0xbc842060	-0.016128719
10	0x3e9be2c1	0.30446437
11	0xbeaeb10e	-0.34119457
12	0xbc65eaf0	-0.014033064
13	0xbd8a56c6	-0.06754832
14	0xbeb5f9d9	-0.3554218
15	0x3c47f9dc	0.012205567
16	0x3ec288ef	0.37995097
17	0xbea2643b	-0.31717095
18	0x3d77dc56	0.060512863
19	0x3d3a7c88	0.04552892
20	0xbde07f1a	-0.10961743
21	0xbed7dc5a	-0.42160302
22	0xbe9ff667	-0.31242678
23	0x3c8b8cc8	0.017034903
24	0xbf0d7340	-0.5525398
25	0xbe77f36f	-0.24213956
26	0xbfb8d89b	-1.4441103
27	0x3d9cfc68	0.0766533
28	0xbe8ad599	-0.27116087
29	0xbde79b24	-0.113088876
30	0x3d425900	0.04744816
31	0x3f045e32	0.5170623
32	0x3dc1deec	0.09466347
33	0x3d20a924	0.039223805
34	0x3dfd2124	0.12359837
35	0xbdfc69f8	-0.123248994
36	0xbdf671f2	-0.12033452
37	0x3dad1506	0.084512755
38	0x3db3dea9	0.087827034
39	0x3d9cd898	0.076584995
40	0x3f271969	0.6527315
41	0xbdd79f18	-0.105283916
42	0x3db94bda	0.09047671
43	0xbe459c11	-0.19297816
44	0x3ce4c368	0.027925208
45	0x3ead8354	0.33889258
46	0xbf604d8a	-0.87618315
47	0x3cb55188	0.022133604
48	0x3d947d1a	0.07250424
49	0xbca20530	-0.019777864
50	0x3f82f979	1.0232383
51	0xbfa4aaf9	-1.2864677
52	0x3de5b5ab	0.11216291
53	0x3ebe7fff	0.37207028
54	0xbd9bbf6c	-0.0760487
55	0x3f65ef21	0.89818007
56	0xbdd14c2c	-0.10219607
57	0xbf10e77d	-0.56603223
58	0x3d992eee	0.07479654
59	0x3d821c28	0.06353027
60	0x3e808054	0.25097907
61	0xbe65bd90	-0.22435594
62	0x3d2a57c8	0.04158762
63	0x3e85b14b	0.26111826
64	0xbdb6f4cc	-0.0893341
65	0x3cdc5ab8	0.026898727
66	0x3de91968	0.11381799
67	0xbe1bf0f7	-0.1522864
68	0xbe1d5cd6	-0.15367445
69	0xbb42ca28	-0.0029722545
70	0x3dc0c612	0.09412779
71	0xbdd80fb8	-0.10549873
72	0x3ce16ba0	0.02751714
73	0x3db3f6d8	0.08787316
74	0x3c15db1e	0.00914648
75	0xbb1d4264	-0.002399587
76	0x3dff6af8	0.124715745
77	0x3da6c6ea	0.081434086
78	0xbd8ffb38	-0.07030338
79	0xbc97b1d2	-0.018517409
80	0x3d82c888	0.063859046
81	0x3da580bf	0.08081197
82	0xbdfeb3ec	-0.12436661
83	0x3d8aa018	0.06768817
84	0xbd14a660	-0.03629148
85	0xbe1ad487	-0.15120135
86	0x3ce34d28	0.027746752
87	0xbd8b5eb2	-0.06805171
88	0x3c911d00	0.017714024
89	0xbde27f9e	-0.11059497
90	0xbdfcba5c	-0.12340233
91	0xbc2dc660	-0.010606378
92	0xbd9195cc	-0.071086496
93	0x3d32d853	0.043663334
94	0xbc95c84f	-0.018283991
95	0x3dc7d2b0	0.09756982
96	0x3cbfe690	0.02342537
97	0xbd24a3b0	-0.040195167
98	0x3dad65bc	0.0846667
99	0x3bdfd380	0.0068306327
100	0x3cc03240	0.023461461
101	0xbd24abb8	-0.040202826
102	0xbceceac5	-0.02892054
103	0xbcc4e340	-0.024034142
104	0xbd23f969	-0.040032778
105	0xbdc7a62c	-0.09748492
106	0xba498500	-0.000768736
107	0xbe081fba	-0.13293353
108	0xbcdc4b40	-0.02689135
109	0x3d3022bb	0.04300187
110	0xbdb2027a	-0.086918786
111	0xbde85943	-0.1134515
112	0xbcfa0968	-0.030522063
113	0xbd0c5b4c	-0.034266755
114	0x3cad59b0	0.02116093
115	0xbc0d6c59	-0.008631789
116	0x3d81d114	0.063387066
117	0xbde8ee04	-0.11373523
118	0xbc1087a0	-0.008821398
119	0x3d8f2db6	0.069911405
120	0x3ddd6ec6	0.10812144
121	0xbd1de8dd	-0.038552154
122	0xbd942074	-0.072327524
123	0x3d132e4c	0.035932824
124	0x3d310bc7	0.043224122
125	0xbddbe41f	-0.1073687
126	0xbd948e1c	-0.07253668
127	0x3d624d98	0.05524978
128	0xbc0f7ec0	-0.008758247
129	0xbdf1caaa	-0.11806233
130	0xbda29f7b	-0.07940575
131	0x3ca37467	0.019952966
132	0xbdb02b08	-0.086019576
133	0x3d1cfcfe	0.03832721
134	0x3dca60d2	0.09881748
135	0xbd09d533	-0.03365059
136	0xbc21f1f0	-0.009884343
137	0xbd2285d0	-0.039678395
138	0xbd683cb2	-0.05669851
139	0xbb9d2cde	-0.0047966084
140	0xbdc38bbe	-0.09548138
141	0xbcf4bb48	-0.029874459
142	0xbe26b6e6	-0.16280708
143	0x3d09c489	0.033634696
144	0xbdd193b5	-0.10233251
145	0x3d94d2e4	0.07266787
146	0xbd9775cc	-0.07395515
147	0xbd92a7f4	-0.07160941
148	0x3d75fdf4	0.06005664
149	0xbcfe1854	-0.03101746
150	0x3d783a0f	0.060602244
151	0x3d55be98	0.052183717
152	0xbdf69d6a	-0.12041743
153	0x3d22f90e	0.0397883
154	0xbd4ecfbc	-0.05049108
155	0xbd624a08	-0.055246383
156	0xbc5c69d0	-0.013452962
157	0x3d71e3d3	0.05905516
158	0xbe1e6504	-0.15468222
159	0xbd5a94c5	-0.053364534
160	0x3dd23a98	0.10265082
161	0x3d464a74	0.048410848
162	0x3dc62cb2	0.09676494
163	0xbda1c79d	-0.07899401
164	0xbd8d3870	-0.0689553
165	0x3ddc230a	0.10748871
166	0x3caa4449	0.020784514
167	0x3db4e23b	0.088322125
168	0xbdee2643	-0.116283916
169	0xbda45e7e	-0.080258355
170	0xbc700d50	-0.014651611
171	0xbe1215f7	-0.14266191
172	0x3d48b0f8	0.048996896
173	0x3ce55e18	0.027998969
174	0xbd27e837	-0.04099294
175	0xbcc1c225	-0.023652146
176	0x3d7dda54	0.061975792
177	0xbda27f10	-0.079343915
178	0x3dccecd0	0.10006106
179	0xbe1fcba5	-0.15605028
180	0xbdfaa19f	-0.12237858
181	0xbda0d939	-0.07853932
182	0x3dd11cb8	0.10210556
183	0x3c4d0ec0	0.012515724
184	0x3d44a1a4	0.048005715
185	0xbe02dba9	-0.12779106
186	0x3d3ab818	0.04558572
187	0xb9afff53	-0.00033568832
188	0x3cb1ba04	0.021695144
189	0x3a8f6e79	0.0010942958
190	0x3c9aa37d	0.018876785
191	0xbd2af62b	-0.04173867
192	0xbbfc4f60	-0.007699892
193	0xbda08ee2	-0.07839753
194	0x3fac80c9	1.3476802
195	0x3fba0077	1.4531392
196	0x3d7c3435	0.061573226
197	0x3e494834	0.1965645
198	0xbd4b063c	-0.049566492
199	0xbed8e060	-0.42358685
200	0x3b2e5800	0.0026602745
201	0xbdeaec20	-0.114708185
202	0x3ebf2851	0.37335446
203	0xbe5ca8e7	-0.21548806
204	0xbc37fc20	-0.011229545
205	0xbcccb3b0	-0.024988025
206	0x3ef6e6e1	0.48223022
207	0x3e8f92f3	0.280418
208	0x3d116cef	0.035504278
209	0x3f1faff5	0.62377864
210	0xbedd2d2e	-0.43198532
211	0xbdd9f032	-0.10641517
212	0x3d1c8258	0.038210243
213	0xbd358dfc	-0.04432486
214	0x3cc710f5	0.024300078
215	0xbdf6e9b8	-0.12056297
216	0x3dc8d942	0.09807064
217	0x3ea92609	0.3303683
218	0xbf5c70d6	-0.86109674
219	0xbdf8b1f6	-0.12143318
220	0xbec8d1b8	-0.39222503
221	0xbe18dc5c	-0.1492781
222	0x3c3ba4cc	0.011452865
223	0x3f5008ec	0.81263614
224	0xbca4dd68	-0.020125106
225	0xbde8a0e8	-0.113588154
226	0x3dc73c99	0.09728355
227	0xbd542d63	-0.051801097
228	0xbdf16698	-0.11787146
229	0xbc8fed80	-0.017569304
230	0x3c44622c	0.011986297
231	0xbdb17800	-0.08665466
232	0x3d95344c	0.072853655
233	0xbdc50a62	-0.09621121
234	0xbdc2016c	-0.094729275
235	0x3e410ef5	0.18853362
236	0x3cbf7418	0.023370788
237	0xbf1eb3bf	-0.6199302
238	0xbf49c485	-0.7881549
239	0xbdbc517c	-0.091952294
240	0xbcd73acc	-0.026273154
241	0x3a25c900	0.0006324202
242	0x3f9a50e0	1.2055931
243	0x3e4768c4	0.19473559
244	0xbd0b5256	-0.03401407
245	0xbf9566cc	-1.1671996
246	0xbd8cf990	-0.06883538
247	0xbd88abec	-0.066734165
248	0x3d776ee0	0.060408473
249	0xbd7e0617	-0.062017526
250	0x3cf2a488	0.02961947
251	0xbdc63116	-0.09677331
252	0x3ec52391	0.38503698
253	0xbe383840	-0.17990208
254	0xbd9befe2	-0.076141134
255	0xbf6fe8b3	-0.93714446

bias f4 [64]
0	0x3e352635	0.17690356
1	0xbd0055b3	-0.03133173
2	0xbd62b540	-0.055348635
3	0xbea9a453	-0.33133182
4	0xbe074e87	-0.1321355
5	0xbd7457c6	-0.05965402
6	0xbd92e143	-0.071718715
7	0xbe1a39d3	-0.1506112
8	0x3e82eae5	0.25569835
9	0xbef3a74f	-0.47588584
10	0x3e0285cc	0.12746352
11	0xbd371cf5	-0.04470535
12	0xbdb0f780	-0.08640957
13	0xbdb6f545	-0.089335
14	0xbde4935e	-0.111609206
15	0xbe162c79	-0.14665402
16	0xbd1e4bd8	-0.03864655
17	0x3b366b27	0.0027834864
18	0xbce1a996	-0.027546685
19	0x3e746944	0.2386828
20	0xbd5a4157	-0.05328497
21	0xbef54d7d	-0.4791068
22	0x3d557b28	0.052119404
23	0xbeadad49	-0.3392127
24	0xbe1e220e	-0.15442678
25	0xbe3030aa	-0.17206064
26	0xbcdb519b	-0.026772311
27	0xbdc89384	-0.097937614
28	0xbc313750	-0.01081641
29	0xbda5ef4e	-0.08102284
30	0xbd92ab82	-0.07161619
31	0x3d856be0	0.06514716
32	0xbdcf9514	-0.10135856
33	0xbe150522	-0.1455274
34	0xbc67d528	-0.0141499415
35	0xbd59f3bd	-0.053210963
36	0x3e7a210e	0.24426672
37	0xbcbcc948	-0.023045197
38	0x3ca59f7a	0.020217646
39	0xbdda7d30	-0.10668409
40	0xbdc60e46	-0.09670691
41	0xbc67c118	-0.014145158
42	0xbda54908	-0.0807057
43	0xbda1becf	-0.07897722
44	0xbc0e94d5	-0.0087024765
45	0xbcc06ac4	-0.02348841
46	0xbd9639a7	-0.07335215
47	0x3da39bad	0.07988677
48	0xbdb320ab	-0.08746465
49	0xbeb33005	-0.34997573
50	0x3d4d6710	0.050147116
51	0xbdf6add7	-0.12044876
52	0x3ba19125	0.0049306327
53	0xbec5d183	-0.38636407
54	0xbb8daa61	-0.0043232893
55	0x3e57caba	0.21073428
56	0x3e7cdb10	0.2469294
57	0xbe4429d9	-0.19156589
58	0xbe2777e0	-0.16354322
59	0x3c06acc1	0.008219899
60	0xbd72c9fd	-0.059274662
61	0xbe3ffc36	-0.18748555
62	0x3d5b6495	0.05356272
63	0x3c3bbbec	0.011458378

weight f4 [64, 64]
0	0x3eb04b8b	0.34432635
1	0x3e16090e	0.14651892
2	0x3dc50b46	0.09621291
3	0x3f1da58e	0.6158074
4	0x3de5412a	0.1119407
5	0xbef063f6	-0.46951264
6	0xbcd2076e	-0.025638308
7	0xbd5c80b8	-0.053833693
8	0x3dea97dc	0.11454746
9	0x3e4b0387	0.19825564
10	0x3f267981	0.6502915
11	0x3c7e0488	0.01550401
12	0xbd5468fa	-0.051857926
13	0xbd6e313c	-0.058152422
14	0xbd1566dc	-0.036475047
15	0x3dc0b476	0.0940942
16	0xbc950a20	-0.018193305
17	0x3d922fe4	0.07138041
18	0xbdf66fca	-0.12033041
19	0xc00e6a91	-2.2252543
20	0xbc623b6f	-0.013808115
21	0x405c6e35	3.4442265
22	0x3cd1b912	0.025600944
23	0xbddcd14d	-0.107821085
24	0x3dd25db9	0.102717824
25	0xbf81e6c5	-1.014855
26	0x3c5b4a7b	0.013384457
27	0xbdf650d8	-0.120271385
28	0x3d333093	0.043747496
29	0xbdbf5067	-0.093415074
30	0xbd58b6d4	-0.052908733
31	0xbe917db4	-0.28416216
32	0x3d30969d	0.043112386
33	0xbc982780	-0.018573523
34	0xbbd489aa	-0.0064861374
35	0x3d684f63	0.056716334
36	0xbf5dfce2	-0.86713994
37	0x3dafa7e2	0.08576943
38	0x3f1969c1	0.5992699
39	0x3dcb95d4	0.09940687
40	0xbbca6ec0	-0.006177753
41	0xbd669c24	-0.05630125
42	0x3cc71338	0.024301156
43	0x3dc00c11	0.093773015
44	0xbce55ab9	-0.027997361
45	0x3eacdf7b	0.33764252
46	0xbe8bf287	-0.2733347
47	0xbe372492	-0.17885044
48	0xbd767658	-0.060171455
49	0xbec17264	-0.37782586
50	0xbbc44263	-0.005989359
51	0xbca6aade	-0.020345148
52	0xbdae88a2	-0.085221544
53	0x3c70b86a	0.014692405
54	0x3d8eaf50	0.06967032
55	0xbfa2957d	-1.270187
56	0xbf474853	-0.77844733
57	0x3f2b3538	0.6687808
58	0x3de31174	0.11087313
59	0xbdfe37cd	-0.12412987
60	0x3c168f9b	0.009189512
61	0x3d07416e	0.033021383
62	0x3f2fc520	0.68660164
63	0x3d5710c4	0.052506223
64	0xbdf86a93	-0.121297024
65	0xbdf5c384	-0.12000182
66	0x3d24a33e	0.040194742
67	0xbea24c2d	-0.31698743
68	0xbd1a953c	-0.037739977
69	0x3cede2ed	0.02903887
70	0xbe1d8f08	-0.15386593
71	0xbd4a1732	-0.049338527
72	0x3dc12efb	0.09432789
73	0x3cb0541e	0.021524485
74	0x3f1d9270	0.6155157
75	0xbc0b4e60	-0.008502573
76	0xbf47388c	-0.7782066
77	0xbdeb5d1a	-0.11492367
78	0x3d7e032d	0.062014747
79	0xbd1b69c5	-0.037942667
80	0x3d907137	0.07052844
81	0x3d9af73f	0.0756669
82	0x3da9ab23	0.08284595
83	0xbe939f97	-0.28832695
84	0xbd355c00	-0.04427719
85	0xbe7e860a	-0.2485582
86	0x3d9ffcd9	0.07811899
87	0xbf6db35c	-0.92851806
88	0x3d5e459e	0.05426561
89	0xbe1cbebf	-0.15307139
90	0x3d1fec1c	0.03904353
91	0xbd641202	-0.055681236
92	0x3de24f3c	0.11050269
93	0xbd96e8c0	-0.07368612
94	0x3a90ccde	0.0011047383
95	0xbedb2a50	-0.4280572
96	0x3dd2abcb	0.10286673
97	0x3d8b4099	0.067994304
98	0x3dce22bd	0.100652196
99	0x3d4945d4	0.04913886
100	0xbecb7712	-0.3973928
101	0xbcfce7e6	-0.030872297
102	0xbcafedea	-0.021475751
103	0x3d4af554	0.04955037
104	0x3cf79aa7	0.030225111
105	0xbc87a4ed	-0.016558135
106	0x3ca2e040	0.019882321
107	0x3d2fe104	0.0429392
108	0xbe08754e	-0.13325998
109	0x3fbd7f9b	1.4804567
110	0xbce6ff8e	-0.02819803
111	0x3d8cd9f7	0.06877511
112	0x3d79cbb4	0.060985282
113	0xbe0ec492	-0.13942173
114	0xbd8a027e	-0.067387566
115	0xbee1706f	-0.44031093
116	0xbe237bd2	-0.15965202
117	0xbb71157c	-0.0036786487
118	0xbc1ff452	-0.00976284
119	0x3f6503b5	0.8945878
120	0xbcd90746	-0.026492726
121	0x3e5bb3dd	0.21455331
122	0xbd7ba593	-0.0614372
123	0x3d3d1f7c	0.046172604
124	0xbc8dd0c4	-0.017311461
125	0x3d7243a6	0.059146546
126	0x3dfdd17e	0.12393473
127	0xbcaca292	-0.021073613
128	0x3d8e2183	0.069399856
129	0xbd71cf64	-0.059035674
130	0x3d91d4d2	0.071206704
131	0x3ba3a2e0	0.0049937814
132	0x3daa1e9a	0.08306618
133	0x3df93eb6	0.12170164
134	0xbdf4c0cb	-0.11950835
135	0x3df957ca	0.121749476
136	0x3d06991a	0.032860853
137	0xbdce39e6	-0.10069637
138	0x3bcabe5b	0.006187243
139	0xbdd06960	-0.10176349
140	0x3c36791d	0.011137274
141	0x3d38c604	0.045110717
142	0xbdf4616a	-0.11932643
143	0x3d39dd9c	0.04537736
144	0x3c225ef8	0.009910338
145	0x3dff2ccc	0.12459716
146	0x3d77fb39	0.06054232
147	0xbc944c2e	-0.018102732
148	0x3dc9ca4a	0.09853037
149	0x3c7d6be3	0.015467617
150	0x3d7c247e	0.06155824
151	0xbc3d15c0	-0.01154083
152	0x3cfd1500	0.030893803
153	0xbca925b8	-0.020647869
154	0xbd233f8e	-0.039855532
155	0xbd1a7404	-0.037708297
156	0xbd4aa060	-0.04946935
157	0x3ce74f51	0.028236063
158	0x3d5bb68c	0.053640887
159	0xbde6ef6d	-0.112761356
160	0xbde19cfa	-0.11016269
161	0x3d7975ca	0.060903348
162	0xbdd213df	-0.10257696
163	0xbbb540c0	-0.0055314004
164	0xbddc4f73	-0.10757341
165	0x3dd65b50	0.10466635
166	0x3dcec571	0.10096253
167	0xbdbe158e	-0.09281455
168	0xbdee02fe	-0.116216645
169	0xbd5a6316	-0.053317152
170	0x3d0d482c	0.034492657
171	0xbd8004fa	-0.06250949
172	0xbbb6397f	-0.0055610533
173	0xbc8bbf95	-0.017059127
174	0xbc5edba3	-0.01360217
175	0xbdf5f18f	-0.12008964
176	0x3d68dd80	0.056851864
177	0xbdf7f0f9	-0.12106509
178	0x3c4aa48d	0.0123683335
179	0xbd07bd0d	-0.033139277
180	0xbd4575d9	-0.04820809
181	0x3d0d3cab	0.034481686
182	0x3d9b154b	0.07572421
183	0xbdb5b556	-0.08872478
184	0x3cc1c256	0.023652237
185	0xbdadd9f6	-0.084888384
186	0x3d153ed4	0.03643687
187	0x3d110788	0.035407573
188	0x3ddd6e1a	0.10812016
189	0xbdac1384	-0.0840216
190	0xbe07b517	-0.13252674
191	0xbd3dfdff	-0.046384808
192	0x3dd6e00c	0.10491952
193	0x3a28c768	0.0006438405
194	0xbe272e24	-0.16326195
195	0xbe9ee364	-0.3103286
196	0xbd6c0ca9	-0.05762926
197	0x3e5b1af9	0.21397008
198	0xbe18bdf6	-0.14916214
199	0xbe06e20a	-0.13172165
200	0x3e79e897	0.24405132
201	0xbf4d2bb8	-0.80144835
202	0xbe7b2000	-0.24523926
203	0x3c7e47ef	0.01552008
204	0x3edf02d8	0.43556857
205	0xbdd7677a	-0.105177835
206	0x3dc94c0a	0.098289564
207	0x3db7dc1b	0.08977529
208	0xbc53a032	-0.0129166115
209	0xbc24b8e9	-0.010053852
210	0x3d8af816	0.067856
211	0xbdfc1a5c	-0.12309715
212	0xbe1a2b3b	-0.15055554
213	0x3f4e65c2	0.8062402
214	0xbd4470b8	-0.04795906
215	0xbee308e6	-0.44342726
216	0xbdc6676e	-0.096876964
217	0xc021dc10	-2.5290565
218	0x3d0a36c5	0.03374364
219	0xbd2ab936	-0.041680537
220	0x3d87ae24	0.066250116
221	0x3dd2fdb2	0.10302295
222	0x3d2b1659	0.04176936
223	0x3e89716d	0.2684435
224	0xbd7f01e3	-0.06225766
225	0x3d91c4b6	0.07117598
226	0xbd834821	-0.06410242
227	0xbdbcf5c0	-0.092265606
228	0x3f11026f	0.5664434
229	0x3c5d90d6	0.013523301
230	0xbea50618	-0.32231212
231	0xbd0b3a08	-0.03399089
232	0x3ca105b0	0.019656032
233	0xbd2bd80a	-0.041954078
234	0x3dc030ec	0.09384331
235	0xbcaa7c81	-0.020811321
236	0xbafdee2a	-0.0019373347
237	0xc0198e46	-2.3993087
238	0xbe9825d1	-0.29716352
239	0x3ebe67da	0.37188607
240	0xbdd008f2	-0.10157956
241	0xbd949eb6	-0.07256834
242	0xbd978523	-0.07398441
243	0x3f822324	1.0166974
244	0xbe370d0f	-0.17876075
245	0xbf52ff14	-0.8242047
246	0xbd53ea1e	-0.051736943
247	0x3e84d6ad	0.25945035
248	0xbd0ce01d	-0.03439342
249	0x3f2cb667	0.67465824
250	0x3ca18526	0.01971681
251	0xbc659765	-0.014013146
252	0xbd69bf1c	-0.05706702
253	0xbc4bdfff	-0.012443542
254	0xbf43c90e	-0.7647866
255	0xbe1fb1ad	-0.15595122

bias f4 [64]
0	0x3d426d75	0.047467668
1	0xbe20c331	-0.1569946
2	0xbe1ed8c0	-0.15512371
3	0x3e3ae6be	0.18252084
4	0xbe856b14	-0.26058257
5	0xbf09b6b9	-0.5379444
6	0x3e11efcf	0.14251636
7	0x3e0ade41	0.13561346
8	0x3d08512c	0.033280537
9	0x3e8275dd	0.25480548
10	0xbe147551	-0.14497878
11	0x3df6e3da	0.12055178
12	0x3e0ef0a5	0.13958986
13	0xba82634b	-0.0009947805
14	0xbdd2732c	-0.102758735
15	0x3ebf8e0a	0.37413055
16	0xbe137a97	-0.14402233
17	0xbd98fe68	-0.07470399
18	0x3ec3e099	0.38257292
19	0x3d9b8c8a	0.07595165
20	0xbdc70f63	-0.09719732
21	0x3e1adda0	0.15123606
22	0x3e553b65	0.20823438
23	0x3b75ed48	0.0037525464
24	0x3e7d47c3	0.24734406
25	0xbca9f239	-0.020745384
26	0x3eec8231	0.46193078
27	0xbbcf9d3f	-0.006335884
28	0x3ee029cd	0.4378189
29	0x3e3f20c6	0.18664846
30	0xbde0e843	-0.109818004
31	0x3e130d5c	0.14360565
32	0x3e57d01f	0.21075486
33	0xbd343b18	-0.04400167
34	0xbe12d3fe	-0.14338681
35	0xbda946b2	-0.08265437
36	0x3e1768ae	0.14786026
37	0xbde4b299	-0.11166877
38	0xbd899ddb	-0.06719562
39	0xbe40ee30	-0.18840861
40	0x3e3096b4	0.17244989
41	0xbdf6e889	-0.12056071
42	0xbee285cc	-0.44242704
43	0xbe911c5d	-0.28341952
44	0xbf2462ba	-0.64213145
45	0xbeae0f1a	-0.33995897
46	0xbd9275e2	-0.071513906
47	0xbcc42e66	-0.023947906
48	0x3e507ffa	0.20361319
49	0xbd66f5c8	-0.05638674
50	0xbd1bd9a6	-0.038049363
51	0x3d37dda1	0.044889096
52	0xbec6ae3b	-0.38804802
53	0xbe2f189c	-0.17099231
54	0xbdd54f13	-0.10415473
55	0xbea47ff5	-0.32128873
56	0xbe74a300	-0.23890305
57	0xbe3c61a3	-0.1839662
58	0xbef23619	-0.47306898
59	0xbe7e4ece	-0.24834749
60	0xbd04889d	-0.032356847
61	0xbcb8de9e	-0.02256709
62	0xbdc37205	-0.09543232
63	0xbdeb804b	-0.11499079

weight f4 [4, 64]
0	0xbe34b63d	-0.17647643
1	0x3dc2bd2e	0.095087394
2	0xbd88ee0a	-0.06686027
3	0xbefd2ab1	-0.49446633
4	0x3c8ffa6e	0.017575469
5	0xc006f8a3	-2.1089256
6	0xbfe17b30	-1.7615719
7	0x3e68bc6d	0.22728129
8	0x3eac4f85	0.3365442
9	0xbd137352	-0.03599865
10	0x3f6de611	0.9292918
11	0x3ee070ff	0.4383621
12	0xbd8f881a	-0.07008381
13	0xbf1daa9e	-0.61588466
14	0x3df0d8d7	0.11760109
15	0xbe2d1d02	-0.16905597
16	0xbdc49b41	-0.09599925
17	0xbe0ec37f	-0.13941763
18	0x3f517a73	0.8182747
19	0x3c1957aa	0.00935928
20	0xbde28a07	-0.11061483
21	0xbeb2e043	-0.34936723
22	0x3d6fa41f	0.058506127
23	0xbd6c54e8	-0.05769816
24	0xbf12b517	-0.5730757
25	0x3ca43d53	0.020048773
26	0x3fb206d1	1.390833
27	0x3e0243f1	0.1272123
28	0x3e609204	0.219307
29	0x3e33aad2	0.17545632
30	0xbd466509	-0.0484362
31	0xbe6431ed	-0.2228467
32	0xbd3f211e	-0.046662442
33	0xbdc5be27	-0.09655409
34	0x3d5c5ef4	0.05380149
35	0x3e09d602	0.13460544
36	0xbf29d9e7	-0.6634812
37	0xbdf05983	-0.11735823
38	0x3e01054d	0.12599678
39	0xbd05de29	-0.03268257
40	0x3f4d2940	0.8014107
41	0x3c335118	0.010944627
42	0xbde74d54	-0.11294046
43	0xbf5f1c33	-0.87152404
44	0x3ff737e4	1.9313931
45	0xc0373569	-2.862635
46	0x3ddd9e01	0.108211525
47	0x3b7d42bc	0.0038644513
48	0x3ee2ea71	0.4431949
49	0x38a13d1e	7.688462e-05
50	0x3d32c0dd	0.04364096
51	0xbeb3ef5f	-0.35143563
52	0x3dc65b14	0.096853405
53	0xc0498f83	-3.1493843
54	0xbf0ef3d6	-0.55840814
55	0xbfa2ef89	-1.272935
56	0xbe2112f2	-0.15729883
57	0x3e0f587d	0.139986
58	0xc0926f36	-4.5760756
59	0x3eadea6a	0.33967906
60	0x3d8e9b77	0.06963246
61	0xbd90c920	-0.070696115
62	0x3f814a62	1.0100825
63	0xbbe19c60	-0.0068850964
64	0x3cd1a155	0.025589624
65	0xbed60461	-0.41800216
66	0x3e023c7e	0.12718388
67	0xbc58f86e	-0.013242824
68	0xc024a20d	-2.5723908
69	0xbf441f52	-0.7661029
70	0xbd056f43	-0.03257681
71	0x3d84fa61	0.064930685
72	0xbdf90346	-0.121588275
73	0xbf102141	-0.5630074
74	0x3dfc3ba8	0.12316066
75	0xbdd9e83f	-0.106400006
76	0xbec7e67f	-0.39043042
77	0xbba0a63b	-0.0049026287
78	0xbc8f355e	-0.017481502
79	0x3eece047	0.4626486
80	0xbc0a9c1b	-0.00846007
81	0x3cd2bc2b	0.025724491
82	0xbe202477	-0.1563891
83	0x3ec62b0f	0.38704726
84	0xbc9e5e6d	-0.019332135
85	0x3e588446	0.21144208
86	0x3e8d27e9	0.27569512
87	0x3c8dba1d	0.01730066
88	0xbd2ef175	-0.04271074
89	0xbd275be1	-0.040859107
90	0x3f030b1a	0.51188815
91	0x3c98b1ff	0.018639563
92	0x3f32a48b	0.6978232
93	0xbed78b32	-0.42098385
94	0x3d374f0d	0.044753123
95	0xbeb51397	-0.35366508
96	0xbe6928b5	-0.22769435
97	0x3dda00c2	0.10644676
98	0xbd8d9a47	-0.06914192
99	0xbdf67b21	-0.12035204
100	0x3eeef4af	0.46671054
101	0xbdaaf729	-0.08347923
102	0xbda8af54	-0.08236566
103	0xbeb48ba7	-0.35262796
104	0xbe808255	-0.25099435
105	0x3db29cc7	0.08721309
106	0xc08a8bc5	-4.3295617
107	0xbebd5f3e	-0.36986727
108	0x3f4d380a	0.80163634
109	0xbf048e2c	-0.5177944
110	0xbc19a390	-0.009377375
111	0x3dac4c55	0.08412997
112	0x3ede61a3	0.43433866
113	0xbdf91250	-0.12161696
114	0xbeb6b1f7	-0.3568265
115	0x3e248507	0.16066371
116	0xbe6f67ba	-0.23379412
117	0x3ed887b3	0.4229103
118	0x40c3f87a	6.1240816
119	0xbf514319	-0.8174301
120	0x3ead8fe7	0.3389885
121	0x3d222fc6	0.03959634
122	0x3ef01fb9	0.46899202
123	0x3d6c7c8f	0.057735976
124	0xbde19bba	-0.110160306
125	0x3a8f7c1d	0.0010947023
126	0xbee88254	-0.45411932
127	0x3db7e169	0.089785405
128	0x3f8bd166	1.0923278
129	0x3e14fb9b	0.14549105
130	0x3da0aae7	0.07845097
131	0xbed79ddc	-0.42112625
132	0x3ed3cefb	0.4136885
133	0xc004f45e	-2.077415
134	0xbe8e524c	-0.27797163
135	0xbe8c55b0	-0.27409124
136	0x3b284a3a	0.0025679008
137	0x3f11f6ba	0.570171
138	0xbe206f98	-0.1566757
139	0x3f49a8c6	0.7877315
140	0x3eccf8aa	0.40033466
141	0x3e8f2868	0.27960515
142	0x3d03767f	0.03209543
143	0x3f0075a5	0.5017951
144	0xbba5a298	-0.005054783
145	0xbd2a48ea	-0.041573443
146	0x3f3ba353	0.7329609
147	0xbcf75f0f	-0.030196695
148	0x3dae1566	0.08500175
149	0x3e1e2c17	0.15446506
150	0x3e81ad85	0.25327697
151	0xbd36b722	-0.044608243
152	0xbe93f6bb	-0.28899178
153	0x3d837b10	0.06419957
154	0xbe9dec27	-0.30844232
155	0xbc975d98	-0.018477246
156	0x4051b63e	3.2767482
157	0x3eb1070d	0.34575692
158	0x3e6c2f1d	0.23064847
159	0xbf263b6a	-0.6493441
160	0x3ed71c54	0.420138
161	0xbdb9e84e	-0.09077512
162	0xbe01ca89	-0.12674917
163	0xbf8321c5	-1.0244681
164	0x3e7fb1f3	0.24970226
165	0xbda9fd60	-0.083002806
166	0x3c764c80	0.015032887
167	0xbe0bf3d1	-0.13667227
168	0x3e604950	0.21902966
169	0x3cbded2b	0.02318438
170	0xbf37f3da	-0.7185646
171	0x3c50f013	0.012752551
172	0x3ff66e25	1.9252363
173	0x3e193a97	0.14963757
174	0x3e41a48b	0.18910424
175	0x3d2f9c8d	0.042873908
176	0xbf0681bf	-0.52541727
177	0x3d344105	0.04400732
178	0x3e78a7ef	0.24282812
179	0xbdcf980d	-0.10136423
180	0xc07c2e24	-3.9403162
181	0xbf051ecd	-0.52000123
182	0xbbb5e487	-0.005550924
183	0xc066d0ac	-3.6064863
184	0x3e7ac871	0.24490525
185	0x3e811708	0.25212884
186	0x3fad7a3b	1.3552927
187	0xbe22eb0a	-0.15909973
188	0xbcefec3b	-0.029287448
189	0xbd86115e	-0.06546281
190	0x3e914c88	0.283787
191	0x3e03a045	0.12854107
192	0xbe629c1b	-0.22129862
193	0x3f1d1936	0.61366594
194	0xbd42bd51	-0.047543827
195	0xbf48e800	-0.78479004
196	0x3f6b8a71	0.9200812
197	0x3e7704b8	0.24122894
198	0xbf3dafa8	-0.74096155
199	0x3f675d89	0.903771
200	0x40080d42	2.1258092
201	0x3f4165bb	0.75545853
202	0x3ed64ac5	0.4185392
203	0xbf14161d	-0.5784624
204	0xbe84f6d8	-0.25969577
205	0x4096ed09	4.716435
206	0x3db08857	0.08619755
207	0xbe9533a6	-0.29140967
208	0xbd4e9e12	-0.050443716
209	0x3d99688e	0.07490645
210	0xbf48a729	-0.78380066
211	0x3f5b0ee3	0.8556959
212	0xbe0a5493	-0.13508825
213	0x3f29b58e	0.66292655
214	0xbf815781	-1.0104829
215	0x3b0b9551	0.0021298716
216	0x3f96de8e	1.1786668
217	0x3c87598c	0.016522191
218	0x3e778988	0.24173558
219	0xbe29f9f7	-0.1659926
220	0x3fe7b643	1.8102497
221	0xbf027346	-0.50957143
222	0xbd4b6617	-0.049657907
223	0x3ed8b47d	0.42325202
224	0xbdbbe1c2	-0.09173919
225	0xbc22e56d	-0.009942395
226	0xbb106e44	-0.002203838
227	0xbf3ff96f	-0.7498998
228	0x3d8e4c56	0.06948154
229	0xbd708bd9	-0.05872712
230	0xbd962360	-0.07330966
231	0x3facecd3	1.3509773
232	0xbf82395c	-1.0173755
233	0x3d5cfdd7	0.053953018
234	0x3f325742	0.69664395
235	0x3f235857	0.6380667
236	0x3eef39ad	0.4672369
237	0xbf02b581	-0.51058203
238	0xbd9d88d5	-0.07692114
239	0x3d18e5bc	0.037328467
240	0xbee361c8	-0.4441054
241	0xbd865e62	-0.06560971
242	0x3e3f51c7	0.1868354
243	0xc001bfdb	-2.027335
244	0x3f1ee896	0.6207365
245	0xc054730a	-3.3195214
246	0x3f4bb311	0.7957011
247	0x40807898	4.014721
248	0xbe886b22	-0.26644236
249	0x3df2e111	0.11859334
250	0xbf38529e	-0.72001064
251	0x3fe13a8d	1.7595993
252	0xbdeafb36	-0.11473696
253	0x3cc78799	0.02435665
254	0xc0224103	-2.535218
255	0xbda48b19	-0.08034343

bias f4 [4]
0	0xbdf40218	-0.11914462
1	0x3df27bdf	0.11840033
2	0x3e1bb3a8	0.15205252
3	0xbeeb2a9c	-0.45930946

weight f4 [64, 17]
0	0x3af9081e	0.0018999611
1	0xbada7c96	-0.001666921
2	0xbe82e618	-0.25566173
3	0xbdb53278	-0.08847517
4	0xbe512046	-0.20422468
5	0xbe1743a5	-0.14771898
6	0x3da8cd2a	0.08242257
7	0x3dd3a4d1	0.103341706
8	0xbdea7179	-0.114474244
9	0xbe836bc7	-0.25668165
10	0xbe856e40	-0.26060677
11	0x3d526486	0.051365398
12	0x3e0dad43	0.13835625
13	0xbd45f88a	-0.04833273
14	0xbdb45fd3	-0.088073395
15	0xbe141190	-0.14459825
16	0x3c9909d1	0.018681439
17	0x3e5cabc4	0.21549898
18	0x3ea8230b	0.32839236
19	0xbead0eee	-0.33800453
20	0xc03411e0	-2.813591
21	0xc02a70c7	-2.6631334
22	0x3e712969	0.23550953
23	0x3e9b88b4	0.30377734
24	0x3e616538	0.22011268
25	0xbdeb6909	-0.11494643
26	0xbf28f836	-0.6600374
27	0xbe2cceba	-0.16875735
28	0xbe8fce0f	-0.28086898
29	0x3e88285a	0.26593286
30	0x3d5b8a8d	0.05359893
31	0x3df22a90	0.118245244
32	0x3d91d770	0.071211696
33	0x3cb09ffb	0.02156066
34	0xbe9199e4	-0.28437722
35	0x3db3e5ef	0.08784091
36	0xbe158a54	-0.14603549
37	0xbd31b71b	-0.043387514
38	0x3dde4d70	0.10854614
39	0x3e033117	0.12811695
40	0xbd8bf835	-0.06834451
41	0x3d41a42b	0.047275703
42	0xbe70c940	-0.23514271
43	0xbe13a70c	-0.14419192
44	0xbdfa11e4	-0.122104436
45	0xbd749c9f	-0.059719678
46	0xbdfa5a8d	-0.122243024
47	0x3d9546bb	0.072888814
48	0xbd973a45	-0.07384161
49	0xbdba13b0	-0.09085786
50	0x3d839a94	0.06425968
51	0xbdb3011a	-0.087404445
52	0xbdece6ed	-0.11567483
53	0xbd9f61a6	-0.07782297
54	0x3fb56cc9	1.4173824
55	0x3fb3bb14	1.4041467
56	0x3d52267d	0.051306237
57	0x3bdf9b13	0.006823906
58	0xb9cd23cd	-0.0003912732
59	0xbdef81ee	-0.11694704
60	0x3d808301	0.06274987
61	0xbc215617	-0.009847186
62	0xbe392c1e	-0.18083236
63	0xbef882a1	-0.48537162
64	0xbc18c1c1	-0.009323538
65	0xbba2b086	-0.004964891
66	0xbbb158ee	-0.0054122126
67	0xba56e54f	-0.0008197622
68	0xbe4ddcc2	-0.20103744
69	0x3ee68f86	0.45031375
70	0x3eaf1ae7	0.34200212
71	0xbece07cc	-0.40240324
72	0xbd1fb026	-0.038986348
73	0xbe7feb21	-0.24992038
74	0xbe7fd3ed	-0.24983187
75	0x3b93a75c	0.004506035
76	0x3f112a41	0.567051
77	0x3f20e9a8	0.6285653
78	0xbe1cb0c8	-0.15301812
79	0x3e83bbb8	0.25729156
80	0x3e99f052	0.30066162
81	0xbbf9e9a8	-0.007626731
82	0x3b92cb43	0.004479797
83	0x39161846	0.00014314157
84	0xbcffa683	-0.031207329
85	0x3d736ffe	0.059432976
86	0x3ee533ea	0.4476617
87	0xbe0ffb7a	-0.14060774
88	0x3ee4240e	0.44558758
89	0x3f31a7af	0.6939649
90	0xbf038eb1	-0.51389605
91	0x3f133b8c	0.57512736
92	0xbd401990	-0.04689938
93	0xbf4fe2f7	-0.81205696
94	0xbf11698d	-0.5680168
95	0x3e981b58	0.29708362
96	0x3f08c3dd	0.53423864
97	0xbee45d8e	-0.44602627
98	0x379857e0	1.8160732e-05
99	0x3d783933	0.060601424
100	0x3d066979	0.03281543
101	0xbd2dd05b	-0.04243503
102	0x3e220bb6	0.1582478
103	0xbe3c0b5e	-0.18363711
104	0xbe756618	-0.23964727
105	0x3e1c9cc9	0.15294184
106	0x3e36bac2	0.1784468
107	0x3d95dfc4	0.073180705
108	0x3e5186e2	0.2046161
109	0xbd292072	-0.041290708
110	0x3e035007	0.12823497
111	0xbe4e235b	-0.20130675
112	0xbe5e8934	-0.21732026
113	0x3c0b57c5	0.008504813
114	0xbe3975ab	-0.18111293
115	0xbc92ffa8	-0.017944172
116	0xbd5866b5	-0.052832324
117	0x3d30168d	0.042990256
118	0xbd1eb184	-0.03874351
119	0x3c82d3cd	0.015970135
120	0xbf127353	-0.5720722
121	0x3e1a0b06	0.15043268
122	0x40690722	3.6410604
123	0x406eee35	3.733289
124	0x3d1b2b1f	0.03788292
125	0xbe02adb4	-0.12761575
126	0x3da7aa1c	0.08186743
127	0x3f4f1c8b	0.8090293
128	0x3f8d0294	1.1016412
129	0x3ca50cad	0.020147646
130	0x3f5494aa	0.83039343
131	0xbe89e484	-0.26932156
132	0xb9ce03b1	-0.00039294132
133	0xbc8af6bf	-0.01696336
134	0x3c6eb8ad	0.014570397
135	0x389febb0	7.625611e-05
136	0x3e477630	0.19478679
137	0x3eb41946	0.35175532
138	0x3ed02062	0.40649706
139	0xc0baf160	-5.8419647
140	0xc0b5717c	-5.670103
141	0x3e024bbe	0.12724206
142	0xbd781e3c	-0.06057571
143	0xbdd87b4c	-0.10570392
144	0xbe51afa2	-0.20477155
145	0x3ef1d0fa	0.4722975
146	0xbe46f50a	-0.19429412
147	0xbeb706ab	-0.35747275
148	0xbf1b319d	-0.6062258
149	0x3ceaeda2	0.028677765
150	0x3ca9c46d	0.020723546
151	0x3c868ff6	0.016426068
152	0xbb7252a4	-0.0036975527
153	0xbdff1062	-0.12454297
154	0x3f0a5c9d	0.54047567
155	0xbc89b81a	-0.01681142
156	0xbf86f077	-1.0542134
157	0xbf6cc8b6	-0.9249376
158	0xbf1d9323	-0.6155264
159	0x3e9261ef	0.28590342
160	0xbdf64363	-0.12024572
161	0x3e26bd13	0.16283064
162	0xbf0cecad	-0.5504864
163	0xbe51bdd1	-0.20482565
164	0xbe8e053d	-0.27738371
165	0xbd457dcc	-0.048215672
166	0x3c5b2d98	0.01337757
167	0x3b27725e	0.0025550346
168	0xbc1bb9e3	-0.009504768
169	0x3ca04a24	0.019566603
170	0x3e5b5758	0.21420038
171	0x3df35764	0.11881903
172	0x3e02eaff	0.12784956
173	0xc040e01d	-3.0136788
174	0xc021eb91	-2.5300028
175	0xbbb41451	-0.005495586
176	0x3e9fc8cd	0.31207886
177	0x3e6b73c1	0.22993375
178	0x3e6ad771	0.22933747
179	0xbe351878	-0.17685115
180	0xbecd624f	-0.40114066
181	0xbd6f5a39	-0.058435652
182	0x3e856537	0.26053783
183	0x3ce29399	0.02765827
184	0x3d7f6a28	0.062357098
185	0xbcee738b	-0.02910783
186	0xbde3903f	-0.11111497
187	0x3e779f54	0.24181873
188	0x3c6ab1c7	0.014324612
189	0x3edda828	0.43292356
190	0xbf8b9f31	-1.0907956
191	0xbf8fc44b	-1.1231779
192	0x3dc7a888	0.09748942
193	0xbd5ffa5e	-0.054682128
194	0xbc3e391b	-0.011610295
195	0x3fd388a3	1.6526073
196	0x3f480d01	0.7814484
197	0x3e489ce3	0.19591098
198	0xbfb5c909	-1.4201976
199	0x3e85b7b1	0.26116708
200	0x3ba1280e	0.004918105
201	0xbbc4fd4e	-0.0060116416
202	0x3c05146f	0.0081225475
203	0x3b0d3a94	0.0021549808
204	0x3d154ebb	0.036452036
205	0x3ee123fb	0.43972763
206	0xbf1a992c	-0.6038997
207	0xc038c99e	-2.8873057
208	0xc028b789	-2.636202
209	0x3e88ba84	0.267048
210	0xbe50c18c	-0.20386332
211	0xbe8a9db6	-0.2707345
212	0xbf4ea8f1	-0.80726534
213	0xbfcd7d01	-1.6053773
214	0xbd04b53b	-0.032399397
215	0xbe21127e	-0.1572971
216	0x3eb370fc	0.35047138
217	0xbd571819	-0.052513216
218	0xbdc282d6	-0.09497611
219	0x3d710083	0.05883838
220	0xbd94eabc	-0.072713345
221	0x3e18cd8a	0.14922157
222	0x3e5245c3	0.20534424
223	0xbcd43fbf	-0.025909303
224	0xc0044ca6	-2.0671782
225	0xc01c68d2	-2.4438977
226	0xbe56ee92	-0.20989445
227	0xbd4d354c	-0.050099656
228	0xbe84c58b	-0.25931963
229	0xbdff3e84	-0.12463096
230	0xbed44bfc	-0.4146422
231	0xbe8fce12	-0.28086907
232	0xbdf3c1fa	-0.119022325
233	0x3e1a1201	0.1504593
234	0xbd2de574	-0.04245515
235	0xbdd6f604	-0.104961425
236	0xbc31f5b2	-0.010861801
237	0x3e19316a	0.14960256
238	0xbef78674	-0.48344767
239	0x3ea93a7a	0.33052427
240	0xbe94a4a7	-0.2903187
241	0x4034caf4	2.8248873
242	0x40396a43	2.8971107
243	0xbdb0876f	-0.08619582
244	0x3e0ef5fb	0.13961022
245	0xbe2698f9	-0.16269292
246	0xbeb36832	-0.35040432
247	0xbe7cf27f	-0.2470188
248	0x3e584e8a	0.2112371
249	0x3ecca550	0.39969873
250	0x3e124164	0.14282757
251	0xbc6f605f	-0.014610379
252	0x3ba59476	0.0050530983
253	0xbc02b71a	-0.007978225
254	0x3acff08a	0.0015864533
255	0x3e452c69	0.19255222

bias f4 [64]
0	0xbe7a7b9a	-0.24461213
1	0x3ea4a3d3	0.32156238
2	0xbdd4df03	-0.103940986
3	0x3f34ea63	0.70670146
4	0xbdecaa66	-0.115559384
5	0xbd253d91	-0.040341917
6	0x3d901842	0.07035877
7	0x3d7e9eb5	0.062163074
8	0x3e6533c4	0.22383028
9	0x3ecd02ec	0.40041292
10	0x3e864ef0	0.262321
11	0xbe19e147	-0.15027343
12	0x3e6706ed	0.22561236
13	0x3ec97d70	0.39353514
14	0x3d5448bd	0.05182718
15	0x3cf334ef	0.029688327
16	0x3ed30617	0.41215584
17	0xbdfaa5b9	-0.1223864
18	0xbe748d41	-0.23882009
19	0xbe72a818	-0.23696935
20	0xbb70da31	-0.0036751146
21	0x3e4cdbec	0.20005769
22	0xbe59fd8f	-0.21288131
23	0x3ec624d0	0.3869996
24	0xbcf94d42	-0.030432347
25	0x3d780b7a	0.06055782
26	0xbe89cd33	-0.26914367
27	0xbe94b732	-0.29046017
28	0xbd978172	-0.073977366
29	0xbdd46a03	-0.10371783
30	0xbe5cab85	-0.21549805
31	0x3e668a26	0.22513637
32	0x3de55b94	0.11199108
33	0xbe0017af	-0.12509035
34	0x3f2677f1	0.65026766
35	0x3981c6b0	0.0002475283
36	0x3e6681c5	0.2251044
37	0xbc2c4d61	-0.010516495
38	0x3d8b7d58	0.06811017
39	0xbe7da9c2	-0.24771789
40	0xbf16aa75	-0.58853847
41	0x3ed0d2f4	0.40785944
42	0x3d8c52c2	0.06851722
43	0x3ee57aa9	0.44820145
44	0x3e6e5dda	0.23277989
45	0xbc93ac01	-0.018026354
46	0x3e5d69ed	0.21622439
47	0x3eb57b40	0.35445595
48	0x3edd485c	0.43219268
49	0xbdecd122	-0.115633264
50	0xbd944427	-0.072395615
51	0xbe870204	-0.26368725
52	0x3e23e361	0.16004707
53	0xbe146994	-0.144934
54	0x3d019be2	0.031642802
55	0xbdd99592	-0.106242314
56	0x3e8be36d	0.2732195
57	0x3e28f2b5	0.16498835
58	0x3e023f2b	0.12719409
59	0x3e90ef02	0.28307348
60	0x3d1e5bd2	0.038661785
61	0xbc6157c6	-0.013753837
62	0x3e476dd4	0.1947549
63	0xbe616eb4	-0.22014886

weight f4 [64, 64]
0	0x3d770795	0.060309965
1	0x3e85da79	0.26143244
2	0xbd35ac97	-0.044354048
3	0x3c0753f6	0.008259764
4	0x3da3575b	0.07975646
5	0x3def3c6a	0.11681445
6	0x3c75870f	0.014985814
7	0x3dcf8143	0.101320766
8	0x3bd7adc8	0.0065819956
9	0x3d6e4b39	0.058177207
10	0x3e2a5e50	0.1663754
11	0x3ed046d9	0.40679052
12	0x3e4de66b	0.20107429
13	0x3e6197ac	0.22030514
14	0x3eab2cec	0.3343271
15	0x3de49424	0.11161068
16	0x3e255199	0.16144408
17	0xbe9892a9	-0.29799393
18	0xbd8da4a3	-0.069161676
19	0xbd9aa2f6	-0.075506136
20	0xbd55ca2a	-0.05219475
21	0xbdc9ae2f	-0.09847676
22	0x3c6b11f0	0.014347538
23	0x3e4071aa	0.1879336
24	0x3d40b725	0.04704966
25	0x3d945943	0.07243588
26	0xbbdf7ab1	-0.006820046
27	0x3dd3399a	0.10313721
28	0xbe55c3b6	-0.20875439
29	0x3e292f0e	0.16521856
30	0x3dd3ffb8	0.10351509
31	0x3e7a6995	0.24454339
32	0x3f713ca0	0.9423313
33	0x3cc9373d	0.024562472
34	0xbfc136a0	-1.5094795
35	0xbe14a6c2	-0.14516738
36	0xbe567eaf	-0.20946763
37	0x3eb45896	0.35223836
38	0x3e1733d6	0.14765868
39	0x3d15611d	0.036469568
40	0xbddc8793	-0.10768046
41	0x3e68f666	0.22750244
42	0xbd74bae4	-0.059748545
43	0x3e773cb9	0.24144258
44	0x40259815	2.5874074
45	0xbcad5cd7	-0.021162434
46	0x3e502ead	0.20330305
47	0x3e02022d	0.12696142
48	0xbf9cffef	-1.2265605
49	0x3c2223de	0.009896247
50	0x3e09c823	0.13455252
51	0x3d4fe1de	0.050752513
52	0x3d52bfda	0.051452495
53	0xbddf7b62	-0.10912205
54	0x3df76f32	0.12081756
55	0x3e190b7f	0.14945792
56	0x3e33ef0d	0.1757166
57	0xbeb03948	-0.34418702
58	0x3cc303dd	0.023805553
59	0x3e91541d	0.28384486
60	0x3cd74d92	0.026282106
61	0xbfef2ff2	-1.8686507
62	0x3dd7b43f	0.10532426
63	0xbe0e91ab	-0.13922755
64	0xbd703359	-0.05864272
65	0x3a8ef8f3	0.0010907933
66	0xbd9d9884	-0.07695106
67	0x3dcf63d1	0.1012646
68	0xbd8fa848	-0.07014519
69	0x3c4dbb29	0.0125568295
70	0xbc786994	-0.015161891
71	0xbd29d2af	-0.04146069
72	0x3dc05583	0.0939131
73	0x3c2a4335	0.010392
74	0xbd96bb97	-0.07359999
75	0x3cb4cb05	0.022069464
76	0xbe38278d	-0.17983837
77	0x3d8f09c8	0.069842875
78	0xbd67f684	-0.05663158
79	0x3c7a5f74	0.015281547
80	0xbb56d3a6	-0.003277996
81	0x3d8ee277	0.069767885
82	0x3d89808c	0.067139715
83	0x3d24d0f0	0.04023832
84	0xbdd7dc3a	-0.10540052
85	0xbd50ddf7	-0.050992932
86	0xbd53e334	-0.05173035
87	0x3d632f6a	0.05546514
88	0x3d18e2da	0.037325718
89	0xbc197fd6	-0.009368857
90	0xbde7d8aa	-0.11320622
91	0xbdeb4de4	-0.11489466
92	0xbdd63df6	-0.10461037
93	0x3db317c0	0.08744764
94	0x3da03100	0.07821846
95	0xbe12ad26	-0.14323863
96	0xbe19bc0f	-0.15013145
97	0x3dd5267a	0.104077294
98	0x3c81d828	0.015850142
99	0xbda1520a	-0.07876976
100	0xbd77cd48	-0.060498506
101	0x3d208014	0.039184645
102	0x3d4f9ab9	0.050684664
103	0xbba17220	-0.004926935
104	0xbddc134b	-0.10745867
105	0xbdb9cadd	-0.09071896
106	0xbdc56146	-0.09637694
107	0xbbf209a4	-0.007386403
108	0xbdd6597b	-0.10466286
109	0x3d2e7b5f	0.042598125
110	0xbcd5bedd	-0.026091987
111	0xbc934bbb	-0.017980447
112	0xbd83a528	-0.064279854
113	0xbcaae995	-0.020863334
114	0x3d6b79d5	0.057489235
115	0x3d8c36f2	0.068464175
116	0xbd8ee70e	-0.06977664
117	0xbd6bb3b8	-0.05754444
118	0x3d5ade25	0.05343451
119	0xbdde99e3	-0.10869195
120	0xbd8fe8bc	-0.070268124
121	0x3d6990ca	0.057022847
122	0xbd87bc5b	-0.06627723
123	0xbd5ff67f	-0.054678436
124	0xbcf10220	-0.029419959
125	0xbd97db82	-0.07414915
126	0xbd67f74b	-0.05663232
127	0x3d52eb24	0.05149378
128	0xbdf9ecde	-0.12203382
129	0xbbbb3391	-0.0057129343
130	0x3c947b30	0.018125147
131	0xbdb1f1ec	-0.08688721
132	0x3d766270	0.06015247
133	0x3ce3d5c8	0.0278119
134	0x3d232fd0	0.03984052
135	0xbdb91946	-0.09038024
136	0xbcadb492	-0.021204267
137	0x3c2b9ed5	0.01047488
138	0xbdaf3d4c	-0.08556613
139	0xbdadbb45	-0.084829845
140	0xbd845860	-0.06462169
141	0xbe1d5041	-0.15362646
142	0x3db43396	0.08798902
143	0xbd232a24	-0.03983511
144	0xbdd71e52	-0.1050383
145	0xbd947cbf	-0.07250356
146	0xbd86490a	-0.065569
147	0xbc9dc0e0	-0.019257009
148	0xbda3ef62	-0.08004643
149	0xbcc90938	-0.024540529
150	0x3d783600	0.060598373
151	0xbd640bca	-0.055675305
152	0x3d89c3ec	0.06726822
153	0x3d08763b	0.03331588
154	0xbde67ea6	-0.11254625
155	0xbda58baa	-0.080832794
156	0x3c3b2470	0.011422262
157	0xbdc8cb07	-0.098043494
158	0x3da99b4a	0.08281572
159	0x3d80b6a8	0.06284839
160	0xbdd54046	-0.1041265
161	0x3c7b0230	0.015320346
162	0xbcfb71ef	-0.030693976
163	0x3dd6e1a2	0.10492255
164	0xbe096b69	-0.1341988
165	0xbcbda25e	-0.023148712
166	0xbe071795	-0.1319259
167	0xbdda5d4e	-0.10662328
168	0x3d8e08f9	0.06935305
169	0x3cbd0013	0.023071324
170	0xbe040dc3	-0.12895875
171	0x3dbf4bcd	0.0934063
172	0xbe23ea6b	-0.16007392
173	0x3d25fff6	0.040527306
174	0xbd1a2011	-0.037628237
175	0xbdc3f4fa	-0.0956821
176	0x3cce1560	0.025156677
177	0xbda128a8	-0.07869083
178	0xbd28e1ae	-0.04123085
179	0xbdafcb3c	-0.08583686
180	0x3c332433	0.010933924
181	0xbdb13190	-0.086520314
182	0xbd37b081	-0.04484606
183	0xbe24a160	-0.16077185
184	0xbdef8953	-0.116961144
185	0x3d1e8fdd	0.038711417
186	0xbd9ab1ed	-0.07553468
187	0xbe2961db	-0.16541235
188	0x3d0b13f4	0.033954576
189	0x3c0e65d7	0.008691273
190	0xbdb5ebe4	-0.08882883
191	0x3c6acf20	0.014331609
192	0xbd877bfc	-0.06615445
193	0xbe0f1d2b	-0.1397597
194	0xbcac9740	-0.021068215
195	0x3d5037d0	0.050834477
196	0xbcdeb5bc	-0.027186267
197	0xbdf645c4	-0.120250255
198	0x3dc73826	0.09727506
199	0xbd52f665	-0.05150451
200	0xbe114b2c	-0.14188832
201	0x3c1ba288	0.0094992
202	0xbe095c91	-0.13414218
203	0x3da60f42	0.08108379
204	0xbbd7bc84	-0.006583752
205	0x3b9c5ef5	0.004772062
206	0xbe10f62b	-0.14156406
207	0x3aa4679f	0.0012543089
208	0xbd311c37	-0.0432398
209	0xbcddd2c0	-0.027078032
210	0x3d113194	0.035447672
211	0xbde677e2	-0.112533346
212	0xbdb700ba	-0.089356855
213	0xbde94156	-0.11389415
214	0xbd34618c	-0.04403834
215	0x3cc05401	0.023477556
216	0x3d8c3d74	0.06847659
217	0x39b4ee89	0.00034509998
218	0xbd4a014c	-0.049317643
219	0x3ba05cc0	0.004893869
220	0x3d49400c	0.049133345
221	0xbdb37e9f	-0.087643854
222	0xbdf3a162	-0.11896016
223	0xbd699614	-0.05702789
224	0xbda6e65b	-0.081494056
225	0x3da6b874	0.081406504
226	0x3c2628bd	0.010141549
227	0x3c929ca0	0.01789695
228	0x3caf094e	0.021366742
229	0xbe11b0d2	-0.14227608
230	0xbdc755d5	-0.09733168
231	0xbdd15dd2	-0.10222973
232	0xbcf72be8	-0.030172303
233	0xbdf5bdad	-0.119990684
234	0xbbb093e0	-0.005388722
235	0xbdb65d7e	-0.08904551
236	0x3bdf6dc1	0.0068185036
237	0xbe0d1c7c	-0.13780397
238	0xbdc737ac	-0.097274154
239	0x3d602eba	0.054732062
240	0x3d6afcf4	0.05737014
241	0xbc95b8e0	-0.018276632
242	0xbdb6d92d	-0.08928142
243	0xbde08386	-0.10962586
244	0x3d631bf0	0.055446565
245	0x3b1f6bc0	0.0024325699
246	0xbd593f24	-0.05303873
247	0xbd38b113	-0.045090746
248	0xbd7f6e72	-0.06236119
249	0x3d89a004	0.06719974
250	0xbde53ef8	-0.11193651
251	0xbd227061	-0.039657954
252	0x3da69d44	0.08135465
253	0xbd73302a	-0.059372105
254	0x3d0e4cac	0.03474109
255	0xb9695c67	-0.00022255034

bias f4 [64]
0	0x3e69b650	0.22823453
1	0xbdc87833	-0.09788551
2	0xbd01bb48	-0.031672746
3	0xbd68d3ea	-0.056842722
4	0xbe14c728	-0.14529097
5	0xbd9d1aee	-0.07671152
6	0x3e9c79c6	0.30561656
7	0xbd90e9c9	-0.07075841
8	0x3d31f55d	0.043446887
9	0x3e826dc9	0.25474384
10	0xbd36f8fb	-0.04467104
11	0x3d1bbcce	0.038021855
12	0x3d1e1217	0.03859147
13	0xbe12c13f	-0.1433153
14	0xbcd1702f	-0.025566189
15	0x3e0b6ed1	0.13616492
16	0x3ea7ee6f	0.32799098
17	0x3dcad53f	0.09903955
18	0x3dcadcc7	0.09905391
19	0x3dd67902	0.10472299
20	0x3ec9860f	0.3936009
21	0x3dca19fb	0.09868237
22	0xbd1721ae	-0.036897354
23	0x3dd94938	0.106096685
24	0x3dbfb557	0.0936076
25	0xbc3f34f0	-0.011670336
26	0xbdfcfa3f	-0.12352418
27	0xbdba8b47	-0.09108596
28	0xbdb39a34	-0.08769646
29	0xbde71011	-0.11282361
30	0x3cced947	0.02525009
31	0xbdda394e	-0.10655461
32	0xbca15769	-0.019695
33	0xb9d5e430	-0.0004079654
34	0x3da50a99	0.08058662
35	0xbd9ce651	-0.07661117
36	0x3e302aaf	0.17203782
37	0x3ded1cd5	0.11577765
38	0x3d2a0278	0.04150626
39	0x3d5fc030	0.054626644
40	0xbe0e8a6c	-0.13919991
41	0xbe0c4298	-0.13697278
42	0x3dbe1b48	0.09282547
43	0xbcb05abf	-0.021527646
44	0x3ddda114	0.10821739
45	0xbd0896d2	-0.03334696
46	0x3e3e68b1	0.18594624
47	0x3e344018	0.17602575
48	0x3de7a817	0.113113575
49	0x3e55fa87	0.2089635
50	0x3bd88a35	0.0066082724
51	0xbd54b04a	-0.051925935
52	0x3c305249	0.010761806
53	0x3da9a80c	0.082840055
54	0x3e198783	0.149931
55	0x3e34d1c8	0.1765815
56	0xbd8ee868	-0.06977922
57	0x3d82d779	0.063887544
58	0xbcbee556	-0.023302715
59	0xbd39e585	-0.045384903
60	0x3e3046e6	0.17214546
61	0xbdee815a	-0.116457656
62	0x3da50cd4	0.080590874
63	0xbc41a217	-0.01181843
